LABS_v3/211102_Data_230320_06.tflite (tflite, 38768 bytes, 10 tensors)

sequential_7/dense_47/BiasAdd/ReadVariableOp f4 [3]
0.09588591 0.046373554 -0.053413894
00000000: d55f c43d 32f2 3d3d 87c8 5abd

sequential_7/dense_46/BiasAdd/ReadVariableOp f4 [32]
-2.3654428 -0.47544464 -0.17760482 -0.47909513 1.6015185 -1.84578 1.3429621 -3.470065
-0.34273106 -1.0405903 -3.0941799 -2.40323 -1.2712684 -3.114007 0.99506766 -2.6429062
1.213438 1.4503088 -3.2270257 -2.4265175 -2.5976927 -0.35134155 -0.57398367 -2.6334994
-0.26109695 -0.50477767 0.31342128 -2.5934842 -0.6969253 1.4928565 -0.39058408 2.0291152
00000000: 6a63 17c0 7b6d f3be 0ade 35be f54b f5be
00000010: 8ffe cc3f 8542 ecbf 2fe6 ab3f 8c15 5ec0
00000020: 727a afbe 1032 85bf 0b07 46c0 85ce 19c0
00000030: ecb8 a2bf e44b 47c0 c1bc 7e3f 6025 29c0
00000040: f051 9b3f b8a3 b93f 9787 4ec0 104c 1bc0
00000050: 9940 26c0 0ae3 b3be 98f0 12bf 418b 28c0
00000060: 80ae 85be 1c39 01bf c178 a03e a5fb 25c0
00000070: b269 32bf ec15 bf3f a3fa c7be 06dd 0140

sequential_7/dense_45/BiasAdd/ReadVariableOp f4 [32]
0.8297433 1.7707441 0.5578927 0.76908064 -1.6226974 -0.47903425 0.5126239 -0.5229706
1.6968162 -1.5544822 1.0096992 0.5047496 3.0357049 1.4613547 -1.3943788 0.08185358
-0.6025004 2.3622034 1.1964469 0.3669451 -1.1849653 -0.6936545 1.487692 1.7882261
0.09803848 -0.547077 2.6363592 -0.32680127 1.6005212 0.355969 0.6941451 -0.5011592
00000000: 0f6a 543f bea7 e23f 0ed2 0e3f 78e2 443f
00000010: 8cb4 cfbf fa43 f5be 523b 033f 67e1 05bf
00000020: 4631 d93f 46f9 c6bf d33d 813f 4537 013f
00000030: fd48 4240 ac0d bb3f 017b b2bf daa2 a73d
00000040: 773d 1abf 572e 1740 2c25 993f 3ae0 bb3e
00000050: f1ac 97bf 5793 31bf b16c be3f 98e4 e43f
00000060: 66c8 c83d 3d0d 0cbf 1cba 2840 7f52 a7be
00000070: e1dd cc3f 9241 b63e 7eb3 313f f84b 00bf

sequential_7/dense_44/BiasAdd/ReadVariableOp f4 [64]
-0.8151224 -0.3476308 1.8917731 0.30745018 1.0768958 0.32136115 0.045226432 0.9005829
0.9785909 -0.40728137 0.028497005 1.5724036 -0.33276954 0.57439137 -0.15927881 0.53077614
0.50599813 0.00485386 1.1008929 0.08162278 -2.7139482 -0.8183132 1.4690248 2.0454717
-5.1811023 0.018420542 2.3617933 -0.31058556 2.2566614 0.31603676 3.1174684 0.46982688
1.4579563 1.3831195 0.86326426 0.3961661 -0.046476457 1.0120479 1.443506 1.2510797
0.7381626 0.0099746995 1.3528591 0.32577965 0.070271045 1.3644142 2.5003905 1.5838329
-0.3410129 1.3542316 -4.103381 0.09305642 -2.9695 1.0258349 1.1791295 0.8525914
0.468251 1.3046875 0.23842938 -5.3470135 0.035768792 1.7720152 -1.8592156 -0.9127651
00000000: ddab 50bf aafc b1be 9f25 f23f 1c6a 9d3e
00000010: b9d7 893f 7389 a43e 5a3f 393d 9a8c 663f
00000020: ef84 7a3f 2f87 d0be 8d72 e93c 8544 c93f
00000030: c560 aabe 500b 133f fc19 23be f2e0 073f
00000040: 1889 013f 210d 9f3b 0fea 8c3f d829 a73d
00000050: 54b1 2dc0 f97c 51bf 0109 bc3f 02e9 0240
00000060: 97cb a5c0 ade6 963c 9f27 1740 1205 9fbe
00000070: 246d 1040 92cf a13e 9a84 4740 268d f03e
00000080: 509e ba3f 0f0a b13f e3fe 5c3f 48d6 ca3e
00000090: 195e 3ebd c98a 813f cec4 b83f 6123 a03f
000000a0: 39f8 3c3f ec6c 233c 7d2a ad3f 97cc a63e
000000b0: 44ea 8f3d 20a5 ae3f 6606 2040 09bb ca3f
000000c0: 3e99 aebe 7657 ad3f e64e 83c0 5d94 be3d
000000d0: 4a0c 3ec0 8f4e 833f b7ed 963f 6e43 5a3f
000000e0: 98be ef3e 0000 a73f d526 743e bc1a abc0
000000f0: 4c82 123d 65d1 e23f c7fa edbf f9aa 69bf

sequential_7/dense_43/BiasAdd/ReadVariableOp f4 [64]
-1.4312544 -1.9019319 -1.4224725 -0.6394362 -2.52558 -2.8273401 -2.0860474 -0.52231896
-0.60090935 -1.2988758 -1.6502515 -0.40833542 -1.8600044 -2.0831223 -2.089059 -1.9990396
-2.5443826 -2.4600942 -0.8464645 -1.4812201 -2.9266229 -1.8676255 -1.7251557 -0.9149922
-2.896466 -1.8091424 -3.329413 -3.0175066 -1.2104683 -1.168839 -2.7934008 -1.8852497
-1.5636146 -2.5232882 -2.3379924 0.29661185 -2.2322636 -1.5070071 -0.30726868 -2.0074527
-0.7768845 -2.0713053 -0.25184396 -3.009621 -2.2058556 -2.5284586 -3.3646882 -3.302186
-0.5618195 -2.6899319 -2.1259289 -1.7034501 -1.894051 -2.3434653 -1.356863 -3.1129024
-2.5605552 -1.8700268 -2.2570379 -1.9863309 -1.6827282 -0.2138712 -0.69389087 -1.5751188
00000000: 5833 b7bf 8172 f3bf 9413 b6bf 17b2 23bf
00000010: 1aa3 21c0 24f3 34c0 cd81 05c0 b2b6 05bf
00000020: 32d5 19bf 9041 a6bf 713b d3bf 5711 d1be
00000030: a014 eebf e051 05c0 25b3 05c0 88e0 ffbf
00000040: 2ad7 22c0 2f72 1dc0 e6b1 58bf 9f98 bdbf
00000050: ca4d 3bc0 5a0e efbf e7d1 dcbf ee3c 6abf
00000060: b35f 39c0 fa91 e7bf 1a15 55c0 d41e 41c0
00000070: a0f0 9abf 849c 95bf 14c7 32c0 dd4f f1bf
00000080: 8624 c8bf 8e7d 21c0 aba1 15c0 82dd 973e
00000090: 68dd 0ec0 9ce5 c0bf 5252 9dbe 1b7a 00c0
000000a0: e7e1 46bf 4490 04c0 b1f1 80be a19d 40c0
000000b0: bd2c 0dc0 44d2 21c0 0d57 57c0 0457 53c0
000000c0: 67d3 0fbf d827 2cc0 380f 08c0 a70a dabf
000000d0: 4370 f2bf 56fb 15c0 b0ad adbf cb39 47c0
000000e0: 23e0 23c0 0a5d efbf 4f73 10c0 1740 febf
000000f0: a363 d7bf 0d01 5bbe d5a2 31bf 7e9d c9bf

sequential_7/dense_43/MatMul f4 [64, 24]
-0.48392525 -0.16026042 0.39710847 1.2204384 0.029369652 0.5165849 -0.14300369 -1.2902082
0.32910705 0.11634108 0.3265795 0.42667162 0.51849896 0.059123617 -0.13018769 0.5282503
0.6052707 -0.43851542 -0.70934397 -0.10492079 -0.23232013 0.5384336 0.49324036 0.48528644
0.033996485 0.4252417 0.21985593 0.049975798 0.41174057 0.15408608 -0.33529532 -0.118444785
0.14924832 0.13250455 0.39557543 0.1679545 0.07134238 -0.027710158 0.34838164 0.50726205
0.0863377 -0.2211968 -0.8253834 0.22120313 0.03599483 -2.6271062 -0.8926616 0.5781739
-0.19258489 -0.049806185 -0.13739428 -0.5629524 0.2070143 -0.16416292 0.09646299 0.5008836
-0.947458 0.06771887 0.37994084 0.3858026 0.15075183 0.012907329 1.1551312 -0.5078286
-1.4269216 0.43224543 0.34935355 0.16389197 0.041922633 0.42097032 0.37232742 -2.0355828
-0.63284856 0.22886987 -0.41308045 -1.9162848 -0.46392044 -0.30378333 -0.7942239 0.26060486
0.47972813 0.10679905 0.25872138 0.06821081 0.12635402 -0.07176895 0.29477453 0.76432824
-0.2388854 -0.22929478 0.75001365 0.08494408 -0.012009967 0.37557533 0.20745914 -0.57842183
-3.3403695 -0.615872 -0.23216988 -0.036844768 0.21132278 0.26835415 0.80678755 -0.70701945
-0.015403974 0.3645767 0.30263233 0.10994729 -0.09312291 -0.1922062 -0.67627543 -0.8744164
-0.15044367 -0.25610027 -0.09316854 0.21551998 0.5423266 -0.6320581 -0.6066552 -0.0009329126
-0.091299795 -0.09025456 0.44853124 -0.7217342 -0.5435809 0.19669798 0.387919 0.11799203
0.12950203 0.10872123 0.132915 -0.04653783 0.08675243 -0.028037455 -0.15237749 0.074534625
-0.018931597 -0.09189356 -0.35576373 -2.8979478 -0.4742333 0.2284829 0.3467328 -0.19686729
0.26412386 0.27631938 0.18580906 0.86400586 0.26695156 0.71538186 0.6788209 0.63430744
0.41709164 0.45295614 0.23331678 0.15519379 -1.2050514 0.21329807 0.22999053 0.65104735
0.633171 0.34253514 -1.0645919 -0.5571149 0.33030987 0.5136237 -0.03663798 0.18098424
-1.0492948 -0.16668895 0.027416479 0.1548936 0.48099518 0.2843368 -1.2187084 -0.38155243
0.41873783 0.5832566 0.27402407 -0.18651968 -0.17490791 -0.22815977 -0.3075764 0.17099348
-0.34839684 -0.68338007 -0.2982708 0.2227169 0.22139312 -0.31617278 -0.34157148 -0.3234406
-0.03942259 0.22069806 -0.21257792 0.41001886 -0.04705109 -0.4178289 -1.0305352 0.64403695
0.1731204 -0.039687656 -0.0069865887 0.15596028 -0.32104453 0.20462291 -0.43198368 0.31489903
0.9066245 -0.49459684 -0.4629567 -0.2874249 0.19732748 0.36497086 0.29161614 0.30830333
-0.08534637 -0.47837865 0.2508631 -0.09815849 -0.29450235 0.2059698 0.4963317 -0.47620377
0.24744184 0.12098805 0.21951391 -0.38969517 -0.2605163 0.5015701 -0.28331617 0.11740021
0.010194501 -0.12766877 0.10472942 -0.67590505 -1.7837378 -0.9732482 -0.5077394 -0.41010636
0.77585757 -0.051533952 0.3836398 -0.610994 -0.26516268 -0.5207992 0.4928335 0.062219523
-0.013729497 -2.2662065 -1.2768058 0.13769375 0.031899054 0.028060298 0.07193852 0.22432669
00000000: 0dc5 f7be 4f1b 24be cd51 cb3e 5337 9c3f
00000010: a098 f03c e83e 043f 8f6f 12be 8b25 a5bf
00000020: b880 a83e 3b44 ee3d 6e35 a73e b474 da3e
00000030: 59bc 043f 9b2b 723d ec4f 05be 693b 073f
00000040: 05f3 1a3f 1885 e0be 9197 35bf b6e0 d6bd
00000050: 54e5 6dbe c9d6 093f 008a fc3e 7777 f83e
00000060: e63f 0b3d 48b9 d93e ea21 613e 6cb3 4c3d
00000070: a9cf d23e bec8 1d3e d4ab abbe 2e93 f2bd
00000080: 8dd4 183e 46af 073e dd88 ca3e 44fc 2b3e
00000090: f41b 923d 6a00 e3bc 145f b23e eddb 013f
000000a0: d2d1 b03d 6a81 62be 544c 53bf 1383 623e
000000b0: 516f 133d 8222 28c0 7885 64bf 3403 143f
000000c0: f934 45be 9201 4cbd 16b1 0cbe a61d 10bf
000000d0: 8ffb 533e 531a 28be 638e c53d e839 003f
000000e0: 9c8c 72bf 31b0 8a3d 9b87 c23e eb87 c53e
000000f0: b05e 1a3e 4379 533c 57db 933f 0e01 02bf
00000100: 5ea5 b6bf 464f dd3e 78de b23e 4cd3 273e
00000110: 11b7 2b3d 6c89 d73e b3a1 be3e fd46 02c0
00000120: 5d02 22bf dd5c 6a3e 487f d3be d248 f5bf
00000130: fb86 edbe 7d89 9bbe 4252 4bbf 006e 853e
00000140: ed9e f53e 76b9 da3d 2177 843e 1cb2 8b3d
00000150: f362 013e 99fb 92bd b0ec 963e 04ab 433f
00000160: 609e 74be 40cc 6abe e500 403f 29f7 ad3d
00000170: 74c5 44bc 694b c03e 2b70 543e 7413 14bf
00000180: 9dc8 55c0 caa9 1dbf f1bd 6dbe 8aea 16bd
00000190: 0065 583e b765 893e a189 4e3f 3aff 34bf
000001a0: f360 7cbc cca9 ba3e a0f2 9a3e 0b2c e13d
000001b0: 39b7 bebd b4d1 44be 6320 2dbf c1d9 5fbf
000001c0: e80d 1abe 931f 83be 26cf bebd 45b1 5c3e
000001d0: ebd5 0a3f 8fce 21bf c14d 1bbf b48e 74ba
000001e0: 63fb babd 62d7 b8bd e3a5 e53e 93c3 38bf
000001f0: 1e28 0bbf 326b 493e 529d c63e cea5 f13d
00000200: 2e9c 043e 3ca9 de3d df1a 083e 749e 3ebd
00000210: 42ab b13d ceae e5bc d808 1cbe 9ca5 983d
00000220: 7016 9bbc b132 bcbd aa26 b6be fa77 39c0
00000230: b5ce f2be 6cf7 693e f686 b13e 9497 49be
00000240: 3e3b 873e bc79 8d3e bb44 3e3e 7d2f 5d3f
00000250: e0ad 883e 4423 373f 35c7 2d3f f961 223f
00000260: 098d d53e dee9 e73e 98ea 6e3e 1feb 1e3e
00000270: 203f 9abf cf6a 5a3e a382 6b3e 0aab 263f
00000280: 7f17 223f c460 af3e 8c44 88bf 159f 0ebf
00000290: 601e a93e d87c 033f b511 16bd ef53 393e
000002a0: 4b4f 86bf 82b0 2abe 8698 e03c 6e9c 1e3e
000002b0: 0045 f63e 9894 913e a3fe 9bbf d75a c3be
000002c0: ce64 d63e 4e50 153f e24c 8c3e 04ff 3ebe
000002d0: 0f1b 33be b7a2 69be a77a 9dbe ea18 2f3e
000002e0: 1261 b2be fff1 2ebf f3b6 98be e60f 643e
000002f0: e1b4 623e 66e1 a1be 75e2 aebe 029a a5be
00000300: 9579 21bd acfe 613e 07ae 59be feed d13e
00000310: a5b8 40bd abed d5be 94e8 83bf 9bdf 243f
00000320: 7946 313e 868f 22bd c1ef e4bb 0db4 1f3e
00000330: f35f a4be ab88 513e f72c ddbe 723a a13e
00000340: 8b18 683f cc3b fdbe a908 edbe 5b29 93be
00000350: 3710 4a3e 76dd ba3e b64e 953e efd9 9d3e
00000360: 14ca aebd 0cee f4be 2171 803e 5207 c9bd
00000370: 03c9 96be bfe9 523e 301f fe3e fbd0 f3be
00000380: 6561 7d3e 95c8 f73d 41c8 603e 2086 c7be
00000390: 6462 85be e666 003f d10e 91be 856f f03d
000003a0: d606 273c 9abb 02be 617c d63d 1d08 2dbf
000003b0: 8551 e4bf cb26 79bf 36fb 01bf 76f9 d1be
000003c0: 9a9e 463f 4415 53bd 706c c43e 1a6a 1cbf
000003d0: 67c3 87be 1953 05bf ac54 fc3e e6d9 7e3d
000003e0: aff1 60bc 8709 11c0 5f6e a3bf 97ff 0c3e
000003f0: 95a8 023d b6de e53c 8154 933d e5b5 653e

sequential_7/dense_44/MatMul f4 [64, 64]
-0.48857647 -0.15686367 -0.27562466 0.9000453 -0.040470406 0.38033313 -0.7605804 -0.6830963
-0.07164622 0.51402533 0.38497207 -0.22648562 -0.15950178 -0.8953372 0.477983 -0.156666
-0.03495114 -0.4352269 -0.08003953 -0.15391725 -0.8228701 0.22293666 0.12453887 -2.4548874
-0.8644391 0.19982925 -0.6164988 -0.6203625 -0.8258094 0.13727508 -0.12113315 -0.9213258
-0.680076 0.11067775 0.08735583 0.72493804 -0.40918082 -1.1078125 0.17296888 -0.22598796
-0.48298806 -0.12278786 0.34314886 -0.66397095 0.49878237 -0.6705515 -0.59163094 -1.3915858
-0.35973722 -0.5465794 0.012856873 0.016904427 -1.1927282 -0.1758791 -0.13376708 -0.0101468675
-1.1007038 -0.042730913 0.11311164 -1.3869059 0.4931458 0.014676571 -0.13823098 0.29649124
-0.012821408 0.21882997 -0.54640484 -0.53342247 -0.28976956 -0.5392302 0.95062035 0.2528245
-0.5977106 0.073217675 -0.58376634 -0.44701782 -0.60536116 -0.84332633 -1.1852129 -1.670102
-0.5519348 -0.6026432 -0.2142146 -0.43937626 -0.84161556 0.2640152 -0.7590533 -0.57846975
-0.42177117 -0.4716695 -0.21197917 -0.5924472 -0.84507865 -0.33054447 -0.53680474 0.0474722
-0.75111836 -0.24475695 0.8671603 -0.48845524 -0.069419354 -0.4640873 -0.023980202 -0.5957287
1.1964352 0.79180664 -0.86347544 -0.58563995 -0.98584723 0.24953173 -1.0264443 -0.8576462
0.49846593 -0.36893612 -0.30263177 -0.71246696 -0.6185942 -0.22699133 -0.043064155 -1.066975
-0.32768548 -0.31979254 -0.40182248 -0.5413098 -0.19365382 -0.7618308 -1.3340509 0.022812832
-0.4389829 -0.46210903 0.17423221 -0.27619603 -0.2040441 -0.6667888 0.016298622 -0.65069175
-0.116630025 -1.1724114 -0.20075543 -0.08890492 -0.39562005 -0.46514183 -0.40136504 -0.11871545
-0.45829952 -0.098980434 -0.06317 0.49500316 -0.20542225 0.07347472 0.005998102 -0.18173015
-0.119164765 -0.73125494 -0.5452908 -0.82549274 -0.06528731 0.55034566 0.9352543 -0.55769753
-0.4789604 0.14628853 -0.6020513 -0.006879659 0.06126111 -0.13454483 -0.22357684 -0.29910335
-0.475983 0.26098967 0.06165672 -0.7352898 -0.29436913 -0.026515523 -0.36475727 -0.17612356
-0.23823877 1.9430089 -0.23120305 -0.32423005 -0.10920484 0.00926118 -0.36420244 -0.08389902
-0.17232071 -0.3001775 -0.51678365 0.6964999 -0.21521088 -0.16666014 -0.36819485 -0.1052325
-0.24082538 -0.17665929 -0.05942533 -0.28469872 0.26110753 -0.1726965 -0.27096358 0.10329672
-0.010322312 -0.021247583 -1.3984478 -0.17225541 -0.16597968 0.2424702 0.29116595 0.13564482
-0.7023996 1.1066086 -0.075810775 -0.39641494 -0.2012902 -0.5691487 0.14775193 -0.22514053
-0.24617715 -0.49084592 -0.6719535 -1.4809803 0.076047145 -0.54992014 -0.884236 0.5811276
-0.96939903 -0.9131802 -0.33729386 0.19278486 0.20276815 0.47967833 -0.8103864 -0.11262934
-0.013337647 -0.8729182 -0.6164162 -0.2262864 -0.6287519 -0.19870818 -0.55403405 -0.43255362
-0.5893611 -0.20821594 -0.4451909 0.08694585 -1.0245684 -0.9237165 -0.072310045 -0.7837895
-0.11326119 0.46812338 -0.08773107 -0.14558159 0.033459745 -0.29115197 0.3707758 -0.14477174
00000000: b226 fabe dfa0 20be ad1e 8dbe 5e69 663f
00000010: 4cc4 25bd 06bb c23e 66b5 42bf 66df 2ebf
00000020: 41bb 92bd 2a97 033f 0f1b c53e d9eb 67be
00000030: 6f54 23be d234 65bf 30ba f43e 0d6d 20be
00000040: ed28 0fbd 0fd6 debe c4eb a3bd 7c9c 1dbe
00000050: 9da7 52bf 8249 643e 3c0e ff3d e01c 1dc0
00000060: e14b 5dbf 0aa0 4c3e ded2 1dbf 14d0 1ebf
00000070: 3f68 53bf d791 0c3e a814 f8bd 02dc 6bbf
00000080: 7619 2ebf 04ab e23d 9de7 b23d 8a95 393f
00000090: 2680 d1be cdcc 8dbf c11e 313e 6369 67be
000000a0: 364a f7be 3478 fbbd 35b1 af3e 00fa 29bf
000000b0: 6760 ff3e 43a9 2bbf 2075 17bf 7c1f b2bf
000000c0: 7a2f b8be a1ec 0bbf a2a5 523c 277b 8a3c
000000d0: 51ab 98bf a719 34be 3dfa 08be 0c3f 26bc
000000e0: dde3 8cbf 9c06 2fbd 13a7 e73d 2286 b1bf
000000f0: 9b7d fc3e 0076 703c 6c8c 0dbe b3cd 973e
00000100: e210 52bc f714 603e 30e1 0bbf 608e 08bf
00000110: ad5c 94be fe0a 0abf db5b 733f 3672 813e
00000120: 9003 19bf 26f3 953d b671 15bf 85df e4be
00000130: f3f8 1abf 3ce4 57bf 0eb5 97bf e7c5 d5bf
00000140: 994b 0dbf d346 1abf 125b 5bbe edf5 e0be
00000150: 1e74 57bf 002d 873e 5151 42bf 9816 14bf
00000160: 64f2 d7be aa7e f1be 1111 59be 9faa 17bf
00000170: 1357 58bf 203d a9be 096c 09bf 3672 423d
00000180: 4b49 40bf 91a1 7abe 38fe 5d3f ce16 fabe
00000190: bc2b 8ebd da9c edbe 2172 c4bc ad81 18bf
000001a0: ca24 993f d7b3 4a3f ba0c 5dbf 80ec 15bf
000001b0: 7c60 7cbf 3f85 7f3e 8762 83bf b48e 5bbf
000001c0: ed36 ff3e 32e5 bcbe 8df2 9abe 3c64 36bf
000001d0: 315c 1ebf 6a70 68be 0a64 30bd a392 88bf
000001e0: 64c6 a7be d9bb a3be adbb cdbe 4793 0abf
000001f0: 304d 46be 5807 43bf 2ec2 aabf fae1 ba3c
00000200: 5ec2 e0be 8e99 ecbe ee69 323e 9169 8dbe
00000210: f0f0 50be acb2 2abf b084 853c bc93 26bf
00000220: b9db eebd 9411 96bf d592 4dbe c813 b6bd
00000230: b68e cabe 1227 eebe b87f cdbe 1621 f3bd
00000240: 3ca6 eabe 41b6 cabd 465f 81bd 0e71 fd3e
00000250: 365a 52be ea79 963d ba8b c43b 7817 3abe
00000260: a80c f4bd 8633 3bbf 2e98 0bbf 7e53 53bf
00000270: 5ab5 85bd 74e3 0c3f d36c 6f3f 44c5 0ebf
00000280: 4c3a f5be a9cc 153e 0920 1abf c36e e1bb
00000290: eeec 7a3d 1fc6 09be 54f1 64be 1324 99be
000002a0: 0bb4 f3be 70a0 853e c28b 7c3d f43b 3cbf
000002b0: 8db7 96be 1537 d9bc 77c1 babe bc59 34be
000002c0: ddf4 73be 84b4 f83f 7ec0 6cbe 7b01 a6be
000002d0: caa6 dfbd 34bc 173c be78 babe 40d3 abbd
000002e0: d774 30be deb0 99be ef4b 04bf d14d 323f
000002f0: 3e60 5cbe f5a8 2abe 0984 bcbe 2384 d7bd
00000300: ee9a 76be 2ce6 34be fa67 73bd 08c4 91be
00000310: e3af 853e 5ad7 30be bdbb 8abe 3b8d d33d
00000320: ea1e 29bc 690f aebc 5600 b3bf b963 30be
00000330: 94f6 29be 1c4a 783e b413 953e 7ae6 0a3e
00000340: 76d0 33bf 5aa5 8d3f ae42 9bbd e6f6 cabe
00000350: 051f 4ebe bbb3 11bf 484c 173e 3d8b 66be
00000360: dd15 7cbe 2850 fbbe 2505 2cbf c390 bdbf
00000370: 9bbe 9b3d 91c7 0cbf 4a5d 62bf c7c4 143f
00000380: 892a 78bf 2dc6 69bf c8b1 acbe 6569 453e
00000390: 74a2 4f3e 6698 f53e 7c75 4fbf 36aa e6bd
000003a0: 2586 5abc 9177 5fbf 74cd 1dbf 9fb7 67be
000003b0: e2f5 20bf 287a 4bbe 2dd5 0dbf ab77 ddbe
000003c0: 5ee0 16bf 8f36 55be 10f0 e3be aa10 b23d
000003d0: 0f25 83bf af78 6cbf 4a17 94bd 6ea6 48bf
000003e0: 7cf5 e7bd dead ef3e 59ac b3bd 5713 15be
000003f0: 160d 093d df11 95be 53d6 bd3e 0b3f 14be

sequential_7/dense_45/MatMul f4 [32, 64]
-0.089328855 -0.525957 -0.4079962 -0.18082005 0.13665518 -0.27292496 -0.079071045 -0.23725405
0.12226538 0.8030467 -0.36592308 -0.44211388 -0.43875432 -0.937278 -0.9047149 -0.6590252
-0.577778 -0.2615049 -0.03694657 0.14915366 -0.6529053 -0.91939557 0.04345733 -0.1211454
-0.62397194 0.28038323 -0.023189876 -0.56852084 0.5232582 0.051695723 0.5502073 0.12987702
-0.6592498 -0.52576464 -0.34050003 -0.1801384 -0.30734348 0.54543245 -0.0011890437 0.078963846
-0.49386927 -0.27430308 -0.04497086 -0.38918483 0.2368714 -0.20962344 0.0633706 -0.1841456
-0.7825456 0.058426615 -0.7566734 -0.16900599 -0.5694328 -0.36769462 0.10607131 -0.27050987
-1.0440398 -0.30261627 -0.9802079 -0.3213578 -0.048698857 -0.17850018 -0.21221143 -0.8580233
-0.013219137 -0.6215368 -0.04506149 -0.0025796238 -0.32256806 -0.24128793 -0.63004416 0.3699264
-0.7486799 0.3865614 -0.20469405 -0.51484644 0.008686277 -0.21414243 -0.31380484 -0.6580371
-0.33794817 0.23224014 -0.12725301 -0.7628988 -0.13759723 -0.7556374 -0.43822366 0.35240152
0.052913558 -0.56813025 -0.026209734 0.1381158 -0.41652176 -0.4286337 -0.7653952 -0.7347228
-0.20677799 0.14295153 0.15927516 0.008450586 -0.10980781 -1.4106771 -0.46513245 -0.28149724
-0.027316015 -0.041807666 -1.407533 -0.0025046954 -0.18895634 0.11297031 -1.0087861 -0.57313335
-0.10362643 -0.6648095 -0.27839112 -0.24416952 0.04201453 0.011480105 -0.40903035 -0.031299483
-0.72256374 0.15791985 -0.3944319 -0.38892278 -0.030642994 -0.4332173 -0.19081344 -0.054268543
-0.058261357 -0.72335505 0.5065065 -0.34472486 -0.14994156 -0.50807405 -0.7015286 -0.11077648
-0.5711525 -0.077791296 -0.2918539 -0.20807508 0.37500632 0.21569057 -0.25207925 0.26873288
-0.14546315 0.02682303 -0.21261165 -0.589187 -0.68724257 -0.60223275 -0.09915263 0.02905966
-0.38112032 -0.3581437 0.2556213 -0.46059 0.006205744 -0.35371158 -0.28070107 -0.35268307
0.1164596 -0.20509188 0.16976261 -0.124456584 0.36001682 -0.6850761 -0.00027112343 -0.07914731
0.13862444 -0.14964053 -0.49750337 -0.09332749 -0.02126536 -0.030005367 -0.3804871 -0.48324296
-0.21981019 0.0128599 -0.3264344 0.06717372 -0.020286355 -0.98213625 -0.3563339 -0.050111763
-1.1261965 0.15018384 0.014039528 -0.4285722 0.059879616 -0.317547 -0.6278179 -0.5892753
-0.1235035 -0.17490669 -0.41668397 -0.10115006 0.04784269 -0.18342488 0.098597795 -0.4554525
0.2027076 0.7029298 -0.64883876 -0.046051595 -0.26819363 -1.5298713 -0.239135 -0.19753304
-0.08346198 -0.24956384 -0.88109434 0.14917026 -0.0024689264 -0.41251177 -0.0073811654 -0.16187221
-0.29567558 0.24539194 -0.1733655 -0.032904852 -0.916408 0.317982 -0.2527921 0.37298125
0.08321249 -0.19160704 -0.15123701 -0.09258284 -0.5448243 0.21834694 -0.5570967 -0.18383329
-0.14134647 -0.225573 0.32242006 -0.25321275 -0.07242085 -0.30319434 -0.34625486 -0.37962392
-0.8062112 -0.19576077 -0.2835072 -0.10857902 -0.18740228 0.19541393 0.2003116 0.038348388
-0.76000315 -1.0047565 -0.9194175 -0.18912816 0.06414846 -0.4670548 -0.6839952 0.12805802
00000000: 0cf2 b6bd 1ea5 06bf e1e4 d0be e428 39be
00000010: 56ef 0b3e d2bc 8bbe 00f0 a1bd baf2 72be
00000020: 4666 fa3d 7894 4d3f 455a bbbe c05c e2be
00000030: 68a4 e0be 73f1 6fbf 659b 67bf e0b5 28bf
00000040: 42e9 13bf f8e3 85be 4955 17bd bdbb 183e
00000050: cd24 27bf 825d 6bbf 5000 323d 141b f8bd
00000060: a0bc 1fbf 648e 8f3e b2f8 bdbc 958a 11bf
00000070: 40f4 053f e5be 533d 63da 0c3f 7bfe 043e
00000080: 98c4 28bf 8398 06bf 0556 aebe 3376 38be
00000090: 205c 9dbe 76a1 0b3f b0d9 9bba ccb7 a13d
000000a0: 6fdc fcbe 7471 8cbe 5d33 38bd 3c43 c7be
000000b0: 6b8e 723e 87a7 56be 72c8 813d aa90 3cbe
000000c0: e954 48bf bf50 6f3d 59b5 41bf e80f 2dbe
000000d0: 59c6 11bf 7842 bcbe ea3b d93d 4580 8abe
000000e0: 19a3 85bf 85f0 9abe e8ee 7abf 0289 a4be
000000f0: 7478 47bd c0c8 36be f44d 59be 6aa7 5bbf
00000100: 1495 58bc 091d 1fbf 6692 38bd e80e 29bb
00000110: a427 a5be 2f14 77be 934a 21bf fe66 bd3e
00000120: 7ca9 3fbf 60eb c53e 519b 51be facc 03bf
00000130: e350 0e3c 2748 5bbe 07ab a0be 1f75 28bf
00000140: 8b07 adbe 5cd0 6d3e 9d4e 02be 564d 43bf
00000150: 4ae6 0cbe 7471 41bf da5e e0be f96d b43e
00000160: e3bb 583d fc70 11bf ccb5 d6bc 3a6e 0d3e
00000170: 5742 d5be e075 dbbe f1f0 43bf cb16 3cbf
00000180: 9cbd 53be e361 123e 0719 233e 5474 0a3c
00000190: ebe2 e0bd 1191 b4bf d725 eebe 6820 90be
000001a0: d6c5 dfbc 843e 2bbd 0b2a b4bf d125 24bb
000001b0: c57d 41be fa5c e73d e71f 81bf deb8 12bf
000001c0: 183a d4bd f530 2abf 4889 8ebe 9307 7abe
000001d0: 6e17 2c3d 0d17 3c3c 6d6c d1be e333 00bd
000001e0: f0f9 38bf beb5 213e faf2 c9be e320 c7be
000001f0: 0407 fbbc a8ce ddbe 9964 43be b148 5ebd
00000200: 76a3 6ebd cc2d 39bf 69aa 013f c77f b0be
00000210: 488a 19be 2411 02bf 6197 33bf c7de e2bd
00000220: 0d37 12bf 0b51 9fbd e06d 95be a211 55be
00000230: d400 c03e fddd 5c3e 8810 81be 5b97 893e
00000240: 4bf4 14be f9bb db3c deb6 59be f6d4 16bf
00000250: 21ef 2fbf ed2b 1abf 8910 cbbd 860e ee3c
00000260: 3422 c3be 9c5e b7be cce0 823e 74d2 ebbe
00000270: 8e59 cb3b af19 b5be 0db8 8fbe e092 b4be
00000280: 5f82 ee3d 9b03 52be 40d6 2d3e 18e3 febd
00000290: 2054 b83e 2661 2fbf 9225 8eb9 fc17 a2bd
000002a0: 91f3 0d3e 5e3b 19be c3b8 febe 7c22 bfbd
000002b0: b134 aebc d1cd f5bc 35cf c2be 9f6b f7be
000002c0: ec15 61be 54b2 523c 6922 a7be 6092 893d
000002d0: 922f a6bc 486d 7bbf 6671 b6be fe41 4dbd
000002e0: 3527 90bf cbc9 193e 0c06 663c d16d dbbe
000002f0: 5444 753d 8595 a2be adb8 20bf bfda 16bf
00000300: 67ef fcbd bd1a 33be 9a57 d5be c327 cfbd
00000310: b2f6 433d bbd3 3bbe a4ed c93d 1231 e9be
00000320: 9592 4f3e 35f3 333f 4c1a 26bf 99a0 3cbd
00000330: ad50 89be d3d2 c3bf cedf 74be 1a46 4abe
00000340: 1dee aabd aa8d 7fbe 668f 61bf 17c0 183e
00000350: b6cd 21bb be34 d3be b4dd f1bb d4c1 25be
00000360: ca62 97be 0648 7b3e ba86 31be 3dc7 06bd
00000370: b799 6abf 89ce a23e f76d 81be 66f7 be3e
00000380: 4f6b aa3d a334 44be e0dd 1abe 129c bdbd
00000390: 9b79 0bbf 5796 5f3e e49d 0ebf cb3e 3cbe
000003a0: 21bd 10be 9cfc 66be 3e14 a53e 1aa5 81be
000003b0: 6251 94bd 4a3c 9bbe 5148 b1be 115e c2be
000003c0: db63 4ebf 8375 48be db27 91be ad5e debd
000003d0: 62e6 3fbe 971a 483e 7c1e 4d3e 3313 1d3d
000003e0: 918f 42bf dc9b 80bf f25e 6bbf d0aa 41be
000003f0: 4560 833d cf21 efbe 4f1a 2fbf a421 033e

sequential_7/dense_46/MatMul f4 [32, 32]
0.08121266 0.08766753 -0.008111505 0.15897879 -0.003339384 0.49345383 -0.6781972 -0.2912892
-0.40401262 -0.071710594 0.22245854 -0.37001553 -0.07919788 0.13648866 0.5650955 -0.29541034
-0.2430024 0.080040574 -0.013034061 0.25119326 0.22105697 -0.00327967 0.21891974 -0.25104827
-0.36628225 0.07491896 -0.34251377 -0.470477 0.24986976 0.20435534 -0.50211596 -0.19382703
0.015908917 -0.2690925 -0.084594324 -0.2899626 -0.4456963 0.41936806 -0.47306916 0.17587546
0.20700975 0.32840675 -0.43241632 -0.09420522 -0.55693996 0.18886036 -0.10130089 -0.14521451
-0.037019618 -0.59822637 -0.051595524 -0.12565023 -0.13904475 -0.27487916 -0.019259969 -0.18625747
-0.25828782 -0.33472484 -0.4679391 -0.04289201 -0.6677286 -0.50503266 -0.4043333 0.27164373
-0.39109784 -0.16903205 -0.38406983 -0.3096543 -0.14713676 0.094561286 -0.29423854 0.04839941
0.04460397 -0.16142662 -0.52937764 -0.25682113 -0.2857654 -0.44108063 -0.191853 -0.089091115
0.06001856 -0.103434116 -0.012473622 -0.71064657 -0.65989363 0.014742968 -0.6728383 -0.062877156
-0.17623352 -0.17460856 -0.3268454 -0.07211708 -0.6554275 0.058344737 -0.56359494 0.10231823
0.00043446786 -0.39355922 -0.03340527 -0.083453454 -0.38870782 -0.46286577 -0.14126597 0.03334357
-0.05405362 -0.29207963 -0.18448438 -0.110974886 -0.21410304 0.10449817 0.024467986 -0.0014037909
-0.37162307 -0.0821624 -0.16609435 -0.19386324 0.20113158 0.016518418 -0.34910485 -0.19453949
-0.37634593 -0.18304436 -0.69426256 -0.35934 -0.23022062 -0.31608006 -0.03834549 0.22797115
-0.13746315 0.09601021 -0.5829731 0.112691864 -0.08187252 -0.041658066 0.051863812 0.08785626
-0.28957352 -0.06855925 0.07572465 0.090516046 -0.22178766 -0.22547838 0.36441702 -0.5773097
0.041984905 0.3321347 -0.4050843 -0.39053777 0.26772806 -0.21458912 -0.47186413 -0.17471363
-0.35581672 0.10809836 0.031968847 -0.032811128 0.10495402 -0.21748137 -0.4002358 0.056694523
-0.23620696 -0.3107673 -0.026114453 -0.18023737 -0.09435761 0.17681973 -0.014401114 0.389594
-0.11733814 -0.12096353 -0.1348729 -0.00823308 -0.21022606 -0.40629736 0.2677997 -0.5329361
0.012080577 0.090516634 -0.36192936 -0.20676269 0.1436223 -0.28854224 -0.63313854 0.13155425
-0.03162455 -0.5689803 -0.23885179 0.052581355 -0.3358018 0.4242983 -0.26079753 0.027802167
-0.5874936 0.28807905 0.23276128 -1.2220483 0.21122839 6.614253e-06 0.1319749 0.0027387969
-0.012397939 0.04209249 0.08247928 -0.7684338 0.2444999 -0.0024935845 -0.068605356 -0.12721798
0.025726331 0.0710077 -0.058269132 -0.7736468 -0.039433315 -0.12739754 -0.15724167 -0.8143278
0.05668465 0.057678256 -0.18930613 0.06720693 -0.17154185 -0.011061033 -0.9574258 -0.05054856
-0.57292396 0.47604588 0.34168506 -0.29973888 0.330435 -0.38184872 -0.47983193 0.01345716
-0.020079693 0.1114101 0.041091673 -0.14515024 0.18291607 -0.040806778 0.1351916 -0.271096
-0.20370325 -0.1327148 0.017331567 -0.12515604 -0.25274605 0.14118548 -0.42323115 -0.039857008
-0.3649829 0.29611713 -0.28412947 0.4904909 -0.11417694 -0.21737908 -0.14862753 -0.022595827
00000000: d352 a63d 098b b33d 1ee6 04bc 56cb 223e
00000010: 91d9 5abb fba5 fc3e 559e 2dbf dc23 95be
00000020: beda cebe 01dd 92bd 2ccc 633e ad72 bdbe
00000030: 8032 a2bd afc3 0b3e 19aa 103f 0640 97be
00000040: 9fd5 78be 50ec a33d d08c 55bc 679c 803e
00000050: c25c 623e bbef 56bb 7f2c 603e 6689 80be
00000060: 5989 bbbe 1d6f 993d f75d afbe 5de2 f0be
00000070: dcdd 7f3e 8742 513e ac8a 00bf 987a 46be
00000080: 6b53 823c 7ec6 89be ca3f adbd fa75 94be
00000090: 4e32 e4be 69b7 d63e 1f36 f2be b218 343e
000000a0: 5dfa 533e ee24 a83e ac65 ddbe abee c0bd
000000b0: 9e93 0ebf 9c64 413e d776 cfbd 1db3 14be
000000c0: e2a1 17bd 5d25 19bf d455 53bd 74aa 00be
000000d0: bf61 0ebe f6bc 8cbe 15c7 9dbc 47ba 3ebe
000000e0: 4d3e 84be 0e61 abbe b795 efbe 88af 2fbd
000000f0: 43f0 2abf d249 01bf c604 cfbe e314 8b3e
00000100: fa3d c8be bd16 2dbe cda4 c4be 028b 9ebe
00000110: 05ab 16be 59a9 c13d 6fa6 96be 763e 463d
00000120: a7b2 363d 054d 25be 4b85 07bf 0f7e 83be
00000130: d84f 92be 52d5 e1be 1d75 44be 6775 b6bd
00000140: 06d6 753d 44d5 d3bd 2a5e 4cbc efec 35bf
00000150: caee 28bf 7d8c 713c 213f 2cbf bdc5 80bd
00000160: 8f76 34be 96cc 32be 4858 a7be 1fb2 93bd
00000170: 19ca 27bf e4fa 6e3d c247 10bf 388c d13d
00000180: 4ac9 e339 9880 c9be f7d3 08bd a5e9 aabd
00000190: b604 c7be befc ecbe 07a8 10be 4493 083d
000001a0: 5467 5dbd 768b 95be 79e9 3cbe cd46 e3bd
000001b0: d43d 5bbe 2303 d63d 1671 c83c 68ff b7ba
000001c0: 6145 bebe c344 a8bd a314 2abe 1684 46be
000001d0: 70f5 4d3e a251 873c dfbd b2be 5c35 47be
000001e0: 6ab0 c0be fb6f 3bbe 31bb 31bf 6afb b7be
000001f0: f4be 6bbe 3fd5 a1be 2910 1dbd 4571 693e
00000200: 24c3 0cbe 00a1 c43d ba3d 15bf feca e63d
00000210: c8ac a7bd a6a1 2abd 266f 543d fced b33d
00000220: fb42 94be cb68 8cbd 8615 9b3d 7a60 b93d
00000230: 4e1c 63be cee3 66be de94 ba3e 92ca 13bf
00000240: 5df8 2b3d 8f0d aa3e 3667 cfbe 91f4 c7be
00000250: a713 893e 40bd 5bbe 2d98 f1be 21e8 32be
00000260: 9c2d b6be ac62 dd3d c4f1 023d f664 06bd
00000270: 22f2 d63d 70b3 5ebe b5eb ccbe 8438 683d
00000280: 3de0 71be e41c 9fbe faed d5bc 2590 38be
00000290: 903e c1bd 3b10 353e a6f2 6bbc dd78 c73e
000002a0: fb4e f0bd babb f7bd 1f1c 0abe 0ae4 06bc
000002b0: 8045 57be 3506 d0be 0b1d 893e 806e 08bf
000002c0: 9ded 453c c960 b93d ce4e b9be 99b9 53be
000002d0: b911 133e cfbb 93be 5e15 22bf 28b6 063e
000002e0: bf88 01bd b1a8 11bf 9095 74be 8c5f 573d
000002f0: 37ee abbe a03d d93e 4187 85be 5fc1 e33c
00000300: fb65 16bf 197f 933e f958 6e3e 146c 9cbf
00000310: 414c 583e 00f0 dd36 6e24 073e 637d 333b
00000320: ba20 4bbc 2d69 2c3d e6ea a83d 14b8 44bf
00000330: 2f5e 7a3e 686b 23bb f780 8cbd 6e45 02be
00000340: 07c0 d23c 7c6c 913d 9dab 6ebd b70d 46bf
00000350: d484 21bd 8074 02be f603 21be c977 50bf
00000360: 2a2e 683d 0940 6c3d 77d9 41be c9a3 893d
00000370: aba8 2fbe 5639 35bc db19 75bf 020c 4fbd
00000380: 25ab 12bf 49bc f33e 58f1 ae3e 6077 99be
00000390: c72e a93e ad81 c3be 88ac f5be 6c7b 5c3c
000003a0: 2b7e a4bc fa2a e43d be4f 283d 44a2 14be
000003b0: 5a4e 3b3e 0225 27bd ab6f 0a3e 18cd 8abe
000003c0: 9697 50be 63e6 07be eefa 8d3c e828 00be
000003d0: ee67 81be ed92 103e c1b1 d8be 1a41 23bd
000003e0: 0adf babe aa9c 973e 6b79 91be a021 fb3e
000003f0: 99d5 e9bd 9f98 5ebe d131 18be e21a b9bc

sequential_7/dense_47/MatMul f4 [3, 32]
-0.03738989 -0.040224623 0.17199531 0.007171466 -0.2610565 -0.008683985 -0.015349881 0.002620521
-0.01680885 0.034003675 0.11890559 -0.010600161 -0.07956611 0.027636498 0.011060616 -0.018518686
-0.009477537 0.20563377 0.010815814 -0.027505279 -0.09378457 0.02770222 0.122744 -0.007646288
-0.11014645 0.15626211 0.40645742 -0.13252756 0.00048976205 -0.003917182 -0.06104424 0.011220409
-0.12508449 -0.0061919587 -0.13959967 0.06300592 0.008954241 0.035457347 -0.014062012 0.043847516
0.0099002775 0.002283438 -0.019320404 0.14707217 -0.028711464 0.0055109244 0.08618345 -0.0013615754
-0.1459937 -0.00068926206 0.057539083 0.13131489 0.06543263 -0.13934681 0.10973111 0.0041907113
0.16873877 0.036686808 0.6546353 0.0067638117 -0.05636148 -0.27349275 -0.20684059 0.22366212
-0.0015448353 0.11112656 -0.010055907 0.006615811 -0.006907114 0.056208245 0.27333432 -0.07272366
-0.05441355 -0.009546995 0.0013306926 -0.050746683 -0.023665054 -0.12724973 -0.19338208 0.12587155
-0.19942771 -0.014411271 0.08074652 0.0037498116 0.10480061 0.12558293 0.024066225 0.122671455
0.044878364 -0.07664793 0.2915238 -0.020090017 0.20182213 0.060045958 -0.2533508 0.030618407
00000000: 2426 19bd 93c2 24bd 8a1f 303e 9efe ea3b
00000010: 33a9 85be 4647 0ebc 117e 7bbc 0cbd 2b3b
00000020: b7b2 89bc 7047 0b3d c684 f33d 4cac 2dbc
00000030: 8ff3 a2bd f065 e23c 9637 353c 80b4 97bc
00000040: ac47 1bbc a991 523e d034 313c c052 e1bc
00000050: 2012 c0bd c4ef e23c 3561 fb3d b68d fabb
00000060: 7694 e1bd 2d03 203e 301b d03e 4eb5 07be
00000070: 6063 003a b45b 80bb 8609 7abd ced5 373c
00000080: 2616 00be eae5 cabb 37f3 0ebe 3f09 813d
00000090: cfb4 123c b93b 113d 5a64 66bc 7499 333d
000000a0: c634 223c bca5 153b d345 9ebc 169a 163e
000000b0: 4e34 ebbc fc94 b43b f380 b03d e476 b2ba
000000c0: 5f7f 15be 98af 34ba 1aae 6b3d 6977 063e
000000d0: 8b01 863d eeb0 0ebe b4ba e03d 3c52 893b
000000e0: dbc9 2c3e e844 163d 2e96 273f f7a2 dd3b
000000f0: 4cdb 66bd 3e07 8cbe 05ce 53be af07 653e
00000100: 127c caba 5296 e33d 88c1 24bc 72c9 d83b
00000110: 1255 e2bb 9e3a 663d 7af2 8b3e 24f0 94bd
00000120: bee0 5ebd 006b 1cbc a26a ae3a c1db 4fbd
00000130: 37dd c1bc c14d 02be f405 46be 79e4 003e
00000140: c736 4cbe 401d 6cbc 6e5e a53d 66bf 753b
00000150: b4a1 d63d d098 003e 8826 c53c 2c3b fb3d
00000160: 60d2 373d 97f9 9cbd 9c42 953e d293 a4bc
00000170: 76aa 4e3e c0f2 753d 32b7 81be 74d3 fa3c
