LABS_v3/sine_model_quantized.tflite (tflite, 13304 bytes, 5 tensors)

sequential_7/dense_47/MatMul i1 [3, 32] scale=0.0051546087 zero_point=0
-0.03608226 -0.04123687 0.17010209 0.0051546087 -0.26288503 -0.0103092175 -0.015463826 0.0051546087
-0.015463826 0.03608226 0.118556 -0.0103092175 -0.07731913 0.025773045 0.0103092175 -0.020618435
-0.0103092175 0.20618436 0.0103092175 -0.025773045 -0.09278296 0.025773045 0.12371061 -0.0051546087
-0.10824678 0.15463826 0.4072141 -0.13401982 0.0 -0.0051546087 -0.061855305 0.0103092175
-0.12371061 -0.0051546087 -0.13917443 0.061855305 0.0103092175 0.03608226 -0.015463826 0.04639148
0.0103092175 0.0 -0.020618435 0.14948365 -0.030927652 0.0051546087 0.08762835 0.0
-0.14432904 0.0 0.056700695 0.12886521 0.06700991 -0.13917443 0.10824678 0.0051546087
0.17010209 0.03608226 0.6546353 0.0051546087 -0.056700695 -0.27319425 -0.20618436 0.22164817
0.0 0.11340139 -0.0103092175 0.0051546087 -0.0051546087 0.056700695 0.27319425 -0.07216452
-0.056700695 -0.0103092175 0.0 -0.05154609 -0.025773045 -0.12886521 -0.19587514 0.12371061
-0.20102975 -0.015463826 0.08247374 0.0051546087 0.10309218 0.12371061 0.025773045 0.12371061
0.04639148 -0.07731913 0.2938127 -0.020618435 0.20102975 0.061855305 -0.2525758 0.030927652
00000000: f9f8 2101 cdfe fd01 fd07 17fe f105 02fc
00000010: fe28 02fb ee05 18ff eb1e 4fe6 00ff f402
00000020: e8ff e50c 0207 fd09 0200 fc1d fa01 1100
00000030: e400 0b19 0de5 1501 2107 7f01 f5cb d82b
00000040: 0016 fe01 ff0b 35f2 f5fe 00f6 fbe7 da18
00000050: d9fd 1001 1418 0518 09f1 39fc 270c cf06

sequential_7/dense_46/MatMul i1 [32, 32] scale=0.012803546 zero_point=0
0.076821275 0.08962482 -0.012803546 0.15364255 0.0 0.4993383 -0.678588 -0.29448158
-0.40971348 -0.076821275 0.21766028 -0.37130284 -0.076821275 0.14083901 0.56335604 -0.29448158
-0.24326737 0.076821275 -0.012803546 0.2560709 0.21766028 0.0 0.21766028 -0.2560709
-0.37130284 0.076821275 -0.34569573 -0.47373122 0.2560709 0.20485674 -0.4993383 -0.1920532
0.012803546 -0.26887447 -0.08962482 -0.29448158 -0.4481241 0.42251703 -0.47373122 0.17924964
0.20485674 0.3328922 -0.43532056 -0.08962482 -0.5505525 0.1920532 -0.10242837 -0.14083901
-0.038410638 -0.60176665 -0.051214185 -0.12803546 -0.14083901 -0.26887447 -0.025607092 -0.1920532
-0.2560709 -0.3328922 -0.47373122 -0.038410638 -0.6657844 -0.4993383 -0.40971348 0.26887447
-0.39690992 -0.1664461 -0.3841064 -0.3072851 -0.14083901 0.08962482 -0.29448158 0.051214185
0.038410638 -0.1664461 -0.5249454 -0.2560709 -0.28167802 -0.43532056 -0.1920532 -0.08962482
0.06401773 -0.10242837 -0.012803546 -0.7169986 -0.6657844 0.012803546 -0.678588 -0.06401773
-0.17924964 -0.17924964 -0.3328922 -0.076821275 -0.65298086 0.06401773 -0.56335604 0.10242837
0.0 -0.39690992 -0.038410638 -0.08962482 -0.3841064 -0.46092767 -0.14083901 0.038410638
-0.051214185 -0.29448158 -0.17924964 -0.11523192 -0.21766028 0.10242837 0.025607092 0.0
-0.37130284 -0.076821275 -0.1664461 -0.1920532 0.20485674 0.012803546 -0.34569573 -0.1920532
-0.37130284 -0.17924964 -0.69139147 -0.3584993 -0.23046383 -0.32008865 -0.038410638 0.23046383
-0.14083901 0.08962482 -0.58896315 0.11523192 -0.076821275 -0.038410638 0.051214185 0.08962482
-0.29448158 -0.06401773 0.076821275 0.08962482 -0.21766028 -0.23046383 0.3584993 -0.5761596
0.038410638 0.3328922 -0.40971348 -0.39690992 0.26887447 -0.21766028 -0.47373122 -0.17924964
-0.3584993 0.10242837 0.025607092 -0.038410638 0.10242837 -0.21766028 -0.39690992 0.051214185
-0.23046383 -0.3072851 -0.025607092 -0.17924964 -0.08962482 0.17924964 -0.012803546 0.3841064
-0.11523192 -0.11523192 -0.14083901 -0.012803546 -0.20485674 -0.40971348 0.26887447 -0.53774893
0.012803546 0.08962482 -0.3584993 -0.20485674 0.14083901 -0.29448158 -0.62737375 0.12803546
-0.025607092 -0.56335604 -0.24326737 0.051214185 -0.3328922 0.42251703 -0.2560709 0.025607092
-0.58896315 0.28167802 0.23046383 -1.2163368 0.20485674 0.0 0.12803546 0.0
-0.012803546 0.038410638 0.076821275 -0.7682128 0.24326737 0.0 -0.06401773 -0.12803546
0.025607092 0.076821275 -0.06401773 -0.7682128 -0.038410638 -0.12803546 -0.15364255 -0.81942695
0.051214185 0.06401773 -0.1920532 0.06401773 -0.1664461 -0.012803546 -0.96026593 -0.051214185
-0.5761596 0.47373122 0.34569573 -0.29448158 0.3328922 -0.3841064 -0.47373122 0.012803546
-0.025607092 0.11523192 0.038410638 -0.14083901 0.17924964 -0.038410638 0.14083901 -0.26887447
-0.20485674 -0.12803546 0.012803546 -0.12803546 -0.2560709 0.14083901 -0.42251703 -0.038410638
-0.37130284 0.29448158 -0.28167802 0.48653474 -0.11523192 -0.21766028 -0.15364255 -0.025607092
00000000: 0607 ff0c 0027 cbe9 e0fa 11e3 fa0b 2ce9
00000010: ed06 ff14 1100 11ec e306 e5db 1410 d9f1
00000020: 01eb f9e9 dd21 db0e 101a def9 d50f f8f5
00000030: fdd1 fcf6 f5eb fef1 ece6 dbfd ccd9 e015
00000040: e1f3 e2e8 f507 e904 03f3 d7ec eade f1f9
00000050: 05f8 ffc8 cc01 cbfb f2f2 e6fa cd05 d408
00000060: 00e1 fdf9 e2dc f503 fce9 f2f7 ef08 0200
00000070: e3fa f3f1 1001 e5f1 e3f2 cae4 eee7 fd12
00000080: f507 d209 fafd 0407 e9fb 0607 efee 1cd3
00000090: 031a e0e1 15ef dbf2 e408 02fd 08ef e104
000000a0: eee8 fef2 f90e ff1e f7f7 f5ff f0e0 15d6
000000b0: 0107 e4f0 0be9 cf0a fed4 ed04 e621 ec02
000000c0: d216 12a1 1000 0a00 ff03 06c4 1300 fbf6
000000d0: 0206 fbc4 fdf6 f4c0 0405 f105 f3ff b5fc
000000e0: d325 1be9 1ae2 db01 fe09 03f5 0efd 0beb
000000f0: f0f6 01f6 ec0b dffd e317 ea26 f7ef f4fe

sequential_7/dense_45/MatMul i1 [32, 64] scale=0.0171121 zero_point=0
-0.0855605 -0.53047514 -0.41069043 -0.1882331 0.1368968 -0.2737936 -0.0855605 -0.23956941
0.119784705 0.8042687 -0.3593541 -0.4449146 -0.4449146 -0.9411655 -0.90694135 -0.6673719
-0.5818114 -0.2566815 -0.0342242 0.15400891 -0.6502598 -0.92405343 0.051336303 -0.119784705
-0.61603564 0.2737936 -0.0171121 -0.5646993 0.53047514 0.051336303 0.5475872 0.1368968
-0.6673719 -0.53047514 -0.342242 -0.1882331 -0.30801782 0.5475872 0.0 0.0855605
-0.49625093 -0.2737936 -0.051336303 -0.39357832 0.23956941 -0.20534521 0.0684484 -0.1882331
-0.78715664 0.051336303 -0.7529324 -0.171121 -0.5646993 -0.3593541 0.10267261 -0.2737936
-1.0438381 -0.30801782 -0.9753897 -0.3251299 -0.051336303 -0.171121 -0.20534521 -0.855605
-0.0171121 -0.61603564 -0.051336303 0.0 -0.3251299 -0.23956941 -0.6331477 0.3764662
-0.7529324 0.39357832 -0.20534521 -0.513363 0.0171121 -0.2224573 -0.30801782 -0.6502598
-0.342242 0.23956941 -0.119784705 -0.7700445 -0.1368968 -0.7529324 -0.4449146 0.3593541
0.051336303 -0.5646993 -0.0342242 0.1368968 -0.41069043 -0.4278025 -0.7700445 -0.7358203
-0.20534521 0.1368968 0.15400891 0.0 -0.10267261 -1.4031923 -0.46202672 -0.2737936
-0.0342242 -0.0342242 -1.4031923 0.0 -0.1882331 0.119784705 -1.0096139 -0.5646993
-0.10267261 -0.6673719 -0.2737936 -0.23956941 0.0342242 0.0171121 -0.41069043 -0.0342242
-0.7187082 0.15400891 -0.39357832 -0.39357832 -0.0342242 -0.4278025 -0.1882331 -0.051336303
-0.051336303 -0.7187082 0.513363 -0.342242 -0.15400891 -0.513363 -0.70159614 -0.10267261
-0.5646993 -0.0855605 -0.2909057 -0.20534521 0.3764662 0.2224573 -0.2566815 0.2737936
-0.15400891 0.0342242 -0.20534521 -0.5818114 -0.684484 -0.5989235 -0.10267261 0.0342242
-0.3764662 -0.3593541 0.2566815 -0.46202672 0.0 -0.3593541 -0.2737936 -0.3593541
0.119784705 -0.20534521 0.171121 -0.119784705 0.3593541 -0.684484 0.0 -0.0855605
0.1368968 -0.15400891 -0.49625093 -0.0855605 -0.0171121 -0.0342242 -0.3764662 -0.47913882
-0.2224573 0.0171121 -0.3251299 0.0684484 -0.0171121 -0.9753897 -0.3593541 -0.051336303
-1.1293986 0.15400891 0.0171121 -0.4278025 0.051336303 -0.3251299 -0.6331477 -0.5818114
-0.119784705 -0.171121 -0.41069043 -0.10267261 0.051336303 -0.1882331 0.10267261 -0.46202672
0.20534521 0.70159614 -0.6502598 -0.051336303 -0.2737936 -1.522977 -0.23956941 -0.20534521
-0.0855605 -0.2566815 -0.87271714 0.15400891 0.0 -0.41069043 0.0 -0.15400891
-0.2909057 0.23956941 -0.171121 -0.0342242 -0.92405343 0.3251299 -0.2566815 0.3764662
0.0855605 -0.1882331 -0.15400891 -0.0855605 -0.5475872 0.2224573 -0.5646993 -0.1882331
-0.1368968 -0.2224573 0.3251299 -0.2566815 -0.0684484 -0.30801782 -0.342242 -0.3764662
-0.8042687 -0.1882331 -0.2909057 -0.10267261 -0.1882331 0.1882331 0.20534521 0.0342242
-0.7529324 -1.0096139 -0.92405343 -0.1882331 0.0684484 -0.46202672 -0.684484 0.119784705
00000000: fbe1 e8f5 08f0 fbf2 072f ebe6 e6c9 cbd9
00000010: def1 fe09 daca 03f9 dc10 ffdf 1f03 2008
00000020: d9e1 ecf5 ee20 0005 e3f0 fde9 0ef4 04f5
00000030: d203 d4f6 dfeb 06f0 c3ee c7ed fdf6 f4ce
00000040: ffdc fd00 edf2 db16 d417 f4e2 01f3 eeda
00000050: ec0e f9d3 f8d4 e615 03df fe08 e8e7 d3d5
00000060: f408 0900 faae e5f0 fefe ae00 f507 c5df
00000070: fad9 f0f2 0201 e8fe d609 e9e9 fee7 f5fd
00000080: fdd6 1eec f7e2 d7fa dffb eff4 160d f110
00000090: f702 f4de d8dd fa02 eaeb 0fe5 00eb f0eb
000000a0: 07f4 0af9 15d8 00fb 08f7 e3fb fffe eae4
000000b0: f301 ed04 ffc7 ebfd be09 01e7 03ed dbde
000000c0: f9f6 e8fa 03f5 06e5 0c29 dafd f0a7 f2f4
000000d0: fbf1 cd09 00e8 00f7 ef0e f6fe ca13 f116
000000e0: 05f5 f7fb e00d dff5 f8f3 13f1 fcee ecea
000000f0: d1f5 effa f50b 0c02 d4c5 caf5 04e5 d807

sequential_7/dense_44/MatMul i1 [64, 64] scale=0.019851267 zero_point=0
-0.49628168 -0.15881014 -0.27791774 0.89330703 -0.039702535 0.37717408 -0.75434816 -0.6749431
-0.07940507 0.51613295 0.37717408 -0.21836394 -0.15881014 -0.89330703 0.47643042 -0.15881014
-0.039702535 -0.43672788 -0.07940507 -0.15881014 -0.81390196 0.21836394 0.119107604 -2.4615571
-0.87345576 0.19851267 -0.6153893 -0.6153893 -0.8337532 0.13895887 -0.119107604 -0.9131583
-0.6749431 0.119107604 0.07940507 0.7344969 -0.4168766 -1.111671 0.1786614 -0.21836394
-0.47643042 -0.119107604 0.33747154 -0.6550918 0.49628168 -0.6749431 -0.595538 -1.3895887
-0.3573228 -0.5558355 0.019851267 0.019851267 -1.191076 -0.1786614 -0.13895887 -0.019851267
-1.0918198 -0.039702535 0.119107604 -1.3895887 0.49628168 0.019851267 -0.13895887 0.297769
-0.019851267 0.21836394 -0.5558355 -0.5359842 -0.297769 -0.5359842 0.95286083 0.25806648
-0.595538 0.07940507 -0.57568675 -0.45657915 -0.595538 -0.8337532 -1.191076 -1.6675065
-0.5558355 -0.595538 -0.21836394 -0.43672788 -0.8337532 0.25806648 -0.75434816 -0.57568675
-0.4168766 -0.47643042 -0.21836394 -0.595538 -0.8536045 -0.33747154 -0.5359842 0.039702535
-0.75434816 -0.23821521 0.87345576 -0.49628168 -0.059553802 -0.45657915 -0.019851267 -0.595538
1.191076 0.7940507 -0.8536045 -0.595538 -0.99256337 0.25806648 -1.0322659 -0.8536045
0.49628168 -0.37717408 -0.297769 -0.7146456 -0.6153893 -0.21836394 -0.039702535 -1.0719684
-0.33747154 -0.31762028 -0.39702535 -0.5359842 -0.19851267 -0.75434816 -1.330035 0.019851267
-0.43672788 -0.45657915 0.1786614 -0.27791774 -0.19851267 -0.6749431 0.019851267 -0.6550918
-0.119107604 -1.1712248 -0.19851267 -0.07940507 -0.39702535 -0.45657915 -0.39702535 -0.119107604
-0.45657915 -0.09925634 -0.059553802 0.49628168 -0.19851267 0.07940507 0.0 -0.1786614
-0.119107604 -0.7344969 -0.5359842 -0.8337532 -0.059553802 0.5558355 0.93300956 -0.5558355
-0.47643042 0.13895887 -0.595538 0.0 0.059553802 -0.13895887 -0.21836394 -0.297769
-0.47643042 0.25806648 0.059553802 -0.7344969 -0.297769 -0.019851267 -0.3573228 -0.1786614
-0.23821521 1.9454242 -0.23821521 -0.31762028 -0.119107604 0.0 -0.3573228 -0.07940507
-0.1786614 -0.297769 -0.51613295 0.69479436 -0.21836394 -0.15881014 -0.37717408 -0.09925634
-0.23821521 -0.1786614 -0.059553802 -0.27791774 0.25806648 -0.1786614 -0.27791774 0.09925634
-0.019851267 -0.019851267 -1.3895887 -0.1786614 -0.15881014 0.23821521 0.297769 0.13895887
-0.69479436 1.111671 -0.07940507 -0.39702535 -0.19851267 -0.57568675 0.13895887 -0.21836394
-0.23821521 -0.49628168 -0.6749431 -1.4888451 0.07940507 -0.5558355 -0.89330703 0.57568675
-0.9727121 -0.9131583 -0.33747154 0.19851267 0.19851267 0.47643042 -0.81390196 -0.119107604
-0.019851267 -0.87345576 -0.6153893 -0.21836394 -0.63524055 -0.19851267 -0.5558355 -0.43672788
-0.595538 -0.19851267 -0.43672788 0.07940507 -1.0322659 -0.93300956 -0.07940507 -0.7741994
-0.119107604 0.47643042 -0.07940507 -0.13895887 0.039702535 -0.297769 0.37717408 -0.13895887
00000000: e7f8 f22d fe13 dade fc1a 13f5 f8d3 18f8
00000010: feea fcf8 d70b 0684 d40a e1e1 d607 fad2
00000020: de06 0425 ebc8 09f5 e8fa 11df 19de e2ba
00000030: eee4 0101 c4f7 f9ff c9fe 06ba 1901 f90f
00000040: ff0b e4e5 f1e5 300d e204 e3e9 e2d6 c4ac
00000050: e4e2 f5ea d60d dae3 ebe8 f5e2 d5ef e502
00000060: daf4 2ce7 fde9 ffe2 3c28 d5e2 ce0d ccd5
00000070: 19ed f1dc e1f5 feca eff0 ece5 f6da bd01
00000080: eae9 09f2 f6de 01df fac5 f6fc ece9 ecfa
00000090: e9fb fd19 f604 00f7 fadb e5d6 fd1c 2fe4
000000a0: e807 e200 03f9 f5f1 e80d 03db f1ff eef7
000000b0: f462 f4f0 fa00 eefc f7f1 e623 f5f8 edfb
000000c0: f4f7 fdf2 0df7 f205 ffff baf7 f80c 0f07
000000d0: dd38 fcec f6e3 07f5 f4e7 deb5 04e4 d31d
000000e0: cfd2 ef0a 0a18 d7fa ffd4 e1f5 e0f6 e4ea
000000f0: e2f6 ea04 ccd1 fcd9 fa18 fcf9 02f1 13f9

sequential_7/dense_43/MatMul i1 [64, 24] scale=0.028314967 zero_point=0
-0.48135445 -0.16988981 0.39640954 1.2175436 0.028314967 0.5096694 -0.14157483 -1.3024884
0.33977962 0.11325987 0.33977962 0.4247245 0.5096694 0.056629933 -0.14157483 0.5379844
0.5946143 -0.4247245 -0.7078742 -0.11325987 -0.22651973 0.5379844 0.48135445 0.48135445
0.028314967 0.4247245 0.22651973 0.056629933 0.4247245 0.14157483 -0.33977962 -0.11325987
0.14157483 0.14157483 0.39640954 0.16988981 0.084944904 -0.028314967 0.33977962 0.5096694
0.084944904 -0.22651973 -0.82113403 0.22651973 0.028314967 -2.633292 -0.90607893 0.5662993
-0.19820477 -0.056629933 -0.14157483 -0.5662993 0.19820477 -0.16988981 0.084944904 0.5096694
-0.9343939 0.056629933 0.36809456 0.39640954 0.14157483 0.0 1.1609136 -0.5096694
-1.4157484 0.4247245 0.33977962 0.16988981 0.028314967 0.4247245 0.36809456 -2.0386777
-0.6229293 0.22651973 -0.4247245 -1.9254178 -0.45303947 -0.31146464 -0.7928191 0.2548347
0.48135445 0.11325987 0.2548347 0.056629933 0.11325987 -0.084944904 0.28314966 0.7645041
-0.22651973 -0.22651973 0.7361891 0.084944904 0.0 0.36809456 0.19820477 -0.5662993
-3.341166 -0.6229293 -0.22651973 -0.028314967 0.19820477 0.2548347 0.7928191 -0.7078742
-0.028314967 0.36809456 0.31146464 0.11325987 -0.084944904 -0.19820477 -0.67955923 -0.877764
-0.14157483 -0.2548347 -0.084944904 0.22651973 0.5379844 -0.6229293 -0.5946143 0.0
-0.084944904 -0.084944904 0.45303947 -0.7078742 -0.5379844 0.19820477 0.39640954 0.11325987
0.14157483 0.11325987 0.14157483 -0.056629933 0.084944904 -0.028314967 -0.14157483 0.084944904
-0.028314967 -0.084944904 -0.36809456 -2.8881266 -0.48135445 0.22651973 0.33977962 -0.19820477
0.2548347 0.28314966 0.19820477 0.877764 0.2548347 0.7078742 0.67955923 0.6229293
0.4247245 0.45303947 0.22651973 0.14157483 -1.2175436 0.22651973 0.22651973 0.6512442
0.6229293 0.33977962 -1.0759687 -0.5662993 0.33977962 0.5096694 -0.028314967 0.16988981
-1.0476538 -0.16988981 0.028314967 0.14157483 0.48135445 0.28314966 -1.2175436 -0.36809456
0.4247245 0.5946143 0.28314966 -0.19820477 -0.16988981 -0.22651973 -0.31146464 0.16988981
-0.33977962 -0.67955923 -0.31146464 0.22651973 0.22651973 -0.31146464 -0.33977962 -0.31146464
-0.028314967 0.22651973 -0.22651973 0.39640954 -0.056629933 -0.4247245 -1.0193388 0.6512442
0.16988981 -0.028314967 0.0 0.16988981 -0.31146464 0.19820477 -0.4247245 0.31146464
0.90607893 -0.48135445 -0.45303947 -0.28314966 0.19820477 0.36809456 0.28314966 0.31146464
-0.084944904 -0.48135445 0.2548347 -0.084944904 -0.28314966 0.19820477 0.5096694 -0.48135445
0.2548347 0.11325987 0.22651973 -0.39640954 -0.2548347 0.5096694 -0.28314966 0.11325987
0.0 -0.14157483 0.11325987 -0.67955923 -1.7838429 -0.9627089 -0.5096694 -0.39640954
0.7645041 -0.056629933 0.39640954 -0.6229293 -0.2548347 -0.5096694 0.48135445 0.056629933
0.0 -2.2651973 -1.2741735 0.14157483 0.028314967 0.028314967 0.084944904 0.22651973
00000000: effa 0e2b 0112 fbd2 0c04 0c0f 1202 fb13
00000010: 15f1 e7fc f813 1111 010f 0802 0f05 f4fc
00000020: 0505 0e06 03ff 0c12 03f8 e308 01a3 e014
00000030: f9fe fbec 07fa 0312 df02 0d0e 0500 29ee
00000040: ce0f 0c06 010f 0db8 ea08 f1bc f0f5 e409
00000050: 1104 0902 04fd 0a1b f8f8 1a03 000d 07ec
00000060: 8aea f8ff 0709 1ce7 ff0d 0b04 fdf9 e8e1
00000070: fbf7 fd08 13ea eb00 fdfd 10e7 ed07 0e04
00000080: 0504 05fe 03ff fb03 fffd f39a ef08 0cf9
00000090: 090a 071f 0919 1816 0f10 0805 d508 0817
000000a0: 160c daec 0c12 ff06 dbfa 0105 110a d5f3
000000b0: 0f15 0af9 faf8 f506 f4e8 f508 08f5 f4f5
000000c0: ff08 f80e fef1 dc17 06ff 0006 f507 f10b
000000d0: 20ef f0f6 070d 0a0b fdef 09fd f607 12ef
000000e0: 0904 08f2 f712 f604 00fb 04e8 c1de eef2
000000f0: 1bfe 0eea f7ee 1102 00b0 d305 0101 0308
