MicroController/STM32F746/TACTS_line_predict_36/STM32F746G-DISCO/231007_1358_2kPa_160_Data_B8_quant_float32_float32_random_1.tflite (tflite, 103248 bytes, 5 tensors)

sequential_1/dense_9/MatMul i1 [4, 64] scale=0.004807801 zero_point=0
000000 01 15 e9 01 1f 09 1e f5 ff 04 04 fc 01 f6 00 12
       0.004807801 0.10096382 -0.11057942 0.004807801 0.14904183 0.043270208 0.14423403 -0.05288581 -0.004807801 0.019231204 0.019231204 -0.019231204 0.004807801 -0.048078008 0.0 0.086540416
000010 06 f7 0e 03 f0 08 1a 1f e4 08 ef 06 00 00 fc f6
       0.028846806 -0.043270208 0.067309216 0.014423403 -0.076924816 0.038462408 0.12500283 0.14904183 -0.13461843 0.038462408 -0.081732616 0.028846806 0.0 0.0 -0.019231204 -0.048078008
000020 fe 08 07 fe fb 16 04 15 10 05 fd e9 f8 f7 0a 06
       -0.009615602 0.038462408 0.033654608 -0.009615602 -0.024039004 0.10577162 0.019231204 0.10096382 0.076924816 0.024039004 -0.014423403 -0.11057942 -0.038462408 -0.043270208 0.048078008 0.028846806
000030 27 0d f8 16 f7 13 fa 18 01 f2 eb 15 11 08 fe 12
       0.18750423 0.062501416 -0.038462408 0.10577162 -0.043270208 0.091348216 -0.028846806 0.11538722 0.004807801 -0.067309216 -0.10096382 0.10096382 0.081732616 0.038462408 -0.009615602 0.086540416
000040 04 03 d6 f1 f3 17 ed 00 02 0e ea ff f2 fc 04 01
       0.019231204 0.014423403 -0.20192765 -0.072117016 -0.062501416 0.11057942 -0.091348216 0.0 0.009615602 0.067309216 -0.10577162 -0.004807801 -0.067309216 -0.019231204 0.019231204 0.004807801
000050 fd 00 ef 03 01 01 f8 04 32 ec ff 01 f9 04 eb 02
       -0.014423403 0.0 -0.081732616 0.014423403 0.004807801 0.004807801 -0.038462408 0.019231204 0.24039005 -0.096156016 -0.004807801 0.004807801 -0.033654608 0.019231204 -0.10096382 0.009615602
000060 01 00 17 fa fa fb 71 03 fa 04 f4 05 06 ef 1e f3
       0.004807801 0.0 0.11057942 -0.028846806 -0.028846806 -0.024039004 0.5432815 0.014423403 -0.028846806 0.019231204 -0.05769361 0.024039004 0.028846806 -0.081732616 0.14423403 -0.062501416
000070 04 f5 00 fc 05 02 f7 0a f4 05 fa f9 0d 0c fd fc
       0.019231204 -0.05288581 0.0 -0.019231204 0.024039004 0.009615602 -0.043270208 0.048078008 -0.05769361 0.024039004 -0.028846806 -0.033654608 0.062501416 0.05769361 -0.014423403 -0.019231204
000080 f7 04 fc 81 f5 d6 fe 15 f9 fe 14 ec 01 06 0e 03
       -0.043270208 0.019231204 -0.019231204 -0.6105907 -0.05288581 -0.20192765 -0.009615602 0.10096382 -0.033654608 -0.009615602 0.096156016 -0.096156016 0.004807801 0.028846806 0.067309216 0.014423403
000090 ef e9 21 e4 0a f3 06 0d 00 02 02 10 07 03 03 d2
       -0.081732616 -0.11057942 0.15865743 -0.13461843 0.048078008 -0.062501416 0.028846806 0.062501416 0.0 0.009615602 0.009615602 0.076924816 0.033654608 0.014423403 0.014423403 -0.22115885
0000a0 ff 06 08 ea fc 15 d4 07 0c 08 0f fd f5 f5 fb 0b
       -0.004807801 0.028846806 0.038462408 -0.10577162 -0.019231204 0.10096382 -0.21154325 0.033654608 0.05769361 0.038462408 0.072117016 -0.014423403 -0.05288581 -0.05288581 -0.024039004 0.05288581
0000b0 f2 f1 19 10 ff fa 2d f1 07 e9 0b 0a 3e 1d fc 0d
       -0.067309216 -0.072117016 0.12019502 0.076924816 -0.004807801 -0.028846806 0.21635105 -0.072117016 0.033654608 -0.11057942 0.05288581 0.048078008 0.29808366 0.13942623 -0.019231204 0.062501416
0000c0 e3 03 03 0b fe ef fd 1d 0b fc 0c d5 07 0d 07 0f
       -0.13942623 0.014423403 0.014423403 0.05288581 -0.009615602 -0.081732616 -0.014423403 0.13942623 0.05288581 -0.019231204 0.05769361 -0.20673545 0.033654608 0.062501416 0.033654608 0.072117016
0000d0 f7 24 08 07 f3 fa fb 12 ff 09 0a f4 0f 0f 03 fa
       -0.043270208 0.17308083 0.038462408 0.033654608 -0.062501416 -0.028846806 -0.024039004 0.086540416 -0.004807801 0.043270208 0.048078008 -0.05769361 0.072117016 0.072117016 0.014423403 -0.028846806
0000e0 eb 05 06 06 00 e7 0a 19 f2 fa f7 0a 04 00 fa 05
       -0.10096382 0.024039004 0.028846806 0.028846806 0.0 -0.12019502 0.048078008 0.12019502 -0.067309216 -0.028846806 -0.043270208 0.048078008 0.019231204 0.0 -0.028846806 0.024039004
0000f0 01 01 ea 06 07 f8 eb 02 10 05 07 0c ff 01 05 f4
       0.004807801 0.004807801 -0.10577162 0.028846806 0.033654608 -0.038462408 -0.10096382 0.009615602 0.076924816 0.024039004 0.033654608 0.05769361 -0.004807801 0.004807801 0.024039004 -0.05769361

sequential_1/dense_8/MatMul i1 [64, 64] scale=0.01861075 zero_point=0
000000 09 fa 03 ed 0c 0d f3 fe 02 eb ed f9 ea 02 f9 f2
       0.16749674 -0.1116645 0.05583225 -0.35360423 0.223329 0.24193974 -0.24193974 -0.0372215 0.0372215 -0.39082575 -0.35360423 -0.13027525 -0.4094365 0.0372215 -0.13027525 -0.2605505
000010 0b f9 0c 09 00 ec fa 04 07 fa f0 03 03 f0 05 05
       0.20471825 -0.13027525 0.223329 0.16749674 0.0 -0.37221497 -0.1116645 0.074443 0.13027525 -0.1116645 -0.297772 0.05583225 0.05583225 -0.297772 0.09305374 0.09305374
000020 fb ee f2 f5 f4 f8 f6 06 f9 f1 f8 ed fe fe ff f4
       -0.09305374 -0.33499348 -0.2605505 -0.20471825 -0.223329 -0.148886 -0.18610749 0.1116645 -0.13027525 -0.27916124 -0.148886 -0.35360423 -0.0372215 -0.0372215 -0.01861075 -0.223329
000030 01 e0 00 02 02 f3 01 03 05 f1 03 f1 eb 09 f8 fa
       0.01861075 -0.595544 0.0 0.0372215 0.0372215 -0.24193974 0.01861075 0.05583225 0.09305374 -0.27916124 0.05583225 -0.27916124 -0.39082575 0.16749674 -0.148886 -0.1116645
000040 07 05 03 f8 fa f6 f6 f3 03 fa e7 fe f2 08 f8 ed
       0.13027525 0.09305374 0.05583225 -0.148886 -0.1116645 -0.18610749 -0.18610749 -0.24193974 0.05583225 -0.1116645 -0.46526873 -0.0372215 -0.2605505 0.148886 -0.148886 -0.35360423
000050 0b 02 ff ff fa f2 fd 05 ef f8 fe 02 fb fc 02 fb
       0.20471825 0.0372215 -0.01861075 -0.01861075 -0.1116645 -0.2605505 -0.05583225 0.09305374 -0.31638274 -0.148886 -0.0372215 0.0372215 -0.09305374 -0.074443 0.0372215 -0.09305374
000060 fc f8 08 f5 fc 09 e7 01 f7 04 ee fe 07 fd f1 fb
       -0.074443 -0.148886 0.148886 -0.20471825 -0.074443 0.16749674 -0.46526873 0.01861075 -0.16749674 0.074443 -0.33499348 -0.0372215 0.13027525 -0.05583225 -0.27916124 -0.09305374
000070 03 f2 03 f2 fb fa 0a f3 10 ef 08 f7 03 ef f1 ec
       0.05583225 -0.2605505 0.05583225 -0.2605505 -0.09305374 -0.1116645 0.18610749 -0.24193974 0.297772 -0.31638274 0.148886 -0.16749674 0.05583225 -0.31638274 -0.27916124 -0.37221497
000080 02 f6 08 03 f1 03 01 fd be db 02 c8 f3 05 db 01
       0.0372215 -0.18610749 0.148886 0.05583225 -0.27916124 0.05583225 0.01861075 -0.05583225 -1.2283095 -0.68859774 0.0372215 -1.042202 -0.24193974 0.09305374 -0.68859774 0.01861075
000090 00 f1 e6 f6 e7 01 e6 fb f2 04 02 f2 04 fa 05 ca
       0.0 -0.27916124 -0.48387948 -0.18610749 -0.46526873 0.01861075 -0.48387948 -0.09305374 -0.2605505 0.074443 0.0372215 -0.2605505 0.074443 -0.1116645 0.09305374 -1.0049804
0000a0 02 f9 db e4 ed fe 08 01 ff fb fa fd fe f4 fa 01
       0.0372215 -0.13027525 -0.68859774 -0.521101 -0.35360423 -0.0372215 0.148886 0.01861075 -0.01861075 -0.09305374 -0.1116645 -0.05583225 -0.0372215 -0.223329 -0.1116645 0.01861075
0000b0 08 fd 01 06 e5 cc fa 00 ec f0 08 fd fe f8 02 bc
       0.148886 -0.05583225 0.01861075 0.1116645 -0.5024902 -0.96775895 -0.1116645 0.0 -0.37221497 -0.297772 0.148886 -0.05583225 -0.0372215 -0.148886 0.0372215 -1.265531
0000c0 ef 04 f8 01 fd 02 f6 d4 e0 f7 f1 ef da f2 ec dd
       -0.31638274 0.074443 -0.148886 0.01861075 -0.05583225 0.0372215 -0.18610749 -0.818873 -0.595544 -0.16749674 -0.27916124 -0.31638274 -0.70720845 -0.2605505 -0.37221497 -0.65137625
0000d0 fe e7 fb f6 f6 ed f7 f8 f7 ea ec 00 f5 f3 e0 e8
       -0.0372215 -0.46526873 -0.09305374 -0.18610749 -0.18610749 -0.35360423 -0.16749674 -0.148886 -0.16749674 -0.4094365 -0.37221497 0.0 -0.20471825 -0.24193974 -0.595544 -0.446658
0000e0 ff d9 f5 fe 00 fc 01 f9 04 fe e6 06 ef fd fd 08
       -0.01861075 -0.72581923 -0.20471825 -0.0372215 0.0 -0.074443 0.01861075 -0.13027525 0.074443 -0.0372215 -0.48387948 0.1116645 -0.31638274 -0.05583225 -0.05583225 0.148886
0000f0 04 fa fa fe f7 c1 01 02 fd f0 fc e4 fc f9 f9 f1
       0.074443 -0.1116645 -0.1116645 -0.0372215 -0.16749674 -1.1724772 0.01861075 0.0372215 -0.05583225 -0.297772 -0.074443 -0.521101 -0.074443 -0.13027525 -0.13027525 -0.27916124

sequential_1/dense_7/MatMul i1 [64, 128] scale=0.014830124 zero_point=0
000000 e4 ea e9 03 e2 04 f8 ee e3 f6 f0 f9 f5 fc 05 fa
       -0.41524345 -0.3262627 -0.34109285 0.04449037 -0.4449037 0.059320495 -0.11864099 -0.26694223 -0.4300736 -0.14830124 -0.23728198 -0.10381086 -0.16313136 -0.059320495 0.07415062 -0.08898074
000010 f6 02 fa e8 f6 07 fb fd fd f0 fb fd 00 f2 04 0b
       -0.14830124 0.029660247 -0.08898074 -0.35592297 -0.14830124 0.10381086 -0.07415062 -0.04449037 -0.04449037 -0.23728198 -0.07415062 -0.04449037 0.0 -0.20762172 0.059320495 0.16313136
000020 03 f0 f4 ff f4 ea 0f f4 fa f9 fe f6 02 05 f9 f7
       0.04449037 -0.23728198 -0.17796148 -0.014830124 -0.17796148 -0.3262627 0.22245185 -0.17796148 -0.08898074 -0.10381086 -0.029660247 -0.14830124 0.029660247 0.07415062 -0.10381086 -0.13347112
000030 fe 01 0b f1 ee 02 14 13 f0 09 f6 f7 08 03 fa f8
       -0.029660247 0.014830124 0.16313136 -0.22245185 -0.26694223 0.029660247 0.2966025 0.28177235 -0.23728198 0.13347112 -0.14830124 -0.13347112 0.11864099 0.04449037 -0.08898074 -0.11864099
000040 fa f3 01 00 03 f4 f9 e8 ec f9 f6 ff 05 fd f9 fc
       -0.08898074 -0.19279161 0.014830124 0.0 0.04449037 -0.17796148 -0.10381086 -0.35592297 -0.2966025 -0.10381086 -0.14830124 -0.014830124 0.07415062 -0.04449037 -0.10381086 -0.059320495
000050 f0 06 f7 fa 06 f9 10 e7 02 f1 ed f3 f8 04 e7 f5
       -0.23728198 0.08898074 -0.13347112 -0.08898074 0.08898074 -0.10381086 0.23728198 -0.37075308 0.029660247 -0.22245185 -0.28177235 -0.19279161 -0.11864099 0.059320495 -0.37075308 -0.16313136
000060 f1 fa e8 07 1a f5 f7 12 0c f7 f8 05 f1 fc f8 f7
       -0.22245185 -0.08898074 -0.35592297 0.10381086 0.38558322 -0.16313136 -0.13347112 0.26694223 0.17796148 -0.13347112 -0.11864099 0.07415062 -0.22245185 -0.059320495 -0.11864099 -0.13347112
000070 fc 05 fb 09 fe f3 e6 ef 08 0c f9 f2 04 05 05 f5
       -0.059320495 0.07415062 -0.07415062 0.13347112 -0.029660247 -0.19279161 -0.38558322 -0.2521121 0.11864099 0.17796148 -0.10381086 -0.20762172 0.059320495 0.07415062 0.07415062 -0.16313136
000080 e9 ee 04 0b 0c 04 fd f3 f7 11 f5 f5 fc 05 f9 fc
       -0.34109285 -0.26694223 0.059320495 0.16313136 0.17796148 0.059320495 -0.04449037 -0.19279161 -0.13347112 0.2521121 -0.16313136 -0.16313136 -0.059320495 0.07415062 -0.10381086 -0.059320495
000090 f5 04 ef fe ee f7 f7 fe 0f f2 fd e1 09 02 01 00
       -0.16313136 0.059320495 -0.2521121 -0.029660247 -0.26694223 -0.13347112 -0.13347112 -0.029660247 0.22245185 -0.20762172 -0.04449037 -0.45973384 0.13347112 0.029660247 0.014830124 0.0
0000a0 07 fd f8 07 f9 fd fb f9 fb fb fc 01 fd fc f9 f9
       0.10381086 -0.04449037 -0.11864099 0.10381086 -0.10381086 -0.04449037 -0.07415062 -0.10381086 -0.07415062 -0.07415062 -0.059320495 0.014830124 -0.04449037 -0.059320495 -0.10381086 -0.10381086
0000b0 fc fb ef 02 02 03 f4 fa 11 f4 ed f7 03 f9 f8 f3
       -0.059320495 -0.07415062 -0.2521121 0.029660247 0.029660247 0.04449037 -0.17796148 -0.08898074 0.2521121 -0.17796148 -0.28177235 -0.13347112 0.04449037 -0.10381086 -0.11864099 -0.19279161
0000c0 01 e9 ef fe f0 ed 13 ea f5 f5 f8 f2 06 0b fd 01
       0.014830124 -0.34109285 -0.2521121 -0.029660247 -0.23728198 -0.28177235 0.28177235 -0.3262627 -0.16313136 -0.16313136 -0.11864099 -0.20762172 0.08898074 0.16313136 -0.04449037 0.014830124
0000d0 ec fd f7 01 ed 14 fd fb f9 0c fa f9 ff 29 f4 0a
       -0.2966025 -0.04449037 -0.13347112 0.014830124 -0.28177235 0.2966025 -0.04449037 -0.07415062 -0.10381086 0.17796148 -0.08898074 -0.10381086 -0.014830124 0.6080351 -0.17796148 0.14830124
0000e0 dc fb 05 01 f2 f7 00 f1 fc 02 fd 05 fa 00 ff fb
       -0.53388447 -0.07415062 0.07415062 0.014830124 -0.20762172 -0.13347112 0.0 -0.22245185 -0.059320495 0.029660247 -0.04449037 0.07415062 -0.08898074 0.0 -0.014830124 -0.07415062
0000f0 fc 0c f6 07 ed f6 ed 00 fa f8 12 ff fc fe 12 f3
       -0.059320495 0.17796148 -0.14830124 0.10381086 -0.28177235 -0.14830124 -0.28177235 0.0 -0.08898074 -0.11864099 0.26694223 -0.014830124 -0.059320495 -0.029660247 0.26694223 -0.19279161

sequential_1/dense_6/MatMul i1 [128, 512] scale=0.01640368 zero_point=0
000000 e4 25 d7 f3 1a 02 d8 21 dd 0b 44 0f ed de f3 f1
       -0.45930305 0.60693616 -0.6725509 -0.21324785 0.4264957 0.03280736 -0.65614724 0.54132146 -0.5741288 0.18044049 1.1154503 0.24605522 -0.31166995 -0.55772513 -0.21324785 -0.24605522
000010 f2 09 35 fe 16 18 e9 02 06 f6 ea 1e e6 f0 e4 f3
       -0.22965153 0.14763312 0.8693951 -0.03280736 0.36088097 0.39368832 -0.37728465 0.03280736 0.09842208 -0.16403681 -0.36088097 0.49211043 -0.4264957 -0.2624589 -0.45930305 -0.21324785
000020 c7 02 12 05 05 0a ea 23 13 1f 0c fc e6 17 1c c7
       -0.9350098 0.03280736 0.29526624 0.082018405 0.082018405 0.16403681 -0.36088097 0.5741288 0.31166995 0.5085141 0.19684416 -0.06561472 -0.4264957 0.37728465 0.45930305 -0.9350098
000030 13 f5 e8 15 d0 ea ff 0a 1f f2 f5 2b 13 04 0d ed
       0.31166995 -0.18044049 -0.39368832 0.3444773 -0.78737664 -0.36088097 -0.01640368 0.16403681 0.5085141 -0.22965153 -0.18044049 0.70535827 0.31166995 0.06561472 0.21324785 -0.31166995
000040 0d 11 08 dd 1f 09 1a 04 1f ec d2 ec 1b d9 0e f8
       0.21324785 0.27886257 0.13122945 -0.5741288 0.5085141 0.14763312 0.4264957 0.06561472 0.5085141 -0.32807362 -0.7545693 -0.32807362 0.44289938 -0.63974357 0.22965153 -0.13122945
000050 fc d6 e6 09 0b 02 fc fb 24 12 06 14 f2 14 28 19
       -0.06561472 -0.6889546 -0.4264957 0.14763312 0.18044049 0.03280736 -0.06561472 -0.082018405 0.5905325 0.29526624 0.09842208 0.32807362 -0.22965153 0.32807362 0.65614724 0.41009203
000060 0c 3c d8 15 15 f9 db dd 26 e0 ec df 18 05 f1 e4
       0.19684416 0.98422086 -0.65614724 0.3444773 0.3444773 -0.11482576 -0.60693616 -0.5741288 0.6233399 -0.5249178 -0.32807362 -0.54132146 0.39368832 0.082018405 -0.24605522 -0.45930305
000070 e7 e2 26 06 23 2d 03 de d3 f5 3f d9 01 f6 14 12
       -0.41009203 -0.49211043 0.6233399 0.09842208 0.5741288 0.7381656 0.04921104 -0.55772513 -0.7381656 -0.18044049 1.0334319 -0.63974357 0.01640368 -0.16403681 0.32807362 0.29526624
000080 ff 00 2a db 29 01 ec ea 16 09 d9 f8 d5 fa 0f 10
       -0.01640368 0.0 0.6889546 -0.60693616 0.6725509 0.01640368 -0.32807362 -0.36088097 0.36088097 0.14763312 -0.63974357 -0.13122945 -0.70535827 -0.09842208 0.24605522 0.2624589
000090 32 ff e9 cf ea 01 f8 b4 f4 c1 1a fb de dc f2 ff
       0.82018405 -0.01640368 -0.37728465 -0.8037804 -0.36088097 0.01640368 -0.13122945 -1.2466798 -0.19684416 -1.0334319 0.4264957 -0.082018405 -0.55772513 -0.5905325 -0.22965153 -0.01640368
0000a0 1a 18 fa 1c 06 e0 f7 42 f6 22 02 0a 07 db 19 cf
       0.4264957 0.39368832 -0.09842208 0.45930305 0.09842208 -0.5249178 -0.14763312 1.0826429 -0.16403681 0.55772513 0.03280736 0.16403681 0.11482576 -0.60693616 0.41009203 -0.8037804
0000b0 fc 0a ec f6 dd 26 cc fc de 19 f2 1b fd f8 16 d5
       -0.06561472 0.16403681 -0.32807362 -0.16403681 -0.5741288 0.6233399 -0.8529914 -0.06561472 -0.55772513 0.41009203 -0.22965153 0.44289938 -0.04921104 -0.13122945 0.36088097 -0.70535827
0000c0 2a ca de e6 f6 03 05 29 e9 dd 09 21 00 fc 0f f9
       0.6889546 -0.88579875 -0.55772513 -0.4264957 -0.16403681 0.04921104 0.082018405 0.6725509 -0.37728465 -0.5741288 0.14763312 0.54132146 0.0 -0.06561472 0.24605522 -0.11482576
0000d0 fe ef 20 17 14 0e 2b 02 02 08 02 10 cc d6 e3 f5
       -0.03280736 -0.27886257 0.5249178 0.37728465 0.32807362 0.22965153 0.70535827 0.03280736 0.03280736 0.13122945 0.03280736 0.2624589 -0.8529914 -0.6889546 -0.47570673 -0.18044049
0000e0 e2 fa 11 cf df 18 08 da ef ea fd d9 f6 f4 10 32
       -0.49211043 -0.09842208 0.27886257 -0.8037804 -0.54132146 0.39368832 0.13122945 -0.6233399 -0.27886257 -0.36088097 -0.04921104 -0.63974357 -0.16403681 -0.19684416 0.2624589 0.82018405
0000f0 1a 02 ff 02 fb 15 db 0f 0a 09 09 e1 fd 26 08 c4
       0.4264957 0.03280736 -0.01640368 0.03280736 -0.082018405 0.3444773 -0.60693616 0.24605522 0.16403681 0.14763312 0.14763312 -0.5085141 -0.04921104 0.6233399 0.13122945 -0.98422086

sequential_1/dense_5/MatMul i1 [512, 36] scale=0.02229516 zero_point=0
000000 00 d8 cd 0e fe 1f fd f8 fc ed 14 12 00 ee 0f 48
       0.0 -0.8918064 -1.1370531 0.31213224 -0.04459032 0.69114995 -0.06688548 -0.17836128 -0.08918064 -0.42360803 0.4459032 0.4013129 0.0 -0.4013129 0.33442742 1.6052516
000010 d3 28 e0 fe 1f 10 14 e7 0b f9 18 f2 00 01 0d 4f
       -1.0032822 0.8918064 -0.7134451 -0.04459032 0.69114995 0.35672256 0.4459032 -0.557379 0.24524677 -0.15606612 0.53508383 -0.31213224 0.0 0.02229516 0.2898371 1.7613176
000020 09 12 d8 0d f6 03 fa 2a ee f4 09 25 08 ea 0d 08
       0.20065644 0.4013129 -0.8918064 0.2898371 -0.2229516 0.06688548 -0.13377096 0.9363967 -0.4013129 -0.26754192 0.20065644 0.82492095 0.17836128 -0.49049354 0.2898371 0.17836128
000030 ef ef e1 42 09 1d 10 1c e6 e1 dc 1a 1c 01 f8 1d
       -0.3790177 -0.3790177 -0.69114995 1.4714806 0.20065644 0.64655966 0.35672256 0.6242645 -0.5796742 -0.69114995 -0.8026258 0.5796742 0.6242645 0.02229516 -0.17836128 0.64655966
000040 14 f5 0d f6 f1 1a 00 ee 04 e3 f6 22 3b fc 03 cc
       0.4459032 -0.24524677 0.2898371 -0.2229516 -0.33442742 0.5796742 0.0 -0.4013129 0.08918064 -0.64655966 -0.2229516 0.7580354 1.3154144 -0.08918064 0.06688548 -1.1593484
000050 f2 05 fd 1f fa 2d 24 05 41 2f da 03 0d e7 04 f4
       -0.31213224 0.1114758 -0.06688548 0.69114995 -0.13377096 1.0032822 0.8026258 0.1114758 1.4491854 1.0478725 -0.84721607 0.06688548 0.2898371 -0.557379 0.08918064 -0.26754192
000060 39 f7 09 0b e2 1c 0e 17 11 00 ef 04 06 f9 dc 04
       1.2708241 -0.20065644 0.20065644 0.24524677 -0.66885483 0.6242645 0.31213224 0.5127887 0.3790177 0.0 -0.3790177 0.08918064 0.13377096 -0.15606612 -0.8026258 0.08918064
000070 e1 00 1f 29 fb 11 16 f6 10 2d 08 0b 05 23 1c f8
       -0.69114995 0.0 0.69114995 0.91410154 -0.1114758 0.3790177 0.49049354 -0.2229516 0.35672256 1.0032822 0.17836128 0.24524677 0.1114758 0.7803306 0.6242645 -0.17836128
000080 ee 14 03 c3 04 21 0d 1e 08 19 2e 0c ca 03 03 d4
       -0.4013129 0.4459032 0.06688548 -1.3600048 0.08918064 0.7357403 0.2898371 0.66885483 0.17836128 0.557379 1.0255774 0.26754192 -1.2039386 0.06688548 0.06688548 -0.9809871
000090 f4 de 02 f5 03 e9 e8 e0 ea f4 e3 19 f1 d7 10 ec
       -0.26754192 -0.7580354 0.04459032 -0.24524677 0.06688548 -0.5127887 -0.53508383 -0.7134451 -0.49049354 -0.26754192 -0.64655966 0.557379 -0.33442742 -0.91410154 0.35672256 -0.4459032
0000a0 ff 11 17 fb e1 d1 24 0f 09 1b 0c ef 06 ff f3 2e
       -0.02229516 0.3790177 0.5127887 -0.1114758 -0.69114995 -1.0478725 0.8026258 0.33442742 0.20065644 0.6019693 0.26754192 -0.3790177 0.13377096 -0.02229516 -0.2898371 1.0255774
0000b0 43 0e 0b f9 35 fc 22 10 eb 11 0e 0c e3 f9 d8 07
       1.4937757 0.31213224 0.24524677 -0.15606612 1.1816435 -0.08918064 0.7580354 0.35672256 -0.46819836 0.3790177 0.31213224 0.26754192 -0.64655966 -0.15606612 -0.8918064 0.15606612
0000c0 fc dd f9 d9 06 e9 1c e8 fc dc 23 fd 39 07 0f eb
       -0.08918064 -0.7803306 -0.15606612 -0.86951125 0.13377096 -0.5127887 0.6242645 -0.53508383 -0.08918064 -0.8026258 0.7803306 -0.06688548 1.2708241 0.15606612 0.33442742 -0.46819836
0000d0 14 1b e6 02 ec e8 d5 0a f9 e3 e0 25 fd 03 ee ef
       0.4459032 0.6019693 -0.5796742 0.04459032 -0.4459032 -0.53508383 -0.9586919 0.2229516 -0.15606612 -0.64655966 -0.7134451 0.82492095 -0.06688548 0.06688548 -0.4013129 -0.3790177
0000e0 e0 f7 07 13 f6 df fa f6 f5 f5 ea f7 10 1a ff f4
       -0.7134451 -0.20065644 0.15606612 0.42360803 -0.2229516 -0.7357403 -0.13377096 -0.2229516 -0.24524677 -0.24524677 -0.49049354 -0.20065644 0.35672256 0.5796742 -0.02229516 -0.26754192
0000f0 1f ff ee 25 14 e1 28 01 1b 15 fc 17 16 05 0a 12
       0.69114995 -0.02229516 -0.4013129 0.82492095 0.4459032 -0.69114995 0.8918064 0.02229516 0.6019693 0.46819836 -0.08918064 0.5127887 0.49049354 0.1114758 0.2229516 0.4013129
