MicroController/STM32F746/TACTS_testbed/1110_3.6kPa_5V_2line_B9.tflite (tflite, 89552 bytes, 5 tensors)

sequential_1/dense_9/MatMul i1 [4, 32] scale=0.0018479269 zero_point=0
0	0x21	0.060981587
1	0xf2	-0.025870977
2	0x27	0.072069146
3	0xd1	-0.086852565
4	0xfc	-0.0073917075
5	0x23	0.06467744
6	0xe2	-0.055437807
7	0x2d	0.08315671
8	0xea	-0.04065439
9	0xf0	-0.02956683
10	0x11	0.03141476
11	0xf9	-0.0129354885
12	0xeb	-0.038806465
13	0xfa	-0.011087561
14	0xf8	-0.014783415
15	0x13	0.03511061
16	0xf1	-0.027718903
17	0x34	0.096092194
18	0x25	0.06837329
19	0x70	0.20696782
20	0x00	0.0
21	0x04	0.0073917075
22	0x94	-0.19957611
23	0xf4	-0.022175122
24	0xfc	-0.0073917075
25	0xf1	-0.027718903
26	0x27	0.072069146
27	0x7c	0.22914293
28	0xb9	-0.1312028
29	0x3a	0.10717976
30	0xf9	-0.0129354885
31	0xe9	-0.042502318
32	0x07	0.0129354885
33	0xfa	-0.011087561
34	0x03	0.0055437805
35	0xef	-0.03141476
36	0x07	0.0129354885
37	0x25	0.06837329
38	0x29	0.075765
39	0xf6	-0.018479269
40	0x07	0.0129354885
41	0xdc	-0.06652537
42	0xf3	-0.024023049
43	0x07	0.0129354885
44	0x0b	0.020327196
45	0xfd	-0.0055437805
46	0x05	0.0092396345
47	0x2e	0.085004635
48	0xd0	-0.08870049
49	0xf5	-0.020327196
50	0xff	-0.0018479269
51	0x3e	0.11457147
52	0x3d	0.11272354
53	0xdb	-0.06837329
54	0x2d	0.08315671
55	0x6b	0.19772817
56	0xfc	-0.0073917075
57	0x86	-0.22544707
58	0x1b	0.049894027
59	0x19	0.04619817
60	0x2c	0.08130878
61	0xe0	-0.05913366
62	0x47	0.1312028
63	0xeb	-0.038806465
64	0xbe	-0.12196317
65	0x7f	0.23468672
66	0x1a	0.048046097
67	0x0b	0.020327196
68	0x1f	0.057285734
69	0xcc	-0.096092194
70	0x58	0.16261756
71	0x13	0.03511061
72	0x0b	0.020327196
73	0x09	0.016631342
74	0xf5	-0.020327196
75	0x1d	0.05358988
76	0xd8	-0.073917076
77	0x87	-0.22359915
78	0x57	0.16076964
79	0xed	-0.03511061
80	0x3d	0.11272354
81	0xf9	-0.0129354885
82	0x20	0.05913366
83	0x22	0.06282952
84	0x08	0.014783415
85	0xe0	-0.05913366
86	0xeb	-0.038806465
87	0x0c	0.022175122
88	0xe3	-0.05358988
89	0x00	0.0
90	0xef	-0.03141476
91	0xdd	-0.06467744
92	0xef	-0.03141476
93	0x09	0.016631342
94	0xfb	-0.0092396345
95	0x2e	0.085004635
96	0x0a	0.018479269
97	0xe5	-0.049894027
98	0x09	0.016631342
99	0x25	0.06837329
100	0x20	0.05913366
101	0x05	0.0092396345
102	0x04	0.0073917075
103	0xea	-0.04065439
104	0xc4	-0.110875614
105	0x4e	0.14413829
106	0xdd	-0.06467744
107	0x9b	-0.18664062
108	0xfc	-0.0073917075
109	0x05	0.0092396345
110	0x6a	0.19588025
111	0xd1	-0.086852565
112	0xbe	-0.12196317
113	0xf2	-0.025870977
114	0xfd	-0.0055437805
115	0x1c	0.051741954
116	0x0c	0.022175122
117	0x4e	0.14413829
118	0xf7	-0.016631342
119	0x01	0.0018479269
120	0x64	0.18479268
121	0xfe	-0.0036958538
122	0xf1	-0.027718903
123	0xca	-0.099788055
124	0xf9	-0.0129354885
125	0x2d	0.08315671
126	0xad	-0.15337794
127	0xb4	-0.14044245

sequential_1/dense_8/MatMul i1 [32, 32] scale=0.008429089 zero_point=0
0	0xec	-0.16858177
1	0x02	0.016858177
2	0xdf	-0.27815992
3	0x10	0.13486542
4	0x05	0.042145442
5	0xe0	-0.26973084
6	0xea	-0.18543994
7	0x0d	0.109578155
8	0x17	0.19386904
9	0xda	-0.32030538
10	0x00	0.0
11	0xea	-0.18543994
12	0xcc	-0.43831262
13	0xec	-0.16858177
14	0xd1	-0.39616716
15	0xe1	-0.26130176
16	0xcf	-0.41302535
17	0xff	-0.008429089
18	0xf6	-0.084290884
19	0x02	0.016858177
20	0xe5	-0.22758539
21	0x0c	0.10114907
22	0xf0	-0.13486542
23	0xf0	-0.13486542
24	0x08	0.06743271
25	0xef	-0.14329451
26	0x14	0.16858177
27	0xea	-0.18543994
28	0xc4	-0.5057453
29	0xe9	-0.19386904
30	0x05	0.042145442
31	0xdd	-0.2950181
32	0xf0	-0.13486542
33	0xf8	-0.06743271
34	0x0b	0.09271997
35	0x00	0.0
36	0xed	-0.16015269
37	0xf5	-0.09271997
38	0xf8	-0.06743271
39	0xd0	-0.40459627
40	0x0a	0.084290884
41	0x01	0.008429089
42	0xfd	-0.025287267
43	0xfe	-0.016858177
44	0xf8	-0.06743271
45	0xfe	-0.016858177
46	0xe3	-0.24444357
47	0x06	0.050574534
48	0xfe	-0.016858177
49	0xf8	-0.06743271
50	0xca	-0.45517078
51	0xf9	-0.05900362
52	0xf8	-0.06743271
53	0xff	-0.008429089
54	0xfb	-0.042145442
55	0xe1	-0.26130176
56	0x07	0.05900362
57	0xf5	-0.09271997
58	0x04	0.033716355
59	0xbc	-0.57317805
60	0xd3	-0.379309
61	0xf9	-0.05900362
62	0xfb	-0.042145442
63	0x1d	0.24444357
64	0x06	0.050574534
65	0xb6	-0.62375253
66	0xec	-0.16858177
67	0xf9	-0.05900362
68	0xed	-0.16015269
69	0xe1	-0.26130176
70	0xe9	-0.19386904
71	0xde	-0.28658903
72	0xe3	-0.24444357
73	0xcf	-0.41302535
74	0xd3	-0.379309
75	0xdf	-0.27815992
76	0x00	0.0
77	0xcb	-0.4467417
78	0xf5	-0.09271997
79	0xd8	-0.33716354
80	0xb0	-0.6743271
81	0xae	-0.6911853
82	0x16	0.18543994
83	0x23	0.2950181
84	0xe0	-0.26973084
85	0x10	0.13486542
86	0x36	0.45517078
87	0xb6	-0.62375253
88	0xf5	-0.09271997
89	0xec	-0.16858177
90	0xf7	-0.0758618
91	0xbb	-0.5816071
92	0xee	-0.1517236
93	0x88	-1.0114906
94	0x4b	0.63218164
95	0xe1	-0.26130176
96	0x13	0.16015269
97	0xdc	-0.3034472
98	0xeb	-0.17701086
99	0xef	-0.14329451
100	0xe4	-0.23601449
101	0xfb	-0.042145442
102	0xdf	-0.27815992
103	0xc2	-0.5226035
104	0x02	0.016858177
105	0x84	-1.045207
106	0x06	0.050574534
107	0xbd	-0.56474894
108	0xe8	-0.20229813
109	0xc7	-0.48045805
110	0x32	0.42145443
111	0xac	-0.70804346
112	0xdc	-0.3034472
113	0x09	0.0758618
114	0x03	0.025287267
115	0xd7	-0.34559265
116	0xd0	-0.40459627
117	0xee	-0.1517236
118	0xef	-0.14329451
119	0xfe	-0.016858177
120	0xdf	-0.27815992
121	0xd0	-0.40459627
122	0x11	0.14329451
123	0xf8	-0.06743271
124	0xd3	-0.379309
125	0xea	-0.18543994
126	0xce	-0.42145443
127	0xfd	-0.025287267
128	0xec	-0.16858177
129	0xad	-0.69961435
130	0xe5	-0.22758539
131	0xff	-0.008429089
132	0x25	0.31187627
133	0x1d	0.24444357
134	0xd9	-0.32873446
135	0x0f	0.12643632
136	0xf7	-0.0758618
137	0xf3	-0.109578155
138	0x19	0.21072721
139	0xde	-0.28658903
140	0xc5	-0.49731624
141	0x10	0.13486542
142	0x1b	0.22758539
143	0xa2	-0.7923343
144	0xee	-0.1517236
145	0xfb	-0.042145442
146	0xd9	-0.32873446
147	0xf4	-0.10114907
148	0x1b	0.22758539
149	0xe8	-0.20229813
150	0x06	0.050574534
151	0xd9	-0.32873446
152	0xe7	-0.21072721
153	0xec	-0.16858177
154	0xf8	-0.06743271
155	0xdb	-0.31187627
156	0x9e	-0.8260507
157	0xcb	-0.4467417
158	0xd7	-0.34559265
159	0xce	-0.42145443
160	0xc8	-0.47202897
161	0xe2	-0.25287265
162	0x06	0.050574534
163	0xcf	-0.41302535
164	0xe2	-0.25287265
165	0xe1	-0.26130176
166	0xe8	-0.20229813
167	0xbf	-0.5478908
168	0x0d	0.109578155
169	0x02	0.016858177
170	0xf9	-0.05900362
171	0xe7	-0.21072721
172	0xc1	-0.53103256
173	0x03	0.025287267
174	0xf1	-0.12643632
175	0x17	0.19386904
176	0xf3	-0.109578155
177	0xd8	-0.33716354
178	0xc6	-0.48888713
179	0x05	0.042145442
180	0xf3	-0.109578155
181	0x03	0.025287267
182	0xce	-0.42145443
183	0x91	-0.93562883
184	0xed	-0.16015269
185	0xe0	-0.26973084
186	0xfa	-0.050574534
187	0xad	-0.69961435
188	0xcd	-0.4298835
189	0x03	0.025287267
190	0x01	0.008429089
191	0x1a	0.21915631
192	0x07	0.05900362
193	0x11	0.14329451
194	0xe2	-0.25287265
195	0xda	-0.32030538
196	0xf7	-0.0758618
197	0xff	-0.008429089
198	0xf7	-0.0758618
199	0xc9	-0.46359986
200	0xfa	-0.050574534
201	0x02	0.016858177
202	0x06	0.050574534
203	0xf0	-0.13486542
204	0xe8	-0.20229813
205	0x1b	0.22758539
206	0x07	0.05900362
207	0xd5	-0.3624508
208	0xe7	-0.21072721
209	0x0b	0.09271997
210	0xcf	-0.41302535
211	0x15	0.17701086
212	0xfe	-0.016858177
213	0x00	0.0
214	0xf8	-0.06743271
215	0xc6	-0.48888713
216	0xd5	-0.3624508
217	0xc8	-0.47202897
218	0xff	-0.008429089
219	0xfd	-0.025287267
220	0xc6	-0.48888713
221	0xf0	-0.13486542
222	0xf0	-0.13486542
223	0x1c	0.23601449
224	0xe0	-0.26973084
225	0x0a	0.084290884
226	0xfd	-0.025287267
227	0xd7	-0.34559265
228	0xf2	-0.11800724
229	0xc6	-0.48888713
230	0xa2	-0.7923343
231	0xe5	-0.22758539
232	0xde	-0.28658903
233	0xf5	-0.09271997
234	0xed	-0.16015269
235	0x0e	0.11800724
236	0x04	0.033716355
237	0xd3	-0.379309
238	0x05	0.042145442
239	0x12	0.1517236
240	0xf5	-0.09271997
241	0xf7	-0.0758618
242	0xb5	-0.63218164
243	0x35	0.4467417
244	0xe8	-0.20229813
245	0x1e	0.25287265
246	0x17	0.19386904
247	0xf8	-0.06743271
248	0xf5	-0.09271997
249	0xff	-0.008429089
250	0xcb	-0.4467417
251	0xca	-0.45517078
252	0x9b	-0.85133797
253	0x0c	0.10114907
254	0x1f	0.26130176
255	0xda	-0.32030538

sequential_1/dense_7/MatMul i1 [32, 128] scale=0.010711961 zero_point=0
0	0x97	-1.124756
1	0xa8	-0.9426526
2	0x0f	0.16067941
3	0xf5	-0.11783157
4	0x24	0.3856306
5	0xc5	-0.63200575
6	0x0b	0.11783157
7	0xc9	-0.5891579
8	0xc4	-0.64271766
9	0x29	0.43919042
10	0x07	0.07498373
11	0x0e	0.14996746
12	0x10	0.17139138
13	0xf0	-0.17139138
14	0x2f	0.5034622
15	0xed	-0.20352727
16	0x02	0.021423923
17	0x26	0.40705454
18	0xdf	-0.35349473
19	0x04	0.042847846
20	0x01	0.010711961
21	0x24	0.3856306
22	0x2c	0.4713263
23	0xf0	-0.17139138
24	0x15	0.2249512
25	0xfa	-0.06427177
26	0xeb	-0.2249512
27	0xeb	-0.2249512
28	0xfc	-0.042847846
29	0xf8	-0.08569569
30	0xda	-0.40705454
31	0xf1	-0.16067941
32	0xc8	-0.59986985
33	0xfa	-0.06427177
34	0xd6	-0.4499024
35	0xf4	-0.12854354
36	0xf9	-0.07498373
37	0xdf	-0.35349473
38	0x08	0.08569569
39	0x05	0.053559806
40	0xef	-0.18210335
41	0xb8	-0.7712612
42	0xf4	-0.12854354
43	0xad	-0.8890928
44	0xe8	-0.25708708
45	0xf5	-0.11783157
46	0xeb	-0.2249512
47	0x23	0.37491864
48	0xe7	-0.26779905
49	0xe4	-0.29993492
50	0xcb	-0.56773394
51	0x0d	0.1392555
52	0xda	-0.40705454
53	0x08	0.08569569
54	0xe4	-0.29993492
55	0xf2	-0.14996746
56	0x18	0.25708708
57	0x09	0.09640765
58	0xca	-0.5784459
59	0x05	0.053559806
60	0xf1	-0.16067941
61	0x12	0.1928153
62	0xd6	-0.4499024
63	0xe7	-0.26779905
64	0xe1	-0.3320708
65	0xf3	-0.1392555
66	0x02	0.021423923
67	0xf2	-0.14996746
68	0xeb	-0.2249512
69	0x02	0.021423923
70	0xf4	-0.12854354
71	0xf9	-0.07498373
72	0x0f	0.16067941
73	0x07	0.07498373
74	0x57	0.9319406
75	0x21	0.35349473
76	0xf8	-0.08569569
77	0x0a	0.10711961
78	0xfd	-0.032135885
79	0xef	-0.18210335
80	0xe1	-0.3320708
81	0x04	0.042847846
82	0x08	0.08569569
83	0xcc	-0.557022
84	0xfe	-0.021423923
85	0xf4	-0.12854354
86	0xe6	-0.278511
87	0x11	0.18210335
88	0xff	-0.010711961
89	0xa2	-1.0069244
90	0xfc	-0.042847846
91	0xf8	-0.08569569
92	0xdc	-0.3856306
93	0xf2	-0.14996746
94	0xd1	-0.5034622
95	0x03	0.032135885
96	0x08	0.08569569
97	0x1a	0.278511
98	0xda	-0.40705454
99	0x24	0.3856306
100	0xfc	-0.042847846
101	0x25	0.39634258
102	0x01	0.010711961
103	0xf1	-0.16067941
104	0xe6	-0.278511
105	0xf6	-0.10711961
106	0xfa	-0.06427177
107	0xf1	-0.16067941
108	0xe6	-0.278511
109	0xfc	-0.042847846
110	0xea	-0.23566315
111	0x1d	0.3106469
112	0xd8	-0.42847845
113	0xfc	-0.042847846
114	0x0f	0.16067941
115	0xca	-0.5784459
116	0xf3	-0.1392555
117	0xf6	-0.10711961
118	0x2a	0.4499024
119	0xd8	-0.42847845
120	0xef	-0.18210335
121	0x0a	0.10711961
122	0x18	0.25708708
123	0xec	-0.21423922
124	0xef	-0.18210335
125	0xe6	-0.278511
126	0xf3	-0.1392555
127	0x01	0.010711961
128	0xf1	-0.16067941
129	0x3c	0.64271766
130	0x07	0.07498373
131	0x17	0.24637511
132	0x04	0.042847846
133	0x08	0.08569569
134	0x06	0.06427177
135	0x03	0.032135885
136	0x28	0.42847845
137	0x1e	0.32135883
138	0xef	-0.18210335
139	0xfa	-0.06427177
140	0xf2	-0.14996746
141	0x04	0.042847846
142	0x0f	0.16067941
143	0x13	0.20352727
144	0xec	-0.21423922
145	0x00	0.0
146	0x0b	0.11783157
147	0x1e	0.32135883
148	0xdd	-0.37491864
149	0x05	0.053559806
150	0xe7	-0.26779905
151	0xc7	-0.6105818
152	0xcb	-0.56773394
153	0xcc	-0.557022
154	0xee	-0.1928153
155	0x0c	0.12854354
156	0xda	-0.40705454
157	0xe4	-0.29993492
158	0xee	-0.1928153
159	0xdb	-0.39634258
160	0xea	-0.23566315
161	0x11	0.18210335
162	0xd4	-0.4713263
163	0x01	0.010711961
164	0xeb	-0.2249512
165	0x53	0.8890928
166	0xc4	-0.64271766
167	0xfa	-0.06427177
168	0xd6	-0.4499024
169	0xe7	-0.26779905
170	0x0e	0.14996746
171	0xb6	-0.79268515
172	0x0d	0.1392555
173	0xdf	-0.35349473
174	0x12	0.1928153
175	0xd8	-0.42847845
176	0x06	0.06427177
177	0x06	0.06427177
178	0xf0	-0.17139138
179	0x0f	0.16067941
180	0x07	0.07498373
181	0x47	0.76054925
182	0xc8	-0.59986985
183	0xd6	-0.4499024
184	0xe8	-0.25708708
185	0x23	0.37491864
186	0xbd	-0.71770144
187	0x03	0.032135885
188	0xe4	-0.29993492
189	0xbc	-0.7284134
190	0xff	-0.010711961
191	0x1a	0.278511
192	0xe8	-0.25708708
193	0x1a	0.278511
194	0x05	0.053559806
195	0x02	0.021423923
196	0x09	0.09640765
197	0x34	0.557022
198	0xd0	-0.51417416
199	0xf7	-0.09640765
200	0xde	-0.3642067
201	0x09	0.09640765
202	0x26	0.40705454
203	0xf0	-0.17139138
204	0xdf	-0.35349473
205	0x31	0.52488613
206	0x09	0.09640765
207	0xd1	-0.5034622
208	0xe4	-0.29993492
209	0xff	-0.010711961
210	0x22	0.3642067
211	0xda	-0.40705454
212	0xfd	-0.032135885
213	0x16	0.23566315
214	0x14	0.21423922
215	0x13	0.20352727
216	0x05	0.053559806
217	0xb4	-0.8141091
218	0xc7	-0.6105818
219	0x00	0.0
220	0xf6	-0.10711961
221	0xf2	-0.14996746
222	0xef	-0.18210335
223	0x04	0.042847846
224	0x01	0.010711961
225	0x04	0.042847846
226	0xf1	-0.16067941
227	0xfa	-0.06427177
228	0x2f	0.5034622
229	0xf8	-0.08569569
230	0xf8	-0.08569569
231	0x17	0.24637511
232	0xf6	-0.10711961
233	0x04	0.042847846
234	0xf5	-0.11783157
235	0xf8	-0.08569569
236	0xf5	-0.11783157
237	0xef	-0.18210335
238	0xe1	-0.3320708
239	0xbe	-0.70698947
240	0x22	0.3642067
241	0x0d	0.1392555
242	0x15	0.2249512
243	0x0d	0.1392555
244	0xb1	-0.84624493
245	0xd9	-0.41776648
246	0xe1	-0.3320708
247	0xc3	-0.6534296
248	0x08	0.08569569
249	0x14	0.21423922
250	0x02	0.021423923
251	0x19	0.26779905
252	0xfa	-0.06427177
253	0xd1	-0.5034622
254	0x0a	0.10711961
255	0xf3	-0.1392555

sequential_1/dense_6/MatMul i1 [128, 512] scale=0.019356856 zero_point=0
0	0x07	0.13549799
1	0x00	0.0
2	0xe8	-0.46456456
3	0x16	0.42585084
4	0x16	0.42585084
5	0xe2	-0.5807057
6	0x00	0.0
7	0xf7	-0.17421171
8	0x0c	0.23228228
9	0x14	0.38713712
10	0xf9	-0.13549799
11	0xf6	-0.19356856
12	0xe4	-0.54199195
13	0xf4	-0.23228228
14	0xfb	-0.09678428
15	0x05	0.09678428
16	0xfb	-0.09678428
17	0x02	0.038713712
18	0xe4	-0.54199195
19	0x13	0.36778027
20	0x04	0.077427424
21	0xf3	-0.25163913
22	0x1b	0.5226351
23	0xfe	-0.038713712
24	0x10	0.3097097
25	0xfa	-0.11614114
26	0xed	-0.36778027
27	0x14	0.38713712
28	0xfd	-0.05807057
29	0xfd	-0.05807057
30	0x06	0.11614114
31	0xec	-0.38713712
32	0xf4	-0.23228228
33	0xf8	-0.15485485
34	0xfc	-0.077427424
35	0x01	0.019356856
36	0xf1	-0.29035285
37	0x04	0.077427424
38	0xed	-0.36778027
39	0xec	-0.38713712
40	0xf5	-0.21292542
41	0xeb	-0.406494
42	0x0f	0.29035285
43	0x09	0.17421171
44	0xf6	-0.19356856
45	0xf4	-0.23228228
46	0xf8	-0.15485485
47	0xf7	-0.17421171
48	0xed	-0.36778027
49	0xf6	-0.19356856
50	0xec	-0.38713712
51	0xfb	-0.09678428
52	0xfb	-0.09678428
53	0x17	0.4452077
54	0xf4	-0.23228228
55	0xfd	-0.05807057
56	0xf8	-0.15485485
57	0x01	0.019356856
58	0x0b	0.21292542
59	0x01	0.019356856
60	0xec	-0.38713712
61	0xfc	-0.077427424
62	0xeb	-0.406494
63	0xfb	-0.09678428
64	0x0f	0.29035285
65	0xe3	-0.56134886
66	0xe0	-0.6194194
67	0x24	0.69684684
68	0x05	0.09678428
69	0xe2	-0.5807057
70	0x04	0.077427424
71	0x0b	0.21292542
72	0xf8	-0.15485485
73	0xfe	-0.038713712
74	0xf2	-0.27099597
75	0xfd	-0.05807057
76	0xd7	-0.7936311
77	0x1e	0.5807057
78	0xef	-0.32906654
79	0xf0	-0.3097097
80	0x06	0.11614114
81	0xf1	-0.29035285
82	0x05	0.09678428
83	0xfe	-0.038713712
84	0xdb	-0.7162037
85	0xe6	-0.50327826
86	0xe8	-0.46456456
87	0xeb	-0.406494
88	0x05	0.09678428
89	0xfc	-0.077427424
90	0x12	0.34842342
91	0x03	0.05807057
92	0x00	0.0
93	0xff	-0.019356856
94	0xd9	-0.7549174
95	0xf5	-0.21292542
96	0xf3	-0.25163913
97	0xf6	-0.19356856
98	0xe4	-0.54199195
99	0xf3	-0.25163913
100	0xf3	-0.25163913
101	0x21	0.63877624
102	0x08	0.15485485
103	0x04	0.077427424
104	0xff	-0.019356856
105	0xf0	-0.3097097
106	0xfb	-0.09678428
107	0xec	-0.38713712
108	0xf4	-0.23228228
109	0xff	-0.019356856
110	0x0b	0.21292542
111	0xee	-0.34842342
112	0xfd	-0.05807057
113	0xf2	-0.27099597
114	0x04	0.077427424
115	0xfa	-0.11614114
116	0xea	-0.42585084
117	0xf6	-0.19356856
118	0xec	-0.38713712
119	0xfa	-0.11614114
120	0xf1	-0.29035285
121	0xea	-0.42585084
122	0x04	0.077427424
123	0xf7	-0.17421171
124	0xf1	-0.29035285
125	0xdf	-0.63877624
126	0xfd	-0.05807057
127	0xef	-0.32906654
128	0xf2	-0.27099597
129	0xff	-0.019356856
130	0xfe	-0.038713712
131	0xfe	-0.038713712
132	0xfd	-0.05807057
133	0x01	0.019356856
134	0xf3	-0.25163913
135	0x00	0.0
136	0x07	0.13549799
137	0x10	0.3097097
138	0xdd	-0.67748994
139	0x05	0.09678428
140	0xf8	-0.15485485
141	0xfa	-0.11614114
142	0xfd	-0.05807057
143	0x01	0.019356856
144	0x18	0.46456456
145	0xd8	-0.77427423
146	0xdd	-0.67748994
147	0xf0	-0.3097097
148	0xf2	-0.27099597
149	0x0b	0.21292542
150	0x05	0.09678428
151	0x05	0.09678428
152	0x09	0.17421171
153	0x09	0.17421171
154	0xec	-0.38713712
155	0xf6	-0.19356856
156	0xf0	-0.3097097
157	0xdb	-0.7162037
158	0x01	0.019356856
159	0x01	0.019356856
160	0xff	-0.019356856
161	0xeb	-0.406494
162	0x18	0.46456456
163	0x0b	0.21292542
164	0x09	0.17421171
165	0xef	-0.32906654
166	0xfa	-0.11614114
167	0x08	0.15485485
168	0x01	0.019356856
169	0x01	0.019356856
170	0xf2	-0.27099597
171	0xe8	-0.46456456
172	0xf3	-0.25163913
173	0x0a	0.19356856
174	0x05	0.09678428
175	0x09	0.17421171
176	0xfa	-0.11614114
177	0xf6	-0.19356856
178	0xf4	-0.23228228
179	0xe7	-0.4839214
180	0xf7	-0.17421171
181	0xfb	-0.09678428
182	0xe4	-0.54199195
183	0xee	-0.34842342
184	0xeb	-0.406494
185	0x09	0.17421171
186	0x02	0.038713712
187	0x03	0.05807057
188	0x08	0.15485485
189	0x0f	0.29035285
190	0xec	-0.38713712
191	0xf6	-0.19356856
192	0x02	0.038713712
193	0x20	0.6194194
194	0x05	0.09678428
195	0x0c	0.23228228
196	0xef	-0.32906654
197	0x04	0.077427424
198	0x1f	0.60006255
199	0x04	0.077427424
200	0xfb	-0.09678428
201	0xff	-0.019356856
202	0xd0	-0.9291291
203	0xf6	-0.19356856
204	0xf3	-0.25163913
205	0x0c	0.23228228
206	0x08	0.15485485
207	0xf7	-0.17421171
208	0xfb	-0.09678428
209	0xf6	-0.19356856
210	0xf1	-0.29035285
211	0xde	-0.6581331
212	0xff	-0.019356856
213	0xeb	-0.406494
214	0xf0	-0.3097097
215	0x00	0.0
216	0x0f	0.29035285
217	0x20	0.6194194
218	0xfe	-0.038713712
219	0x06	0.11614114
220	0xf3	-0.25163913
221	0xeb	-0.406494
222	0xe6	-0.50327826
223	0x01	0.019356856
224	0xf4	-0.23228228
225	0x0d	0.25163913
226	0xfb	-0.09678428
227	0x0e	0.27099597
228	0xe8	-0.46456456
229	0xf8	-0.15485485
230	0xf6	-0.19356856
231	0xf9	-0.13549799
232	0xf3	-0.25163913
233	0x02	0.038713712
234	0x12	0.34842342
235	0xf1	-0.29035285
236	0xeb	-0.406494
237	0x08	0.15485485
238	0xfa	-0.11614114
239	0xfc	-0.077427424
240	0xf9	-0.13549799
241	0x08	0.15485485
242	0xe6	-0.50327826
243	0x0c	0.23228228
244	0xf5	-0.21292542
245	0xf9	-0.13549799
246	0xf6	-0.19356856
247	0xe1	-0.60006255
248	0x00	0.0
249	0x09	0.17421171
250	0x02	0.038713712
251	0xf7	-0.17421171
252	0xfd	-0.05807057
253	0x04	0.077427424
254	0x12	0.34842342
255	0x10	0.3097097

sequential_1/dense_5/MatMul i1 [512, 24] scale=0.023291538 zero_point=0
0	0x09	0.20962384
1	0xe9	-0.5357054
2	0xe8	-0.5589969
3	0xe6	-0.60558
4	0x03	0.069874614
5	0x19	0.58228844
6	0x00	0.0
7	0xee	-0.4192477
8	0xdd	-0.8152038
9	0xff	-0.023291538
10	0xe5	-0.6288715
11	0x15	0.4891223
12	0x09	0.20962384
13	0x0b	0.2562069
14	0xf8	-0.1863323
15	0xe6	-0.60558
16	0xfd	-0.069874614
17	0x05	0.116457686
18	0x27	0.90836996
19	0xe7	-0.58228844
20	0x37	1.2810346
21	0xf2	-0.3260815
22	0x04	0.09316615
23	0xf8	-0.1863323
24	0x06	0.13974923
25	0x27	0.90836996
26	0x30	1.1179938
27	0xf8	-0.1863323
28	0x00	0.0
29	0x11	0.39595613
30	0xe6	-0.60558
31	0xed	-0.44253922
32	0x29	0.954953
33	0x06	0.13974923
34	0xe2	-0.69874614
35	0x0e	0.3260815
36	0xf7	-0.20962384
37	0xe7	-0.58228844
38	0x2b	1.0015361
39	0xee	-0.4192477
40	0xf8	-0.1863323
41	0x06	0.13974923
42	0xd8	-0.9316615
43	0xe1	-0.7220377
44	0xfc	-0.09316615
45	0x15	0.4891223
46	0x16	0.5124138
47	0xf4	-0.27949846
48	0xf5	-0.2562069
49	0x29	0.954953
50	0xf7	-0.20962384
51	0xf6	-0.23291537
52	0x0e	0.3260815
53	0xd3	-1.0481192
54	0xa9	-2.0263638
55	0xfc	-0.09316615
56	0xda	-0.88507843
57	0x1b	0.6288715
58	0xea	-0.5124138
59	0x01	0.023291538
60	0xf8	-0.1863323
61	0xf1	-0.34937307
62	0xf4	-0.27949846
63	0xfd	-0.069874614
64	0xea	-0.5124138
65	0x19	0.58228844
66	0xf8	-0.1863323
67	0xfa	-0.13974923
68	0x29	0.954953
69	0xf6	-0.23291537
70	0xf7	-0.20962384
71	0xe9	-0.5357054
72	0x1a	0.60558
73	0x0a	0.23291537
74	0xf6	-0.23291537
75	0xfd	-0.069874614
76	0x14	0.46583074
77	0x15	0.4891223
78	0x08	0.1863323
79	0xff	-0.023291538
80	0xe6	-0.60558
81	0x05	0.116457686
82	0xff	-0.023291538
83	0x0b	0.2562069
84	0x07	0.16304076
85	0x1c	0.652163
86	0xeb	-0.4891223
87	0x06	0.13974923
88	0x12	0.4192477
89	0xf3	-0.30279
90	0x14	0.46583074
91	0x1b	0.6288715
92	0x0d	0.30279
93	0x11	0.39595613
94	0x38	1.304326
95	0x2d	1.0481192
96	0x01	0.023291538
97	0x27	0.90836996
98	0xe9	-0.5357054
99	0x1b	0.6288715
100	0x10	0.3726646
101	0xf5	-0.2562069
102	0x13	0.44253922
103	0x38	1.304326
104	0xd0	-1.1179938
105	0xec	-0.46583074
106	0x00	0.0
107	0xf9	-0.16304076
108	0x00	0.0
109	0xfe	-0.046583075
110	0x31	1.1412853
111	0xf7	-0.20962384
112	0xf4	-0.27949846
113	0xe4	-0.652163
114	0x17	0.5357054
115	0xdb	-0.8617869
116	0x34	1.21116
117	0xf6	-0.23291537
118	0xec	-0.46583074
119	0x18	0.5589969
120	0xf0	-0.3726646
121	0x17	0.5357054
122	0xff	-0.023291538
123	0xff	-0.023291538
124	0xf5	-0.2562069
125	0xcb	-1.2344515
126	0xca	-1.257743
127	0x21	0.7686207
128	0xc6	-1.3509092
129	0xe5	-0.6288715
130	0x1d	0.6754546
131	0xe9	-0.5357054
132	0xe8	-0.5589969
133	0x16	0.5124138
134	0xf8	-0.1863323
135	0x02	0.046583075
136	0x13	0.44253922
137	0x1d	0.6754546
138	0xff	-0.023291538
139	0x4f	1.8400315
140	0xd7	-0.954953
141	0xf6	-0.23291537
142	0xfc	-0.09316615
143	0xee	-0.4192477
144	0x03	0.069874614
145	0x04	0.09316615
146	0xf0	-0.3726646
147	0xf8	-0.1863323
148	0xfe	-0.046583075
149	0x2e	1.0714108
150	0x22	0.79191226
151	0xf0	-0.3726646
152	0xf1	-0.34937307
153	0xfb	-0.116457686
154	0x1a	0.60558
155	0xd7	-0.954953
156	0xf3	-0.30279
157	0x1f	0.7220377
158	0xf0	-0.3726646
159	0xee	-0.4192477
160	0x0e	0.3260815
161	0xfb	-0.116457686
162	0x1a	0.60558
163	0x49	1.7002822
164	0x31	1.1412853
165	0x1b	0.6288715
166	0x14	0.46583074
167	0x21	0.7686207
168	0x04	0.09316615
169	0xee	-0.4192477
170	0x07	0.16304076
171	0xe4	-0.652163
172	0xf2	-0.3260815
173	0x01	0.023291538
174	0xf9	-0.16304076
175	0xff	-0.023291538
176	0x0a	0.23291537
177	0x11	0.39595613
178	0xf7	-0.20962384
179	0x02	0.046583075
180	0xee	-0.4192477
181	0x11	0.39595613
182	0xf0	-0.3726646
183	0x4a	1.7235738
184	0xf2	-0.3260815
185	0x10	0.3726646
186	0xec	-0.46583074
187	0xdb	-0.8617869
188	0x19	0.58228844
189	0xf2	-0.3260815
190	0x03	0.069874614
191	0x0f	0.34937307
192	0xfe	-0.046583075
193	0x27	0.90836996
194	0x07	0.16304076
195	0x09	0.20962384
196	0xc3	-1.4207838
197	0x17	0.5357054
198	0x0d	0.30279
199	0x0e	0.3260815
200	0xfd	-0.069874614
201	0xe6	-0.60558
202	0xf2	-0.3260815
203	0xfb	-0.116457686
204	0x17	0.5357054
205	0xe9	-0.5357054
206	0xff	-0.023291538
207	0xff	-0.023291538
208	0x0a	0.23291537
209	0xf6	-0.23291537
210	0xf6	-0.23291537
211	0x10	0.3726646
212	0x21	0.7686207
213	0xc5	-1.3742007
214	0x15	0.4891223
215	0xf3	-0.30279
216	0xf9	-0.16304076
217	0xeb	-0.4891223
218	0xea	-0.5124138
219	0x10	0.3726646
220	0xdb	-0.8617869
221	0x00	0.0
222	0xdc	-0.8384954
223	0xf8	-0.1863323
224	0x13	0.44253922
225	0x05	0.116457686
226	0x18	0.5589969
227	0xfd	-0.069874614
228	0x11	0.39595613
229	0xdd	-0.8152038
230	0x26	0.88507843
231	0xf5	-0.2562069
232	0xea	-0.5124138
233	0xf8	-0.1863323
234	0x2f	1.0947022
235	0x05	0.116457686
236	0xdd	-0.8152038
237	0xde	-0.79191226
238	0x19	0.58228844
239	0x18	0.5589969
240	0xf0	-0.3726646
241	0xf3	-0.30279
242	0x1d	0.6754546
243	0xfb	-0.116457686
244	0xf2	-0.3260815
245	0x4d	1.7934484
246	0x0e	0.3260815
247	0xe2	-0.69874614
248	0x1b	0.6288715
249	0xda	-0.88507843
250	0x10	0.3726646
251	0x23	0.8152038
252	0xfd	-0.069874614
253	0x11	0.39595613
254	0xd4	-1.0248276
255	0x1f	0.7220377
