TensorflowLite/sine_model.tflite (tflite, 4740 bytes, 7 tensors)

sequential_5/dense_18/BiasAdd/ReadVariableOp f4 [16]
0.26654506 0.30892313 0.0 0.29773518 0.0 -0.25235185 -0.03102133 -0.018687926
0.27527925 0.1325631 -0.117565095 0.344415 0.0 0.0 0.25686637 -0.07120804
00000000: 9878 883e 2c2b 9e3e 0000 0000 bf70 983e
00000010: 0000 0000 4334 81be 7220 febc 6c17 99bc
00000020: 67f1 8c3e 9fbe 073e f8c5 f0bd 2a57 b03e
00000030: 0000 0000 0000 0000 fd83 833e 85d5 91bd

sequential_5/dense_17/BiasAdd/ReadVariableOp f4 [16]
-0.09295018 0.0 0.0 -0.062998466 -0.41443267 0.0 0.0 0.0
0.0 -0.0949615 -0.6270286 0.0 -0.3505027 -0.017646475 0.49165308 0.0
00000000: aa5c bebd 0000 0000 0000 0000 5705 81bd
00000010: 8530 d4be 0000 0000 0000 0000 0000 0000
00000020: 0000 0000 2d7b c2bd f284 20bf 0000 0000
00000030: 1775 b3be 578f 90bc f4b9 fb3e 0000 0000

sequential_5/dense_16/BiasAdd/ReadVariableOp f4 [16]
-0.57064927 0.0 0.0 0.0 0.0 -0.005593459 -0.04340503 0.0
0.0 0.0 0.0 0.0 -0.8145333 -0.0031252005 0.63954794 0.0
00000000: 1216 12bf 0000 0000 0000 0000 0000 0000
00000010: 0000 0000 5649 b7bb 79c9 31bd 0000 0000
00000020: 0000 0000 0000 0000 0000 0000 0000 0000
00000030: 4185 50bf 2ad0 4cbb 6ab9 233f 0000 0000

sequential_5/dense_16/MatMul f4 [16, 1]
0.23084663 -0.0005123019 -0.06610334 -0.18451458 -0.491696 0.49428517 0.48117045 -0.28666463
-0.36490187 -0.5737332 -0.12991127 -0.10722268 0.49690783 0.29051346 0.23786077 -0.35338908
00000000: 0f63 6c3e 004c 06ba 3061 87bd 64f1 3cbe
00000010: 94bf fbbe f212 fd3e f95b f63e b5c5 92be
00000020: 6bd4 babe 2ee0 12bf 7607 05be 9097 dbbd
00000030: b46a fe3e 2ebe 943e c691 733e 6aef b4be

sequential_5/dense_17/MatMul f4 [16, 16]
0.33818182 -0.4174587 0.16049019 0.18164095 0.33815137 -0.30394787 0.43104678 -0.3195113
0.31332245 -0.4244978 -0.0053981245 -0.25540292 -0.28917333 -0.38266653 0.14119785 0.43119994
0.2702171 -0.023588508 0.022565305 -0.15876248 -0.26653057 -0.20042895 -0.18379302 0.35968843
0.10120645 -0.2208087 -0.1449714 -0.29476714 0.19205675 -0.13857114 -0.012925833 0.012121618
0.019385785 0.24908909 0.044169873 0.40989313 -0.09819704 0.42094508 -0.30227125 -0.22883713
-0.3410663 0.11433527 -0.308385 -0.40319067 -0.29468644 0.28966293 -0.3713048 0.25282392
0.17491668 -0.17519721 -0.23067228 -0.29991823 0.4289892 0.13023907 0.3341329 -0.048284948
0.20000473 -0.10416278 0.10431692 0.39038345 0.28470486 -0.26545414 -0.12704691 -0.3718819
0.6147043 0.08231661 0.28540137 0.33555445 -0.2899766 -0.084061496 0.39599726 0.3734778
-0.36664462 0.32560125 0.23443058 -0.06954554 -0.19963887 -0.20305619 -0.11600436 0.3956295
-0.0671213 0.16509369 -0.31118453 -0.24290004 -0.4148828 0.31296334 -0.15698215 -0.3476683
-0.3411391 0.21907762 0.388414 -0.24725783 -0.15374863 -0.08864617 -0.20997126 0.017746955
-0.25466454 -0.12272698 0.27093253 0.3422074 -0.0065096915 -0.083361804 -0.39952612 -0.09982273
-0.3264711 -0.2846623 -0.39441055 -0.054595083 -0.36432475 -0.36144957 -0.3509102 -0.37984034
0.1728222 0.419633 -0.02348134 -0.2438522 -0.07498577 0.17219594 -0.20191197 -0.4202383
0.14558545 -0.11925021 0.2122322 0.2840484 -0.31210208 0.12279478 -0.3247342 0.0157426
0.1814675 -0.3199764 0.3330225 0.015884966 -0.13184538 -0.09596038 0.047634453 0.17784312
0.21210393 -0.30787128 -0.18254858 -0.38734266 -0.3991266 -0.26149893 -0.0383718 0.0037223697
-1.0152185 0.0038853586 0.35039452 -0.07470837 -0.010528952 0.402341 0.36818713 0.38345262
0.26797733 0.1582996 0.27792236 -0.16518599 -0.9077037 0.41751227 0.33907565 0.079714924
0.7809732 -0.14904436 0.039914906 -0.38608822 -0.37814662 -0.22965789 0.21259409 -0.112083405
0.08547476 0.27264032 -0.31823146 -0.42047462 0.5592237 0.053613473 -0.42398182 0.01838094
-0.27575603 0.09119728 -0.062395453 0.2862564 -0.07142097 -0.081214875 0.4042689 -0.21561654
0.29996273 0.30250123 0.41941878 0.4273515 0.1509451 -0.30422038 -0.314283 -0.040869772
0.21858542 -0.41541892 -0.07764819 0.015844077 -0.071567446 0.2611723 0.106402926 0.3425937
0.01350832 0.2968063 -0.06829324 0.12376526 -0.032434043 0.40859747 -0.19606791 0.07981679
0.06990543 -0.19979134 0.32214472 -0.3818155 0.24903825 -0.34561664 -0.35248193 -0.2758413
-0.37915865 -0.027379304 -0.038208574 0.04213351 0.2865441 0.028444786 0.026509676 -0.20703238
-0.6421497 -0.2353651 -0.3508786 0.3640065 0.41944954 -0.15633276 0.1459467 -0.2548741
0.42666283 -0.2754959 0.1290951 -0.109930575 -0.35625935 0.20365629 0.047231242 0.21297964
-0.42555672 0.26489952 0.04601991 0.21643767 0.004876673 -0.28519893 -0.089744836 -0.19982511
-0.42772627 -0.2679824 0.13606164 -0.0069440007 -0.3993623 -0.37992045 -0.28697264 0.39017627
00000000: 2b26 ad3e 26bd d5be 8a57 243e 1600 3a3e
00000010: 2d22 ad3e 0e9f 9bbe 2ab2 dc3e fc96 a3be
00000020: cd6b a03e c757 d9be c0e2 b0bb 2cc4 82be
00000030: 870e 94be deec c3be 2b96 103e 3dc6 dc3e
00000040: e559 8a3e b03c c1bc e0da b83c a292 22be
00000050: b276 88be 3f3d 4dbe 3d34 3cbe 1529 b83e
00000060: 5445 cf3d ad1b 62be 6273 14be b8eb 96be
00000070: 86aa 443e 98e5 0dbe e0c6 53bc c099 463c
00000080: f0ce 9e3c 3611 7f3e 78eb 343d 83dd d13e
00000090: 881b c9bd 1d86 d73e 4cc3 9abe 4854 6abe
000000a0: 3ea0 aebe 9c28 ea3d a4e4 9dbe 026f cebe
000000b0: 24e1 96be b34e 943e aa1b bebe 2372 813e
000000c0: 5c1d 333e e666 33be 5b35 6cbe e28e 99be
000000d0: 79a4 db3e 645d 053e 7813 ab3e 70c6 45bd
000000e0: 0ace 4c3e 4c53 d5bd 1ca4 d53d 57e0 c73e
000000f0: d6c4 913e 9be9 87be 9618 02be 4e67 bebe
00000100: 435d 1d3f 9c95 a83d 2120 923e cbcd ab3e
00000110: d077 94be 6f28 acbd 27c0 ca3e 7b38 bf3e
00000120: d8b8 bbbe 35b5 a63e 920e 703e e46d 8ebd
00000130: 226e 4cbe f6ed 4fbe b293 edbd f38f ca3e
00000140: e476 89bd 520e 293e 9453 9fbe caba 78be
00000150: 856b d4be bb3c a03e eebf 20be 9401 b2be
00000160: c9a9 aebe e255 603e 33de c63e 2831 7dbe
00000170: 4870 1dbe 208c b5bd b502 57be 1062 913c
00000180: 6463 82be 4858 fbbd abb7 8a3e cf35 af3e
00000190: 404f d5bb 98b9 aabd b08e ccbe dc6f ccbd
000001a0: 3827 a7be 42bf 91be 2ef0 c9be 189f 5fbd
000001b0: c688 babe eb0f b9be 80aa b3be 6f7a c2be
000001c0: 4ef8 303e 23da d63e f05b c0bc 64b4 79be
000001d0: 2492 99bd 2254 303e 03c2 4ebe 7929 d7be
000001e0: 5a14 153e 7439 f4bd 6653 593e cb6e 913e
000001f0: d8cb 9fbe d47b fb3d 9043 a6be a0f6 803c
00000200: 9ed2 393e f2d3 a3be ed81 aa3e 3021 823c
00000210: 7a02 07be e086 c4bd 581c 433d 821c 363e
00000220: c631 593e 4ea1 9dbe 04ee 3abe c751 c6be
00000230: 525a ccbe 30e3 85be c02b 1dbd 00f3 733b
00000240: aef2 81bf 80a1 7e3b e966 b33e b400 99bd
00000250: a081 2cbc a4ff cd3e 0683 bc3e e753 c43e
00000260: 5334 893e 4a19 223e d74b 8e3e 8426 29be
00000270: 455f 68bf 2bc4 d53e 539b ad3e 9441 a33d
00000280: dced 473f 169f 18be d07d 233d 5bad c5be
00000290: 6f9c c1be 702b 6bbe 44b2 593e fc8b e5bd
000002a0: 640d af3d 8397 8b3e 3cef a2be 7348 d7be
000002b0: 4929 0f3f cd99 5b3d 2514 d9be a093 963c
000002c0: e52f 8dbe a4c5 ba3d 6092 7fbd 3390 923e
000002d0: 2845 92bd fc53 a6bd 55fc ce3e 95ca 5cbe
000002e0: b794 993e 71e1 9a3e 0fbe d63e d1cd da3e
000002f0: 5a91 1a3e c6c2 9bbe b4e9 a0be 1067 27bd
00000300: dbd4 5f3e cab1 d4be 0406 9fbd 70cb 813c
00000310: f491 92bd 60b8 853e c7e9 d93d 7168 af3e
00000320: 0052 5d3c fff6 973e 54dd 8bbd a478 fd3d
00000330: 8fd9 04bd b033 d13e 07c6 48be fc76 a33d
00000340: 942a 8f3d 1a96 4cbe 27f0 a43e 527d c3be
00000350: e203 7f3e aaf4 b0be 8378 b4be 123b 8dbe
00000360: 1521 c2be 904a e0bc 9880 1cbd 3094 2c3d
00000370: e9b5 923e 0a05 e93c d22a d93c 4c00 54be
00000380: ec63 24bf 8c03 71be 5ca6 b3be 0f5f ba3e
00000390: 17c2 d63e b215 20be 0d73 153e dc7e 82be
000003a0: 8d73 da3e cc0d 8dbe 8231 043e 4823 e1bd
000003b0: a067 b6be 468b 503e 8c75 413d 5617 5a3e
000003c0: 92e2 d9be e9a0 873e 607f 3c3d d6a1 5d3e
000003d0: 80cc 9f3b 9805 92be 24cc b7bd f49e 4cbe
000003e0: f0fe dabe fd34 89be be53 0b3e 808a e3bb
000003f0: 3779 ccbe ef84 c2be 14ee 92be 2fc5 c73e

sequential_5/dense_18/MatMul f4 [16, 16]
-0.21819101 0.41298744 0.27010664 -0.018114135 0.06371672 0.33574966 0.081296 0.08843234
0.090717524 -0.067591935 0.08054565 0.010057479 -0.9053604 0.09303001 0.72137904 0.14978138
0.13082355 -0.04337257 -0.17700201 0.19354853 0.092762895 -0.3969022 0.33776465 0.09351024
-0.13121152 0.13527675 -1.1407753 -0.20326975 -0.19696671 0.20024815 -0.81765264 -0.23218463
0.18583581 0.38639668 0.13204595 -0.39098924 -0.041017175 -0.4212552 -0.08175045 0.067032844
-0.18704617 -0.15052068 0.0014226139 -0.32370555 0.24794552 0.40257493 -0.043040246 0.37881717
-0.19692132 0.41788325 0.07831159 0.119580664 -0.17834473 0.27121243 -0.1176905 0.2956334
-0.1588996 0.17963712 -1.6459172 0.001495719 0.017068869 -0.15588638 -0.8779492 0.26189414
-0.08031699 -0.33030558 0.19533876 -0.3368709 0.23859075 0.10506931 -0.031872034 -0.4025823
0.19923243 -0.35113153 -0.19558088 -0.2606819 -0.038271964 0.07395318 -0.20847431 0.08708891
0.32865435 0.40332118 -0.1964042 -0.09199449 0.3690534 0.020785779 -0.2111202 -0.069261014
0.19188526 0.30942184 1.4626626 -0.095692575 -0.11196818 -0.07555282 0.5686176 0.029499084
-0.25519076 -0.13282233 0.21030131 0.3132789 -0.0060754577 0.41968796 -0.43197444 -0.12489766
0.2595462 -0.27233365 0.36424807 -0.011099458 -0.29765102 -0.037536204 -0.008064359 -0.11571029
-0.41339865 -0.4021335 0.42383912 0.26494193 -0.34929025 -0.17411527 -0.15738705 -0.058476835
0.11849567 -0.15608378 -0.11766583 0.23188594 -0.18934466 0.31771496 -0.17459801 -0.13990346
-0.054886602 0.295994 0.1648961 0.05084325 -0.059676524 0.3700072 0.14580742 0.14158621
-0.118392825 0.36217922 -1.0766338 0.25339946 -0.17738941 0.21744415 -0.9857055 -0.3874901
0.08873709 0.3223172 -0.3266726 0.19446447 0.24270315 -0.3512067 -0.29996622 0.38791087
-0.06257489 -0.69938314 0.3890709 -0.35174808 -0.3263146 -0.30595785 0.20219772 0.34710935
-0.1245531 0.015254587 -0.12741563 0.2613946 -0.23333955 -0.01234287 0.03492695 0.2063035
0.32404026 -0.37106705 -0.06328416 0.3924661 0.14083771 0.15940586 0.15149139 -0.2804926
0.35365605 0.25621697 -0.0008633733 -0.38651663 0.13168328 -0.10153049 0.019827217 -0.18638979
-0.052862734 0.217618 -0.047766868 -0.17793468 -0.6014519 0.42985487 0.78459346 0.10262224
-0.11934623 0.08201143 0.24750188 -0.10151595 0.41486266 -0.0027759671 0.10955772 0.15574452
0.21309379 -0.34867817 0.34414455 -0.03785315 -0.04232645 -0.42736867 -0.07177755 -0.03654015
0.17450139 0.09805563 0.11517057 -0.24664356 0.13552913 -0.18914934 0.3112276 0.42609534
-0.38765547 -0.43232948 0.21801797 0.033244073 -0.21164465 0.057352275 -0.0011257231 -0.105612546
0.021106238 -0.08898416 -0.40389836 -0.2989189 -0.013744972 0.077587694 0.27611336 0.029809743
0.34450164 -0.8654395 0.17771652 -0.37471125 0.35525146 0.07361683 0.6363447 -0.0063528717
-0.2903049 0.27135912 0.27180222 -0.11901317 0.22852314 -0.29986227 0.094457835 -0.4043078
-0.09553009 -0.28489044 0.16902448 -0.3575262 0.29369262 0.20193467 -0.009754688 0.19636485
00000000: 776d 5fbe 1773 d33e 6b4b 8a3e 1864 94bc
00000010: e97d 823d 61e7 ab3e 847e a63d 041c b53d
00000020: 1cca b93d a46d 8abd 1ef5 a43d 20c8 243c
00000030: b3c5 67bf 8586 be3d 4cac 383f 4a60 193e
00000040: 9cf6 053e 70a7 31bd 0440 35be 9631 463e
00000050: 79fa bd3d c436 cbbe 7def ac3e 4c82 bf3d
00000060: 505c 06be fd85 0a3e ed04 92bf f225 50be
00000070: a4b1 49be da0d 4d3e af51 51bf cfc1 6dbe
00000080: be4b 3e3e c9d5 c53e 0e37 073e be2f c8be
00000090: a001 28bd c3ae d7be c86c a7bd 8448 893d
000000a0: 0889 3fbe 1822 1abe 0077 ba3a bcbc a5be
000000b0: 6ee5 7d3e 4d1e ce3e f84a 30bd 53f4 c13e
000000c0: bea5 49be cbf4 d53e d461 a03d b5e6 f43d
000000d0: 00a0 36be 5bdc 8a3e b807 f1bd 435d 973e
000000e0: 94b6 22be cbf2 373e 6aad d2bf 000c c43a
000000f0: 03d4 8b3c aea0 1fbe 47c1 60bf fd16 863e
00000100: 3c7d a4bd d01d a9be e206 483e 587a acbe
00000110: 2251 743e 942e d73d 408c 02bd 441f cebe
00000120: 9603 4c3e 83c7 b3be 5b46 48be 1978 85be
00000130: 10c3 1cbd c474 973d 4a7a 55be ac5b b23d
00000140: 6245 a83e 1d80 ce3e 2f1e 49be 9b67 bcbd
00000150: 91f4 bc3e f046 aa3c e52f 58be b8d8 8dbd
00000160: 927d 443e 8a6c 9e3e 8738 bb3f 78fa c3bd
00000170: 934f e5bd 70bb 9abd ec90 113f 10a8 f13c
00000180: 5da8 82be 9402 08be 3a59 573e 1866 a03e
00000190: a214 c7bb 57e1 d63e c12b ddbe 58ca ffbd
000001a0: 3de3 843e 516f 8bbe b97e ba3e 80da 35bc
000001b0: b765 98be 90bf 19bd 6020 04bc 84f9 ecbd
000001c0: fda8 d3be 71e4 cdbe 7101 d93e 78a6 873e
000001d0: 2cd6 b2be 464b 32be 122a 21be 6885 6fbd
000001e0: dcad f23d 6dd4 1fbe c8fa f0bd 8273 6d3e
000001f0: 91e3 41be 89ab a23e d2c9 32be da42 0fbe
00000200: c6d0 60bd 878c 973e 86da 283e 0341 503d
00000210: 5f6f 74bd 9571 bd3e 8a4e 153e fafb 103e
00000220: f077 f2bd 8e6f b93e 23cf 89bf 93bd 813e
00000230: 92a5 35be aea9 5e3e 3257 7cbf 1a65 c6be
00000240: cbbb b53d c306 a53e a241 a7be b221 473e
00000250: 2d87 783e 5dd1 b3be 2c95 99be 419c c63e
00000260: 4427 80bd c60a 33bf 4d34 c73e 5318 b4be
00000270: b512 a7be 82a6 9cbe eb0c 4f3e 51b8 b13e
00000280: b215 ffbd 60ee 793c 3e79 02be 83d5 853e
00000290: 90f0 6ebe c039 4abc 900f 0f3d 3a41 533e
000002a0: 9be8 a53e 80fc bdbe 209b 81bd 51f1 c83e
000002b0: c337 103e 4a3b 233e 8f20 1b3e ba9c 8fbe
000002c0: 6812 b53e df2e 833e 0054 62ba 82e5 c5be
000002d0: fbd7 063e 38ef cfbd b06c a23c f7dc 3ebe
000002e0: 9886 58bd 41d7 5e3e 31a7 43bd 8234 36be
000002f0: c0f8 19bf f015 dc3e 1edb 483f 9c2b d23d
00000300: cc6b f4bd 9cf5 a73d 2271 7d3e 98e7 cfbd
00000310: e168 d43e 00ed 35bb cc5f e03d 7e7b 1f3e
00000320: 4235 5a3e f285 b2be b733 b03e e80b 1bbd
00000330: 805e 2dbd 11d0 dabe 1c00 93bd 20ab 15bd
00000340: 7eb0 323e 64d1 c83d 8cde eb3d 2190 7cbe
00000350: 26c8 0a3e 5db0 41be 3959 9f3e 2b29 da3e
00000360: c77a c6be 4a5a ddbe 1a40 5f3e f02a 083d
00000370: 60b9 58be 38ea 6a3d 008d 93ba 644b d8bd
00000380: fde6 ac3c 543d b6bd c4cb cebe e60b 99be
00000390: 9732 61bc 4ce6 9e3d bb5e 8d3e 9033 f43c
000003a0: 8562 b03e 718d 5dbf 52fb 353e 27da bfbe
000003b0: 85e3 b53e 6cc4 963d 7ce7 223f c02b d0bb
000003c0: d8a2 94be 95ef 8a3e a929 8b3e 2dbd f3bd
000003d0: f801 6a3e 8c87 99be 1c73 c13d 6f01 cfbe
000003e0: 48a5 c3bd 29dd 91be c114 2d3e ad0d b7be
000003f0: e15e 963e f6c7 4e3e 20d2 1fbc de13 493e

sequential_5/dense_19/MatMul f4 [1, 16]
0.3441148 -0.31021726 -0.3940754 -0.46140915 -0.3643244 0.5118053 -0.021430306 -0.56214625
-0.5336961 -0.98813176 0.4555304 0.8162792 0.22994733 -0.028584003 -0.9402584 0.34098122
00000000: d12f b03e ccd4 9ebe 40c4 c9be d23d ecbe
00000010: ba88 babe ac05 033f 9c8e afbc d1e8 0fbf
00000020: 4fa0 08bf 34f6 7cbf 483b e93e acf7 503f
00000030: 5077 6b3e 0029 eabc c6b4 70bf 1795 ae3e
