TensorflowLite/sinewave_model.tflite (tflite, 4728 bytes, 7 tensors)

sequential_4/dense_10/BiasAdd/ReadVariableOp f4 [16]
0	0x3e8850b8	0.26624084
1	0xbdf4bd38	-0.11950153
2	0xbb91b2e7	-0.0044463756
3	0x00000000	0.0
4	0xbeca19df	-0.39472863
5	0xbbe0f7bf	-0.006865471
6	0xbe50e686	-0.20400438
7	0xbc95adb0	-0.018271297
8	0x3ea68af2	0.32527882
9	0x3ebcf780	0.36907578
10	0x3ee04806	0.4380495
11	0x00000000	0.0
12	0x00000000	0.0
13	0x3eae7bd7	0.34078857
14	0xbdc405d7	-0.09571426
15	0x3eeee96c	0.46662462

sequential_4/dense_11/BiasAdd/ReadVariableOp f4 [16]
0	0xbeb4b326	-0.3529293
1	0xbbc4c94b	-0.0060054413
2	0x00000000	0.0
3	0x3e556c91	0.20842196
4	0xbe374195	-0.17896111
5	0xbd85cb2c	-0.065328926
6	0x3e836bbf	0.2566814
7	0x3d812e4a	0.06307657
8	0x3e5c6b4b	0.21525304
9	0xbba9cb6d	-0.005181721
10	0xbc8a84ec	-0.016909085
11	0x3e8c2791	0.27373937
12	0x3e846197	0.25855705
13	0xbeda6304	-0.42653668
14	0x3e5def3f	0.21673296
15	0xbe572ee8	-0.21013987

sequential_4/dense_9/BiasAdd/ReadVariableOp f4 [16]
0	0x00000000	0.0
1	0x3e5c5814	0.21517974
2	0x3bfdf1bb	0.007749764
3	0x00000000	0.0
4	0x00000000	0.0
5	0xbc002d2e	-0.007823272
6	0xbaec22c6	-0.0018015734
7	0xbee7bc36	-0.4526078
8	0x00000000	0.0
9	0x3ea419b5	0.32050863
10	0x3f2ec055	0.68262225
11	0xbd2a1f1b	-0.04153357
12	0xbb2f38bd	-0.00267367
13	0x00000000	0.0
14	0x00000000	0.0
15	0x3f2e526f	0.68094534

sequential_4/dense_9/MatMul f4 [16, 1]
0	0xbdf46ec0	-0.119351864
1	0x3e0a448a	0.13502708
2	0x3e808d98	0.25108027
3	0xbea14ca5	-0.31503788
4	0xbeb8c70e	-0.36089367
5	0x3e85226d	0.26002827
6	0x3eae4f29	0.3404477
7	0x3ee06b15	0.43831697
8	0xbf08dea3	-0.53464717
9	0x3d922ff2	0.07138051
10	0xbaed891d	-0.0018122528
11	0x3f187357	0.59550995
12	0x3ee32b44	0.44368947
13	0xbeb15618	-0.34635997
14	0xbe4efdfe	-0.20214078
15	0x3d89fcaf	0.06737649

sequential_4/dense_10/MatMul f4 [16, 16]
0	0xbec5e56a	-0.38651592
1	0xbeb1857c	-0.34672153
2	0xbed8bcf8	-0.42331672
3	0xbeceb88d	-0.40375176
4	0x3e16a1de	0.14710185
5	0xbe00512b	-0.12530963
6	0xbee8c8d3	-0.45465717
7	0x3e8a9b0e	0.27071422
8	0x3d35e518	0.044407934
9	0x3ef87389	0.48525646
10	0x3f0aabc7	0.5416836
11	0xbea5a0db	-0.32349285
12	0xbe5a5c98	-0.21324384
13	0xbcb70470	-0.022340983
14	0xbdc01810	-0.093795896
15	0x3ed72f68	0.42028356
16	0x3e60f966	0.21970138
17	0xbec3688c	-0.381657
18	0x3e38bff6	0.18041977
19	0xbe0b3cb6	-0.13597378
20	0xbcad1630	-0.021128744
21	0x3dab8d3d	0.083765484
22	0x3eb1d614	0.3473364
23	0xbe96595d	-0.29365054
24	0x3e84b87d	0.25922003
25	0x3da21bc0	0.07915449
26	0xbcb08d67	-0.0215518
27	0x3e44fbe5	0.19236715
28	0x3dad95c8	0.08475834
29	0xbed99f90	-0.4250455
30	0x3ddc0124	0.10742405
31	0x3e8bf343	0.2733403
32	0xbd8680cc	-0.06567535
33	0xbe607bc0	-0.21922207
34	0xbed5305b	-0.41638455
35	0x3ea1fb73	0.31637153
36	0x3eb461c5	0.35230842
37	0xbe723bd0	-0.23655629
38	0x3e3eeeff	0.18645857
39	0x3c2214ce	0.009892656
40	0xbeca9d71	-0.39573243
41	0x3ebae23a	0.36500722
42	0xbe240ee8	-0.16021311
43	0x3d460238	0.04834196
44	0x3e5a120a	0.21295944
45	0x3ed83683	0.4222909
46	0xbe8ef0f8	-0.2791822
47	0xbe709e4c	-0.23497885
48	0x3d8b386c	0.06797871
49	0x3e1080a2	0.1411157
50	0xbedc0ea0	-0.42979908
51	0x3e05eb46	0.13078031
52	0xbd749798	-0.059714884
53	0xbde02910	-0.10945332
54	0x3e646802	0.22305301
55	0xbd65e218	-0.056123823
56	0xbed0153c	-0.406412
57	0xbedb1463	-0.4278899
58	0xbcb2deb0	-0.021834701
59	0x3e2d7b1a	0.16941491
60	0xbdc4656c	-0.09589657
61	0x3c8b0860	0.016971767
62	0xbe65e58b	-0.22450845
63	0x3d8d163c	0.068890065
64	0xbe63031f	-0.2216916
65	0xbe4d978a	-0.20077339
66	0x3e1b8481	0.15187265
67	0xbe7f7d9f	-0.24950264
68	0x3e617e0a	0.22020736
69	0x3ef77e70	0.48338652
70	0xbd91185a	-0.07084723
71	0x3e0fbd3f	0.14037035
72	0x3ce93a60	0.028470218
73	0xbe00eeb0	-0.12591052
74	0xbedbddde	-0.4294271
75	0x3f037252	0.51346314
76	0x3ecd7f26	0.4013607
77	0x3e303dba	0.17211047
78	0xbe8a5b43	-0.27022752
79	0xbdf83f7e	-0.12121485
80	0x3e30534e	0.17219278
81	0xbe8c1620	-0.2736063
82	0x3e2b1b06	0.16709527
83	0xbb11f900	-0.002227366
84	0xbeb1a68d	-0.3469738
85	0xbecf1ccb	-0.40451655
86	0x3ec91d6d	0.39280263
87	0x3e8f7c37	0.28024456
88	0x3e1fdd6a	0.15611807
89	0xbdcc2054	-0.099671036
90	0xbecb4af2	-0.39705616
91	0xbe8a6d8a	-0.27036697
92	0xbe0fbb0d	-0.14036198
93	0xbe75c141	-0.23999502
94	0xbe6f68e3	-0.23379855
95	0xbdceed7e	-0.10103892
96	0x3eb1a4e3	0.3469611
97	0x3eaebd60	0.34128857
98	0xbeb45eca	-0.35228568
99	0x3e9d4617	0.30717537
100	0x3e4c57aa	0.19955316
101	0x3e650f4e	0.2236912
102	0x3e4b27de	0.19839427
103	0xbd68b9dc	-0.056817874
104	0x3e96504b	0.29358134
105	0xbdc22c5e	-0.094811186
106	0x3e48d3d3	0.19612055
107	0xbe1248d2	-0.14285591
108	0x3e6b5fef	0.22985815
109	0x3e6f07ca	0.23342815
110	0x3ecd0127	0.40039942
111	0xbed6d8e5	-0.41962352
112	0x3e2937fe	0.16525266
113	0xbeee5ec2	-0.4655667
114	0xbeb66183	-0.3562127
115	0xbe88b0e8	-0.2669747
116	0x3eca0767	0.39458773
117	0x3e2ee782	0.170805
118	0x3ea31c98	0.31857753
119	0xbef02cd3	-0.46909198
120	0xbe9aef62	-0.3026076
121	0xbee518b0	-0.44745398
122	0xbb8e9b38	-0.0043519996
123	0x3e560445	0.20900066
124	0x3d98fd46	0.07470183
125	0xbe2e1f0e	-0.17004034
126	0xbced8600	-0.02899456
127	0x3e1ee7ad	0.15518065
128	0x3e6a82aa	0.22901407
129	0x3d308d81	0.0431037
130	0xbebd327f	-0.36952588
131	0x3e74442e	0.23854133
132	0x3ea78e2b	0.32725653
133	0x3e947a4a	0.2899955
134	0x3ecba4c4	0.39774144
135	0xbe86c49a	-0.2632187
136	0x3ed981f1	0.4248195
137	0xba846c0d	-0.0010103002
138	0xbca6a95c	-0.020344429
139	0xbd1d0b1a	-0.038340665
140	0xbeaa71e6	-0.33290023
141	0x3e3addae	0.18248627
142	0xbe8489dc	-0.25886428
143	0x3ec42d29	0.38315704
144	0x3e8916d3	0.26775226
145	0xbe243dc7	-0.16039191
146	0x3e6a824e	0.2290127
147	0x3ec32791	0.38116124
148	0xbe5f7c51	-0.21824767
149	0x3c7d354b	0.015454601
150	0x3e534354	0.20631152
151	0xbe86c607	-0.26322958
152	0xbd6bf928	-0.05761066
153	0x3f0255cd	0.5091217
154	0x3e6e1e21	0.23253681
155	0xbece3f4a	-0.4028266
156	0xbeff5184	-0.4986688
157	0xbec6824d	-0.38771287
158	0x3e7b0656	0.24514136
159	0x3ee10a40	0.43953133
160	0x3ec57b99	0.3857086
161	0x3e5fc6a7	0.21853124
162	0x3eb33af8	0.35005927
163	0x3e8c2f93	0.27380046
164	0xbe59f642	-0.21285346
165	0x3cd6b5be	0.026209708
166	0xbe73846c	-0.23780984
167	0xbe406994	-0.18790275
168	0xbdb15f80	-0.08660793
169	0x3c8960bb	0.016769757
170	0x3e82d174	0.25550425
171	0xbe84fc63	-0.25973806
172	0x3d5bb3bc	0.053638205
173	0xbe5b65c7	-0.21425544
174	0x3e8613b7	0.26186916
175	0x3ebd6613	0.3699194
176	0x3ec91a01	0.39277652
177	0xbb613380	-0.0034362972
178	0xbeb5d8c0	-0.3551693
179	0x3e41015a	0.18848172
180	0x3e9c5b01	0.3053818
181	0x3e7ccf3e	0.24688432
182	0x3ec43dc1	0.38328364
183	0x3e191c96	0.14952311
184	0xbea57fb2	-0.32323986
185	0xbe9ad46a	-0.30240184
186	0x38e58000	0.00010943413
187	0x3d903804	0.07041934
188	0xbec952e0	-0.3932104
189	0x3b7edb00	0.0038887858
190	0xbd3cac80	-0.046062946
191	0xbdbd4384	-0.09241393
192	0x3de353ac	0.110999435
193	0xbeba2883	-0.36359033
194	0xbe909011	-0.28234914
195	0x3e3f9fde	0.18713328
196	0xbd9b20d8	-0.07574624
197	0xbe994ae6	-0.29939955
198	0xbeda0fcf	-0.42590186
199	0x3e3e727e	0.18598363
200	0xbeb74edf	-0.3580236
201	0xbcf6fa60	-0.030148685
202	0xbecdb2ba	-0.4017542
203	0xbea6efda	-0.32604867
204	0xbbd49a40	-0.0064881146
205	0x3ed5aae5	0.41731945
206	0x3e0abfde	0.13549754
207	0xbe897c2e	-0.26852554
208	0x3ed9c203	0.42530832
209	0xbdc49cf0	-0.09600246
210	0xbed68d11	-0.419045
211	0xbedd4280	-0.43214798
212	0x3de1d534	0.110269934
213	0x3e35192a	0.1768538
214	0x3e7485c2	0.2387915
215	0xbed30e78	-0.41221976
216	0xbe8207fc	-0.25396717
217	0x3eeac562	0.45853716
218	0x3efaa1ca	0.4895156
219	0xbeac087d	-0.33600226
220	0x3e14954b	0.14510076
221	0xbe64fa4f	-0.2236111
222	0xbe853a6c	-0.26021135
223	0x3eb4c742	0.35308272
224	0x3e96a241	0.29420665
225	0x3e6a442d	0.2287757
226	0x3cfaf90b	0.030636331
227	0x3e48384e	0.19552729
228	0x3e8f2e63	0.27965078
229	0xbe64c034	-0.22338945
230	0x3df30148	0.11865479
231	0x3ea8bbcc	0.32955778
232	0xbdd957cc	-0.10612449
233	0xbe2c0912	-0.16800335
234	0x3ea738c2	0.3266049
235	0xbdc0bc1b	-0.09410878
236	0x3e8c7eb4	0.27440417
237	0xbd2fd018	-0.042923063
238	0xbcd207a0	-0.025638402
239	0xbe728cd4	-0.23686534
240	0x3dcc0974	0.099627405
241	0x3e0f05b6	0.13967022
242	0x3eb64bc2	0.35604674
243	0xbe9ab582	-0.30216604
244	0xbd3a6958	-0.04551062
245	0xbece47b9	-0.40289095
246	0xbe5a45f4	-0.21315747
247	0xbed170bb	-0.4090632
248	0xbbc64d80	-0.006051719
249	0x3ddf6d6f	0.10909545
250	0x3f2bab26	0.67058027
251	0xbb35f88e	-0.0027766558
252	0x3e315203	0.17316441
253	0xbe3da04c	-0.1851818
254	0x3e79701e	0.24359176
255	0x3f127467	0.57208866

sequential_4/dense_11/MatMul f4 [16, 16]
0	0xbe85eec8	-0.26158738
1	0x3ddca8ea	0.10774405
2	0xbeca9ece	-0.39574283
3	0x3e88af57	0.26696274
4	0x3eec1198	0.46107173
5	0xbebfc2ad	-0.37453213
6	0xbdc95df8	-0.09832376
7	0x3e8bf63c	0.273363
8	0xbeb53e6c	-0.35399187
9	0xbdfd9998	-0.12382811
10	0xbf2ea081	-0.6821366
11	0x3eb265e3	0.34843358
12	0x3eaa9101	0.33313754
13	0x3da99fbb	0.08282419
14	0x3e8fb1e1	0.28065398
15	0xbf35cf1c	-0.7101915
16	0xbed62226	-0.41822928
17	0x3dd614fb	0.104532205
18	0x3b358d56	0.002770265
19	0xbddf5534	-0.10904923
20	0x3d9b8b3a	0.07594915
21	0x3da2831c	0.079351634
22	0x3ec3fbdd	0.38278094
23	0xbc75fc9c	-0.01501384
24	0xbe2fc8ec	-0.1716649
25	0x3e8bc9d9	0.27302435
26	0x3c4edc28	0.0126257315
27	0x3ebe8a31	0.37214807
28	0x3d3b0170	0.045655668
29	0xbec109d1	-0.37702802
30	0xbec79016	-0.38977116
31	0xbe50b3de	-0.20381114
32	0x3e592192	0.21204212
33	0x3d2bce68	0.04194489
34	0xbe08baf6	-0.1335257
35	0xbea116dc	-0.31462753
36	0xbe368efa	-0.17827979
37	0xbe9a3db2	-0.30125195
38	0x3e6ca4c6	0.23109731
39	0x3e4aab6a	0.19791952
40	0xbed8f6e4	-0.42375863
41	0xbecc0e6c	-0.39854753
42	0xbd9de0ec	-0.07708916
43	0xbed07472	-0.4071384
44	0xbdffd5fc	-0.12491986
45	0xbe01a0fc	-0.12659067
46	0xbeaee236	-0.3415696
47	0xbeb85c84	-0.36008084
48	0xbec673ff	-0.38760373
49	0x3e9a5a3c	0.30146968
50	0xbe413c9e	-0.1887078
51	0xbdd708e8	-0.104997456
52	0x3ea152d2	0.315085
53	0xbea16472	-0.31521946
54	0xbe8773b4	-0.26455462
55	0x3cb7ca77	0.02243541
56	0xbf2f5f04	-0.6850436
57	0xbe3c16aa	-0.1836802
58	0x3efc786c	0.49310625
59	0x3ca4f590	0.020136625
60	0x3ea41281	0.32045367
61	0xbf1bcb9c	-0.6085756
62	0x3e3b3de8	0.18285334
63	0x3f011a2d	0.50430566
64	0xbe892484	-0.26785672
65	0x3e433921	0.19064762
66	0x3eb88030	0.360353
67	0xbea48bda	-0.32137948
68	0xbd6d3537	-0.057912078
69	0xbe6a66a8	-0.22890723
70	0x3c03b87e	0.008039592
71	0x3e402f27	0.18767987
72	0xbd52b5c8	-0.05144289
73	0xbe096bb8	-0.13419998
74	0x3e074265	0.13208921
75	0xbbafa5c0	-0.005360335
76	0xbe948e19	-0.29014662
77	0x3f35cddd	0.7101725
78	0xbc90c9c0	-0.017674327
79	0xbe35e48a	-0.17762962
80	0xbd114af9	-0.03547189
81	0xbef771fd	-0.48329154
82	0xbbd03ef6	-0.006355162
83	0xbd40fef8	-0.047118157
84	0x3dc00fb5	0.09377996
85	0x3d88a335	0.06671754
86	0xbe49cdf7	-0.19707476
87	0x3d8d42e4	0.06897524
88	0x3d615b2c	0.05501859
89	0xbd9ec81b	-0.07753011
90	0x3e947a31	0.28999475
91	0x3ec2e62b	0.3806623
92	0x3ea592d1	0.32338575
93	0xbedfd4a2	-0.43716913
94	0xbe404dfd	-0.1877975
95	0x3e637182	0.22211269
96	0x3eabd5b8	0.33561492
97	0x3d6d7620	0.05797398
98	0xbe919ec0	-0.2844143
99	0x3e8ba611	0.27275136
100	0x3e5a12f5	0.21296294
101	0x3e8d95a5	0.27653232
102	0x3e888d6b	0.26670393
103	0xbe384be8	-0.17997706
104	0xbf1612ca	-0.5862242
105	0xbf3956c5	-0.72398025
106	0x3df41ac6	0.11919169
107	0xbe8f5918	-0.2799766
108	0x3e29ee62	0.16594842
109	0xbf2744b4	-0.6533921
110	0xbeb452b2	-0.35219342
111	0x3e6280f7	0.22119509
112	0xbe31f9dc	-0.1738047
113	0x3ddbc6ee	0.10731302
114	0xbe6701d7	-0.22559296
115	0xbe52f9dd	-0.20603128
116	0xbf0127bd	-0.5045126
117	0x3ebfdb71	0.37472108
118	0x3e109206	0.14118204
119	0xbe6ceee7	-0.23138009
120	0xbe0e2578	-0.1388148
121	0x3dfc5257	0.123203926
122	0x3e5365a4	0.20644242
123	0x3daff024	0.08590725
124	0xbdb8d098	-0.09024161
125	0x3eee3f54	0.4653269
126	0x3ec86a17	0.3914344
127	0x3d4d40cb	0.05011062
128	0x3f19b9f0	0.60049343
129	0xbdcf6fe4	-0.10128763
130	0x3c8a0723	0.016849106
131	0x3e8b34c1	0.27188686
132	0x3c91502a	0.01773842
133	0xbdd1e370	-0.102484584
134	0xbdfb47eb	-0.12269577
135	0x3e8af1d5	0.27137628
136	0xbec2baee	-0.3803324
137	0x3ee9e19b	0.45679936
138	0x3e9e4dc5	0.30918708
139	0xbeb7d672	-0.35905796
140	0x3d9712cc	0.07376632
141	0x3d7c187a	0.06154678
142	0x3ee0220e	0.43775982
143	0x3e913e0a	0.28367645
144	0x3d31f0d0	0.043442547
145	0xbea94010	-0.33056688
146	0x3eb81518	0.35953593
147	0x3e808065	0.25097957
148	0x3c8e6a60	0.017384708
149	0xbe232b70	-0.15934539
150	0xbea550f1	-0.32288316
151	0xbed4e377	-0.41579792
152	0x3dffaeac	0.12484488
153	0x3c9761dd	0.018479282
154	0xbe04ed50	-0.12981153
155	0x3e89e309	0.26931027
156	0x3ed1d001	0.40979007
157	0xbe9ed27c	-0.31019962
158	0xbeaa6d6a	-0.332866
159	0x3cf9f869	0.030513959
160	0xbebdaa78	-0.3704412
161	0x3e9b5d20	0.30344486
162	0xbe978b82	-0.29598624
163	0xbe9bdbd8	-0.30441165
164	0xbe865a3c	-0.26240718
165	0x3e4ad162	0.19806436
166	0x3e9b5b1a	0.30342942
167	0xbeb7f22d	-0.35926953
168	0x3e9a68fd	0.30158225
169	0x3edbec53	0.4295374
170	0xbe84d71f	-0.25945374
171	0x3e5b971e	0.21444365
172	0xbdd4bcb4	-0.10387555
173	0xbe9eec13	-0.31039485
174	0xbdb84ad8	-0.0899865
175	0xbe365a17	-0.17807804
176	0xbf29cbf1	-0.66326815
177	0x3ec3e6bf	0.38261983
178	0x3e568a92	0.20951298
179	0xbeda2f0a	-0.42614013
180	0xbeef4ae8	-0.46736836
181	0x3eb52277	0.35377857
182	0x3db49c01	0.08818818
183	0x3da5a705	0.08088497
184	0x3ea2f070	0.31824064
185	0xbee97ceb	-0.45603117
186	0x3dcb2faa	0.099212006
187	0x3e08851a	0.13332024
188	0x3d1dc6a8	0.03851953
189	0x3f1fcfb0	0.6242628
190	0xbd8b5799	-0.06803817
191	0x3d202bcf	0.03910428
192	0xbf019b06	-0.5062717
193	0xbd1a6a14	-0.03769882
194	0xbe2d2d18	-0.16911733
195	0x3eba2b15	0.36360994
196	0xbedb21ed	-0.4279932
197	0x3e088b59	0.13334407
198	0xbd155c03	-0.036464702
199	0xbeed58ca	-0.46356803
200	0x3e41b21a	0.18915597
201	0xbe79c362	-0.24390939
202	0xbe25fa67	-0.16208802
203	0x3ec55e65	0.3854858
204	0xbe6d8f6a	-0.2319924
205	0x3dc932af	0.0982412
206	0xbda847a1	-0.08216787
207	0x3eee20e1	0.4650946
208	0x3e137d22	0.14403203
209	0x3ea1227d	0.31471625
210	0xbee8d7dc	-0.45477188
211	0xbea81af0	-0.32833052
212	0x3ee622f6	0.44948548
213	0x3e31ef26	0.17376384
214	0x3e865a34	0.26240695
215	0x3e1e7d23	0.15477423
216	0xbeca7ca2	-0.39548212
217	0x3e9b7335	0.30361333
218	0xbee3f0c0	-0.44519615
219	0x3dad6c84	0.08467963
220	0xbeaebc45	-0.34128013
221	0xbddb95dc	-0.10721943
222	0xbe9f3fd3	-0.31103382
223	0xbf4aad95	-0.79171115
224	0xbf2060f0	-0.62647915
225	0xbe88d253	-0.26722965
226	0x3eb99813	0.36248836
227	0x3d9243b4	0.071418196
228	0xbd21ed05	-0.03953268
229	0xbe74477a	-0.23855391
230	0xbe30957b	-0.17244522
231	0xbd0ec91a	-0.034859754
232	0x3f1808fb	0.59388703
233	0xbf1176be	-0.5682181
234	0xbe1a7c6a	-0.15086523
235	0x3cfd6760	0.030933082
236	0x3e9ed11b	0.3101891
237	0x3f3d2857	0.7388968
238	0xbe2d731f	-0.16938446
239	0x3e077913	0.1322978
240	0x3d0a79dd	0.033807624
241	0x3e2bd8eb	0.16781966
242	0x3d93549d	0.07193873
243	0xbe56646a	-0.20936742
244	0x3ee4f13b	0.44715294
245	0x3e5a666e	0.21328136
246	0xbcfe8ae0	-0.03107208
247	0x3ecd97fc	0.40155017
248	0x3e43b811	0.19113185
249	0xbf0186c2	-0.5059625
250	0xbe2e5ce6	-0.17027625
251	0x3eb7c419	0.35891798
252	0xbe127932	-0.14304045
253	0x3f11e9df	0.56997484
254	0x3eae5027	0.34045526
255	0xbf01f3ec	-0.5076282

sequential_4/dense_12/MatMul f4 [1, 16]
0	0x3f1f65cb	0.622647
1	0x3edc9950	0.43085718
2	0xbe8696b9	-0.26286867
3	0xbeb0651f	-0.3445215
4	0x3ed3ec94	0.41391432
5	0xbe850d2d	-0.25986615
6	0xbf0212d1	-0.5080996
7	0x3e582b00	0.21110153
8	0xbe0bcc10	-0.13652062
9	0xbf171232	-0.5901214
10	0x3edebd95	0.43504015
11	0x3f0942a5	0.53617316
12	0x3ef377e8	0.4755242
13	0x3f66f5c6	0.9021877
14	0x3f3585c9	0.70907265
15	0x3ed84663	0.422412
