TensorflowLite/sine_model_quantized.tflite (tflite, 3936 bytes, 4 tensors)

sequential_5/dense_19/MatMul i1 [1, 16] scale=0.007780565 zero_point=0
000000 2c d8 cd c5 d1 42 fd b8 bb 81 3b 69 1e fc 87 2c
       0.34234485 -0.3112226 -0.3968088 -0.45905334 -0.36568657 0.51351726 -0.023341695 -0.5602007 -0.536859 -0.98813176 0.45905334 0.8169593 0.23341694 -0.03112226 -0.94144833 0.34234485

sequential_5/dense_18/MatMul i1 [16, 16] scale=0.012959978 zero_point=0
000000 ef 20 15 ff 05 1a 06 07 07 fb 06 01 ba 07 38 0c
       -0.22031961 0.41471928 0.27215952 -0.012959978 0.06479989 0.33695942 0.07775986 0.09071984 0.09071984 -0.06479989 0.07775986 0.012959978 -0.9071984 0.09071984 0.72575873 0.15551972
000010 0a fd f2 0f 07 e1 1a 07 f6 0a a8 f0 f1 0f c1 ee
       0.12959978 -0.03887993 -0.18143968 0.19439967 0.09071984 -0.4017593 0.33695942 0.09071984 -0.12959978 0.12959978 -1.140478 -0.20735964 -0.19439967 0.19439967 -0.8164786 -0.2332796
000020 0e 1e 0a e2 fd df fa 05 f2 f4 00 e7 13 1f fd 1d
       0.18143968 0.38879934 0.12959978 -0.38879934 -0.03887993 -0.42767927 -0.07775986 0.06479989 -0.18143968 -0.15551972 0.0 -0.32399943 0.24623957 0.4017593 -0.03887993 0.37583935
000030 f1 20 06 09 f2 15 f7 17 f4 0e 81 00 01 f4 bc 14
       -0.19439967 0.41471928 0.07775986 0.1166398 -0.18143968 0.27215952 -0.1166398 0.2980795 -0.15551972 0.18143968 -1.6459172 0.0 0.012959978 -0.15551972 -0.88127846 0.25919956
000040 fa e7 0f e6 12 08 fe e1 0f e5 f1 ec fd 06 f0 07
       -0.07775986 -0.32399943 0.19439967 -0.33695942 0.2332796 0.10367982 -0.025919955 -0.4017593 0.19439967 -0.3499194 -0.19439967 -0.25919956 -0.03887993 0.07775986 -0.20735964 0.09071984
000050 19 1f f1 f9 1c 02 f0 fb 0f 18 71 f9 f7 fa 2c 02
       0.32399943 0.4017593 -0.19439967 -0.09071984 0.36287937 0.025919955 -0.20735964 -0.06479989 0.19439967 0.31103945 1.4644774 -0.09071984 -0.1166398 -0.07775986 0.570239 0.025919955
000060 ec f6 10 18 00 20 df f6 14 eb 1c ff e9 fd ff f7
       -0.25919956 -0.12959978 0.20735964 0.31103945 0.0 0.41471928 -0.42767927 -0.12959978 0.25919956 -0.27215952 0.36287937 -0.012959978 -0.2980795 -0.03887993 -0.012959978 -0.1166398
000070 e0 e1 21 14 e5 f3 f4 fb 09 f4 f7 12 f1 19 f3 f5
       -0.41471928 -0.4017593 0.42767927 0.25919956 -0.3499194 -0.16847971 -0.15551972 -0.06479989 0.1166398 -0.15551972 -0.1166398 0.2332796 -0.19439967 0.32399943 -0.16847971 -0.14255975
000080 fc 17 0d 04 fb 1d 0b 0b f7 1c ad 14 f2 11 b4 e2
       -0.05183991 0.2980795 0.16847971 0.05183991 -0.06479989 0.37583935 0.14255975 0.14255975 -0.1166398 0.36287937 -1.0756781 0.25919956 -0.18143968 0.22031961 -0.9849583 -0.38879934
000090 07 19 e7 0f 13 e5 e9 1e fb ca 1e e5 e7 e8 10 1b
       0.09071984 0.32399943 -0.32399943 0.19439967 0.24623957 -0.3499194 -0.2980795 0.38879934 -0.06479989 -0.6998388 0.38879934 -0.3499194 -0.32399943 -0.31103945 0.20735964 0.3499194
0000a0 f6 01 f6 14 ee ff 03 10 19 e3 fb 1e 0b 0c 0c ea
       -0.12959978 0.012959978 -0.12959978 0.25919956 -0.2332796 -0.012959978 0.03887993 0.20735964 0.32399943 -0.37583935 -0.06479989 0.38879934 0.14255975 0.15551972 0.15551972 -0.2851195
0000b0 1b 14 00 e2 0a f8 02 f2 fc 11 fc f2 d2 21 3d 08
       0.3499194 0.25919956 0.0 -0.38879934 0.12959978 -0.10367982 0.025919955 -0.18143968 -0.05183991 0.22031961 -0.05183991 -0.18143968 -0.596159 0.42767927 0.79055864 0.10367982
0000c0 f7 06 13 f8 20 00 08 0c 10 e5 1b fd fd df fa fd
       -0.1166398 0.07775986 0.24623957 -0.10367982 0.41471928 0.0 0.10367982 0.15551972 0.20735964 -0.3499194 0.3499194 -0.03887993 -0.03887993 -0.42767927 -0.07775986 -0.03887993
0000d0 0d 08 09 ed 0a f1 18 21 e2 df 11 03 f0 04 00 f8
       0.16847971 0.10367982 0.1166398 -0.24623957 0.12959978 -0.19439967 0.31103945 0.42767927 -0.38879934 -0.42767927 0.22031961 0.03887993 -0.20735964 0.05183991 0.0 -0.10367982
0000e0 02 f9 e1 e9 ff 06 15 02 1b bd 0e e3 1b 06 31 00
       0.025919955 -0.09071984 -0.4017593 -0.2980795 -0.012959978 0.07775986 0.27215952 0.025919955 0.3499194 -0.8683185 0.18143968 -0.37583935 0.3499194 0.07775986 0.6350389 0.0
0000f0 ea 15 15 f7 12 e9 07 e1 f9 ea 0d e4 17 10 ff 0f
       -0.2851195 0.27215952 0.27215952 -0.1166398 0.2332796 -0.2980795 0.09071984 -0.4017593 -0.09071984 -0.2851195 0.16847971 -0.36287937 0.2980795 0.20735964 -0.012959978 0.19439967

sequential_5/dense_17/MatMul i1 [16, 16] scale=0.007993846 zero_point=0
000000 2a cc 14 17 2a da 36 d8 27 cb ff e0 dc d0 12 36
       0.33574155 -0.41568 0.15987693 0.18385847 0.33574155 -0.30376616 0.4316677 -0.31975386 0.31176 -0.42367384 -0.007993846 -0.25580308 -0.28777847 -0.3837046 0.14388923 0.4316677
000010 22 fd 03 ec df e7 e9 2d 0d e4 ee db 18 ef fe 02
       0.27179077 -0.023981538 0.023981538 -0.15987693 -0.26379693 -0.19984615 -0.18385847 0.3597231 0.10392 -0.22382769 -0.14388923 -0.2957723 0.1918523 -0.13589539 -0.015987692 0.015987692
000020 02 1f 06 33 f4 35 da e3 d5 0e d9 ce db 24 d2 20
       0.015987692 0.24780923 0.047963075 0.40768614 -0.09592615 0.42367384 -0.30376616 -0.23182154 -0.3437354 0.111913845 -0.31176 -0.3996923 -0.2957723 0.28777847 -0.36771694 0.25580308
000030 16 ea e3 da 36 10 2a fa 19 f3 0d 31 24 df f0 d1
       0.17586462 -0.17586462 -0.23182154 -0.30376616 0.4316677 0.12790154 0.33574155 -0.047963075 0.19984615 -0.10392 0.10392 0.39169845 0.28777847 -0.26379693 -0.12790154 -0.3757108
000040 4d 0a 24 2a dc f5 32 2f d2 29 1d f7 e7 e7 f1 31
       0.61552614 0.079938464 0.28777847 0.33574155 -0.28777847 -0.08793231 0.3996923 0.3757108 -0.36771694 0.3277477 0.23182154 -0.07194462 -0.19984615 -0.19984615 -0.11990769 0.39169845
000050 f8 15 d9 e2 cc 27 ec d5 d5 1b 31 e1 ed f5 e6 02
       -0.06395077 0.16787077 -0.31176 -0.23981538 -0.41568 0.31176 -0.15987693 -0.3437354 -0.3437354 0.21583384 0.39169845 -0.24780923 -0.15188308 -0.08793231 -0.20784 0.015987692
000060 e0 f1 22 2b ff f6 ce f4 d7 dc cf f9 d2 d3 d4 d0
       -0.25580308 -0.11990769 0.27179077 0.3437354 -0.007993846 -0.079938464 -0.3996923 -0.09592615 -0.3277477 -0.28777847 -0.39169845 -0.055956922 -0.36771694 -0.3597231 -0.35172924 -0.3837046
000070 16 34 fd e1 f7 16 e7 cb 12 f1 1b 24 d9 0f d7 02
       0.17586462 0.41568 -0.023981538 -0.24780923 -0.07194462 0.17586462 -0.19984615 -0.42367384 0.14388923 -0.11990769 0.21583384 0.28777847 -0.31176 0.11990769 -0.3277477 0.015987692
000080 17 d8 2a 02 f0 f4 06 16 1b d9 e9 d0 ce df fb 00
       0.18385847 -0.31975386 0.33574155 0.015987692 -0.12790154 -0.09592615 0.047963075 0.17586462 0.21583384 -0.31176 -0.18385847 -0.3837046 -0.3996923 -0.26379693 -0.039969232 0.0
000090 81 00 2c f7 ff 32 2e 30 22 14 23 eb 8e 34 2a 0a
       -1.0152185 0.0 0.35172924 -0.07194462 -0.007993846 0.3996923 0.36771694 0.3837046 0.27179077 0.15987693 0.27978462 -0.16787077 -0.91129845 0.41568 0.33574155 0.079938464
0000a0 62 ed 05 d0 d1 e3 1b f2 0b 22 d8 cb 46 07 cb 02
       0.7833969 -0.15188308 0.039969232 -0.3837046 -0.3757108 -0.23182154 0.21583384 -0.111913845 0.08793231 0.27179077 -0.31975386 -0.42367384 0.55956924 0.055956922 -0.42367384 0.015987692
0000b0 de 0b f8 24 f7 f6 33 e5 26 26 34 35 13 da d9 fb
       -0.27179077 0.08793231 -0.06395077 0.28777847 -0.07194462 -0.079938464 0.40768614 -0.21583384 0.30376616 0.30376616 0.41568 0.42367384 0.15188308 -0.30376616 -0.31176 -0.039969232
0000c0 1b cc f6 02 f7 21 0d 2b 02 25 f7 0f fc 33 e7 0a
       0.21583384 -0.41568 -0.079938464 0.015987692 -0.07194462 0.26379693 0.10392 0.3437354 0.015987692 0.2957723 -0.07194462 0.11990769 -0.031975385 0.40768614 -0.19984615 0.079938464
0000d0 09 e7 28 d0 1f d5 d4 dd d1 fd fb 05 24 04 03 e6
       0.07194462 -0.19984615 0.31975386 -0.3837046 0.24780923 -0.3437354 -0.35172924 -0.27978462 -0.3757108 -0.023981538 -0.039969232 0.039969232 0.28777847 0.031975385 0.023981538 -0.20784
0000e0 b0 e3 d4 2e 34 ec 12 e0 35 de 10 f2 d3 19 06 1b
       -0.6395077 -0.23182154 -0.35172924 0.36771694 0.41568 -0.15987693 0.14388923 -0.25580308 0.42367384 -0.27179077 0.12790154 -0.111913845 -0.3597231 0.19984615 0.047963075 0.21583384
0000f0 cb 21 06 1b 01 dc f5 e7 ca de 11 ff ce d0 dc 31
       -0.42367384 0.26379693 0.047963075 0.21583384 0.007993846 -0.28777847 -0.08793231 -0.19984615 -0.4316677 -0.27179077 0.13589539 -0.007993846 -0.3996923 -0.3837046 -0.28777847 0.39169845

sequential_5/dense_16/MatMul i1 [16, 1] scale=0.004517584 zero_point=0
000000 33 00 f1 d7 93 6d 6b c1 af 81 e3 e8 6e 40 35 b2
       0.23039679 0.0 -0.06776376 -0.18522094 -0.49241668 0.49241668 0.4833815 -0.2846078 -0.3659243 -0.5737332 -0.13100994 -0.10842202 0.49693426 0.28912538 0.23943196 -0.35237157
