MicroController/STM32F746/twoLineProject/STM32F746G-DISCO/231008_0119_2kPa_2line_Data_B8_quant_float32_float32_random_1.tflite (tflite, 89624 bytes, 5 tensors)

sequential_7/dense_39/MatMul i1 [4, 32] scale=0.0017028176 zero_point=0
00000000: e301 26e4 c7d7 1207 ed3a 0ee7 fff1 f0a9
00000010: 062a 3d1a 3405 3732 1a28 13cb 0401 e02f
00000020: 2609 44f7 c9f4 0fbe f6b0 3a13 ff4d ddbf
00000030: 340b 0e42 f2c9 0f1c e8f2 c46c eaf3 0bce
00000040: 1f1e e54a 21f2 f2e4 ab22 02c8 36f0 d803
00000050: 3f23 02f5 c397 f5c9 bbcc ff0b 187f edf6
00000060: 4d31 fcdc ecd0 e3c3 2304 f299 91f9 f602
00000070: 90fb 07fb efc8 341b 250b 38fa e609 46e3
-0.04938171 0.0017028176 0.06470707 -0.047678895 -0.097060606 -0.069815524 0.030650716 0.011919724
-0.032353535 0.09876342 0.023839448 -0.042570442 -0.0017028176 -0.025542265 -0.027245082 -0.14814514
0.010216906 0.07151834 0.103871875 0.044273257 0.088546515 0.008514088 0.09365497 0.085140884
0.044273257 0.0681127 0.032353535 -0.09024934 0.0068112705 0.0017028176 -0.054490164 0.08003243
0.06470707 0.015325358 0.1157916 -0.015325358 -0.09365497 -0.020433811 0.025542265 -0.112385966
-0.017028175 -0.1362254 0.09876342 0.032353535 -0.0017028176 0.13111696 -0.059598617 -0.11068314
0.088546515 0.018730994 0.023839448 0.112385966 -0.023839448 -0.09365497 0.025542265 0.047678895
-0.040867623 -0.023839448 -0.10216906 0.1839043 -0.03746199 -0.022136629 0.018730994 -0.085140884
0.052787345 0.05108453 -0.045976076 0.12600851 0.056192983 -0.023839448 -0.023839448 -0.047678895
-0.1447395 0.0578958 0.0034056352 -0.09535779 0.09195215 -0.027245082 -0.0681127 0.005108453
0.10727751 0.059598617 0.0034056352 -0.018730994 -0.103871875 -0.17879584 -0.018730994 -0.09365497
-0.11749442 -0.088546515 -0.0017028176 0.018730994 0.040867623 0.21625784 -0.032353535 -0.017028175
0.13111696 0.08343806 -0.0068112705 -0.061301433 -0.03405635 -0.081735246 -0.04938171 -0.103871875
0.059598617 0.0068112705 -0.023839448 -0.17539021 -0.18901275 -0.011919724 -0.017028175 0.0034056352
-0.19071558 -0.008514088 0.011919724 -0.008514088 -0.0289479 -0.09535779 0.088546515 0.045976076
0.063004255 0.018730994 0.09535779 -0.010216906 -0.044273257 0.015325358 0.119197235 -0.04938171

sequential_7/dense_38/MatMul i1 [32, 32] scale=0.011594519 zero_point=0
00000000: 0506 cbf6 c80e 0beb fdf7 0bf9 05ea f8f5
00000010: fcfd fc0b ecaa f5f4 fddc c7e0 f100 00f2
00000020: cec9 120e 1007 d3ef c7ea eca0 f0ef e1e6
00000030: fb1a 04c6 ea06 ebed e202 0229 c00d 0eee
00000040: 0d0a 070f effc ece8 b6d1 faed 23d8 e4d2
00000050: e611 dffa f0f9 f1ed dcf5 deda fee1 e001
00000060: f000 0ef4 d9e8 f918 dec4 fddb f0e3 efc0
00000070: e718 13fd 07f4 08e7 d20b d5db f8f4 ebeb
00000080: 0103 fcdd d7d6 fb12 f9bc 11f1 02f0 0acc
00000090: df11 04e5 f8fa 04fa e0fd e401 06f1 dffb
000000a0: fcf6 fc0a b6f0 08f2 dae1 f9e8 10dd f4e9
000000b0: f7dc fcf1 0afd 13fe d6f4 d50b ea05 f703
000000c0: 06f0 dfd5 e3eb 0d23 dfb8 08da e7e2 e7e1
000000d0: f1ee edd6 14f7 fbec d5ee dbfa 08ec f0e5
000000e0: e3f9 b3e8 f60a f40d 81f4 f001 ee08 0eee
000000f0: 01ec f4d6 e3f9 08ea f204 ffdc d2fa ef0d
0.057972595 0.069567114 -0.6145095 -0.11594519 -0.64929307 0.16232327 0.12753971 -0.2434849
-0.034783557 -0.10435067 0.12753971 -0.08116163 0.057972595 -0.25507942 -0.09275615 -0.12753971
-0.046378076 -0.034783557 -0.046378076 0.12753971 -0.23189038 -0.9971286 -0.12753971 -0.13913423
-0.034783557 -0.41740268 -0.6608876 -0.3710246 -0.17391779 0.0 0.0 -0.16232327
-0.579726 -0.63769853 0.20870134 0.16232327 0.1855123 0.08116163 -0.5217534 -0.19710682
-0.6608876 -0.25507942 -0.23189038 -1.1130738 -0.1855123 -0.19710682 -0.35943007 -0.3014575
-0.057972595 0.3014575 0.046378076 -0.67248213 -0.25507942 0.069567114 -0.2434849 -0.22029586
-0.34783557 0.023189038 0.023189038 0.4753753 -0.7420492 0.15072875 0.16232327 -0.20870134
0.15072875 0.11594519 0.08116163 0.17391779 -0.19710682 -0.046378076 -0.23189038 -0.27826846
-0.85799444 -0.5449424 -0.069567114 -0.22029586 0.40580815 -0.46378076 -0.32464653 -0.53334785
-0.3014575 0.19710682 -0.38261914 -0.069567114 -0.1855123 -0.08116163 -0.17391779 -0.22029586
-0.41740268 -0.12753971 -0.39421365 -0.44059172 -0.023189038 -0.35943007 -0.3710246 0.011594519
-0.1855123 0.0 0.16232327 -0.13913423 -0.45218623 -0.27826846 -0.08116163 0.27826846
-0.39421365 -0.69567114 -0.034783557 -0.42899722 -0.1855123 -0.33624107 -0.19710682 -0.7420492
-0.289863 0.27826846 0.22029586 -0.034783557 0.08116163 -0.13913423 0.09275615 -0.289863
-0.53334785 0.12753971 -0.4985643 -0.42899722 -0.09275615 -0.13913423 -0.2434849 -0.2434849
0.011594519 0.034783557 -0.046378076 -0.40580815 -0.4753753 -0.4869698 -0.057972595 0.20870134
-0.08116163 -0.7884273 0.19710682 -0.17391779 0.023189038 -0.1855123 0.11594519 -0.602915
-0.38261914 0.19710682 0.046378076 -0.313052 -0.09275615 -0.069567114 0.046378076 -0.069567114
-0.3710246 -0.034783557 -0.32464653 0.011594519 0.069567114 -0.17391779 -0.38261914 -0.057972595
-0.046378076 -0.11594519 -0.046378076 0.11594519 -0.85799444 -0.1855123 0.09275615 -0.16232327
-0.44059172 -0.35943007 -0.08116163 -0.27826846 0.1855123 -0.40580815 -0.13913423 -0.26667392
-0.10435067 -0.41740268 -0.046378076 -0.17391779 0.11594519 -0.034783557 0.22029586 -0.023189038
-0.4869698 -0.13913423 -0.4985643 0.12753971 -0.25507942 0.057972595 -0.10435067 0.034783557
0.069567114 -0.1855123 -0.38261914 -0.4985643 -0.33624107 -0.2434849 0.15072875 0.40580815
-0.38261914 -0.83480537 0.09275615 -0.44059172 -0.289863 -0.34783557 -0.289863 -0.35943007
-0.17391779 -0.20870134 -0.22029586 -0.4869698 0.23189038 -0.10435067 -0.057972595 -0.23189038
-0.4985643 -0.20870134 -0.42899722 -0.069567114 0.09275615 -0.23189038 -0.1855123 -0.313052
-0.33624107 -0.08116163 -0.892778 -0.27826846 -0.11594519 0.11594519 -0.13913423 0.15072875
-1.4725039 -0.13913423 -0.1855123 0.011594519 -0.20870134 0.09275615 0.16232327 -0.20870134
0.011594519 -0.23189038 -0.13913423 -0.4869698 -0.33624107 -0.08116163 0.09275615 -0.25507942
-0.16232327 0.046378076 -0.011594519 -0.41740268 -0.53334785 -0.069567114 -0.19710682 0.15072875

sequential_7/dense_37/MatMul i1 [32, 128] scale=0.010767131 zero_point=0
00000000: eee4 d705 e30c eff0 ebf4 f1ed 0cdf cde6
00000010: 1105 010f fc0b e0bf e8e4 e3b7 edea d31c
00000020: ece0 ef5e 21cb d504 02d5 11da 4900 fbf8
00000030: f73e ff15 e210 0ae9 e4f8 ffec 1d04 e1fd
00000040: cb21 f6ed e018 eb10 1bfc 32c9 e9e1 faed
00000050: d5c6 11ef ec1d 18d9 ccec 1edb e9d4 e4e6
00000060: dce4 fbf8 96de f91a e2dc d2d2 ecc8 cfe3
00000070: ed08 09dd d9cc ebf5 ebf4 e0f0 08ed edaf
00000080: e4cc e5fc d2b2 e4cd f7de f725 0ff1 daf1
00000090: deef ea31 f896 ecd1 faf9 fdea d3f8 f3f8
000000a0: eff9 fcf7 e20a 02a9 f1ef f5eb ecd1 01ee
000000b0: e3e7 05ea f4e4 feee f2fe 0fec 11da e400
000000c0: e8dd fdd8 e0e7 e3e9 f102 0803 e005 eae4
000000d0: c1ea 2bb8 16f9 e5f1 f0d4 e8e9 d1f9 a1e5
000000e0: e5ec e4fc fdef 0ffa 10ed f6e9 ed06 d5fc
000000f0: 02c8 f1dd d3f5 f91a ecf7 f709 f6e9 e0e6
-0.19380836 -0.30147967 -0.44145238 0.053835656 -0.3122468 0.12920557 -0.18304123 -0.1722741
-0.22610976 -0.12920557 -0.16150697 -0.2045755 0.12920557 -0.35531533 -0.5491237 -0.2799454
0.18304123 0.053835656 0.010767131 0.16150697 -0.043068524 0.118438445 -0.3445482 -0.6998635
-0.25841114 -0.30147967 -0.3122468 -0.78600055 -0.2045755 -0.23687689 -0.4845209 0.30147967
-0.21534263 -0.3445482 -0.18304123 1.0121104 0.35531533 -0.57065797 -0.46298665 0.043068524
0.021534262 -0.46298665 0.18304123 -0.409151 0.78600055 0.0 -0.053835656 -0.08613705
-0.09690418 0.6675621 -0.010767131 0.22610976 -0.32301393 0.1722741 0.10767131 -0.24764402
-0.30147967 -0.08613705 -0.010767131 -0.21534263 0.3122468 0.043068524 -0.33378106 -0.032301392
-0.57065797 0.35531533 -0.10767131 -0.2045755 -0.3445482 0.25841114 -0.22610976 0.1722741
0.29071254 -0.043068524 0.53835654 -0.59219223 -0.24764402 -0.33378106 -0.064602785 -0.2045755
-0.46298665 -0.6244936 0.18304123 -0.18304123 -0.21534263 0.3122468 0.25841114 -0.41991812
-0.5598908 -0.21534263 0.32301393 -0.39838386 -0.24764402 -0.47375378 -0.30147967 -0.2799454
-0.38761672 -0.30147967 -0.053835656 -0.08613705 -1.1413159 -0.36608246 -0.07536992 0.2799454
-0.32301393 -0.38761672 -0.49528804 -0.49528804 -0.21534263 -0.60295933 -0.52758944 -0.3122468
-0.2045755 0.08613705 0.09690418 -0.3768496 -0.41991812 -0.5598908 -0.22610976 -0.118438445
-0.22610976 -0.12920557 -0.3445482 -0.1722741 0.08613705 -0.2045755 -0.2045755 -0.8721376
-0.30147967 -0.5598908 -0.29071254 -0.043068524 -0.49528804 -0.83983624 -0.30147967 -0.5491237
-0.09690418 -0.36608246 -0.09690418 0.39838386 0.16150697 -0.16150697 -0.409151 -0.16150697
-0.36608246 -0.18304123 -0.23687689 0.52758944 -0.08613705 -1.1413159 -0.21534263 -0.5060552
-0.064602785 -0.07536992 -0.032301392 -0.23687689 -0.4845209 -0.08613705 -0.1399727 -0.08613705
-0.18304123 -0.07536992 -0.043068524 -0.09690418 -0.32301393 0.10767131 0.021534262 -0.9367404
-0.16150697 -0.18304123 -0.118438445 -0.22610976 -0.21534263 -0.5060552 0.010767131 -0.19380836
-0.3122468 -0.26917827 0.053835656 -0.23687689 -0.12920557 -0.30147967 -0.021534262 -0.19380836
-0.15073983 -0.021534262 0.16150697 -0.21534263 0.18304123 -0.409151 -0.30147967 0.0
-0.25841114 -0.3768496 -0.032301392 -0.43068525 -0.3445482 -0.26917827 -0.3122468 -0.24764402
-0.16150697 0.021534262 0.08613705 0.032301392 -0.3445482 0.053835656 -0.23687689 -0.30147967
-0.6783293 -0.23687689 0.46298665 -0.77523345 0.23687689 -0.07536992 -0.29071254 -0.16150697
-0.1722741 -0.47375378 -0.25841114 -0.24764402 -0.5060552 -0.07536992 -1.0228775 -0.29071254
-0.29071254 -0.21534263 -0.30147967 -0.043068524 -0.032301392 -0.18304123 0.16150697 -0.064602785
0.1722741 -0.2045755 -0.10767131 -0.24764402 -0.2045755 0.064602785 -0.46298665 -0.043068524
0.021534262 -0.60295933 -0.16150697 -0.3768496 -0.4845209 -0.118438445 -0.07536992 0.2799454
-0.21534263 -0.09690418 -0.09690418 0.09690418 -0.10767131 -0.24764402 -0.3445482 -0.2799454

sequential_7/dense_36/MatMul i1 [128, 512] scale=0.022499315 zero_point=0
00000000: faf5 0007 00d9 0701 0117 e106 f904 fef7
00000010: e202 0e08 21f8 f4e5 f0f6 e7f9 1818 ff19
00000020: eb07 feff fbea f303 15ee cdff 0bf3 f2f4
00000030: efef eaf6 faef fa20 f1eb f0dd e8fc f7e9
00000040: 04f7 08ed f9f5 eb10 23ff 080f ff16 04f1
00000050: ff02 23d7 fef2 0420 ec10 f21c 0b10 110c
00000060: f1f3 f2fc 0411 f4eb 0208 f6fe ddfb fddd
00000070: def6 0007 f100 eded e3f2 11f5 e205 ee0d
00000080: 09fb eedb 11f3 e609 ffea f209 0ee1 091d
00000090: ef0f fa05 f0f0 d905 0de7 11fd e0f0 d604
000000a0: f401 020e 1dec eddf ec14 edea fffa e5f5
000000b0: f008 d5ee e506 0bf6 0ddc 00fb e405 05f7
000000c0: e8fe e7f3 e1eb 0106 fee5 0af1 1ce6 ff01
000000d0: ed01 ecde 15f5 f5d0 14fd f2e2 dc06 fdf0
000000e0: 0706 f3f9 f3f2 fff8 e103 06f3 fcf7 e1e4
000000f0: f0f7 fe02 17e7 e3cd f8fc e8fe f615 edfb
-0.1349959 -0.24749246 0.0 0.1574952 0.0 -0.8774733 0.1574952 0.022499315
0.022499315 0.51748425 -0.6974788 0.1349959 -0.1574952 0.08999726 -0.04499863 -0.20249385
-0.67497945 0.04499863 0.3149904 0.17999452 0.7424774 -0.17999452 -0.2699918 -0.60748154
-0.35998905 -0.22499315 -0.5624829 -0.1574952 0.5399836 0.5399836 -0.022499315 0.5624829
-0.47248563 0.1574952 -0.04499863 -0.022499315 -0.11249658 -0.49498492 -0.2924911 0.06749795
0.47248563 -0.4049877 -1.1474651 -0.022499315 0.24749246 -0.2924911 -0.3149904 -0.2699918
-0.38248837 -0.38248837 -0.49498492 -0.22499315 -0.1349959 -0.38248837 -0.1349959 0.7199781
-0.33748972 -0.47248563 -0.35998905 -0.78747606 -0.5399836 -0.08999726 -0.20249385 -0.51748425
0.08999726 -0.20249385 0.17999452 -0.427487 -0.1574952 -0.24749246 -0.47248563 0.35998905
0.78747606 -0.022499315 0.17999452 0.33748972 -0.022499315 0.49498492 0.08999726 -0.33748972
-0.022499315 0.04499863 0.78747606 -0.92247194 -0.04499863 -0.3149904 0.08999726 0.7199781
-0.4499863 0.35998905 -0.3149904 0.6299808 0.24749246 0.35998905 0.38248837 0.2699918
-0.33748972 -0.2924911 -0.3149904 -0.08999726 0.08999726 0.38248837 -0.2699918 -0.47248563
0.04499863 0.17999452 -0.22499315 -0.04499863 -0.78747606 -0.11249658 -0.06749795 -0.78747606
-0.76497674 -0.22499315 0.0 0.1574952 -0.33748972 0.0 -0.427487 -0.427487
-0.6524801 -0.3149904 0.38248837 -0.24749246 -0.67497945 0.11249658 -0.4049877 0.2924911
0.20249385 -0.11249658 -0.4049877 -0.83247465 0.38248837 -0.2924911 -0.5849822 0.20249385
-0.022499315 -0.49498492 -0.3149904 0.20249385 0.3149904 -0.6974788 0.20249385 0.6524801
-0.38248837 0.33748972 -0.1349959 0.11249658 -0.35998905 -0.35998905 -0.8774733 0.11249658
0.2924911 -0.5624829 0.38248837 -0.06749795 -0.7199781 -0.35998905 -0.94497126 0.08999726
-0.2699918 0.022499315 0.04499863 0.3149904 0.6524801 -0.4499863 -0.427487 -0.7424774
-0.4499863 0.4499863 -0.427487 -0.49498492 -0.022499315 -0.1349959 -0.60748154 -0.24749246
-0.35998905 0.17999452 -0.9674706 -0.4049877 -0.60748154 0.1349959 0.24749246 -0.22499315
0.2924911 -0.8099754 0.0 -0.11249658 -0.6299808 0.11249658 0.11249658 -0.20249385
-0.5399836 -0.04499863 -0.5624829 -0.2924911 -0.6974788 -0.47248563 0.022499315 0.1349959
-0.04499863 -0.60748154 0.22499315 -0.33748972 0.6299808 -0.5849822 -0.022499315 0.022499315
-0.427487 0.022499315 -0.4499863 -0.76497674 0.47248563 -0.24749246 -0.24749246 -1.0799671
0.4499863 -0.06749795 -0.3149904 -0.67497945 -0.8099754 0.1349959 -0.06749795 -0.35998905
0.1574952 0.1349959 -0.2924911 -0.1574952 -0.2924911 -0.3149904 -0.022499315 -0.17999452
-0.6974788 0.06749795 0.1349959 -0.2924911 -0.08999726 -0.20249385 -0.6974788 -0.6299808
-0.35998905 -0.20249385 -0.04499863 0.04499863 0.51748425 -0.5624829 -0.6524801 -1.1474651
-0.17999452 -0.08999726 -0.5399836 -0.04499863 -0.22499315 0.47248563 -0.427487 -0.11249658

sequential_7/dense_35/MatMul i1 [512, 24] scale=0.033454802 zero_point=0
00000000: 0709 15f4 f613 3c1a d3e4 1804 0c0e 0aff
00000010: ecec 110a 3b2f ff13 da14 16f1 062b 0cfd
00000020: 19f8 edfb ebfb e4fa d5fd 1303 3d3b 0119
00000030: 2119 1212 050c 0e11 f2f1 e7cd faec faec
00000040: 03f7 edf4 f91a 1f0c e9f2 06fe 0aed 16ec
00000050: f0d2 ec26 2deb 0110 0103 d93b 200e 06fc
00000060: 2e0e 00ec fb06 10fa e002 fd15 e725 da13
00000070: 0312 170b fd17 0600 f41e f8ed f718 0532
00000080: 0af9 dded 1903 f8ea 201d 113a e61b 0c02
00000090: f1fe 4915 1107 1e02 f117 f0e8 fbf5 0b04
000000a0: fb1e e6e7 dd1b fdfe 1a0e 0004 07ea e5e5
000000b0: e3f7 edf9 f20a 0815 0f08 f27f 17fe 0c09
000000c0: f5f0 ff0d 0ff7 0b09 eb05 fdfa 0b0f fafb
000000d0: deed 2846 000f dbf0 1bf8 123b 03e4 0008
000000e0: 04f5 fde9 01f0 1532 f3d1 d7e8 2af1 030c
000000f0: fe0a ef26 09eb f01d 14f0 19fc 08f2 08e0
0.23418361 0.30109322 0.7025508 -0.4014576 -0.33454803 0.6356412 2.0072882 0.8698248
-1.5054661 -0.93673444 0.8029152 0.13381921 0.4014576 0.46836722 0.33454803 -0.033454802
-0.66909605 -0.66909605 0.5687316 0.33454803 1.9738333 1.5723757 -0.033454802 0.6356412
-1.2712824 0.66909605 0.73600566 -0.50182205 0.2007288 1.4385564 0.4014576 -0.1003644
0.83637005 -0.26763842 -0.6356412 -0.16727401 -0.7025508 -0.16727401 -0.93673444 -0.2007288
-1.4385564 -0.1003644 0.6356412 0.1003644 2.0407429 1.9738333 0.033454802 0.83637005
1.1040084 0.83637005 0.60218644 0.60218644 0.16727401 0.4014576 0.46836722 0.5687316
-0.46836722 -0.50182205 -0.83637005 -1.7061949 -0.2007288 -0.66909605 -0.2007288 -0.66909605
0.1003644 -0.30109322 -0.6356412 -0.4014576 -0.23418361 0.8698248 1.0370989 0.4014576
-0.76946044 -0.46836722 0.2007288 -0.066909604 0.33454803 -0.6356412 0.73600566 -0.66909605
-0.53527683 -1.5389209 -0.66909605 1.2712824 1.5054661 -0.7025508 0.033454802 0.53527683
0.033454802 0.1003644 -1.3047373 1.9738333 1.0705537 0.46836722 0.2007288 -0.13381921
1.5389209 0.46836722 0.0 -0.66909605 -0.16727401 0.2007288 0.53527683 -0.2007288
-1.0705537 0.066909604 -0.1003644 0.7025508 -0.83637005 1.2378277 -1.2712824 0.6356412
0.1003644 0.60218644 0.76946044 0.36800283 -0.1003644 0.76946044 0.2007288 0.0
-0.4014576 1.0036441 -0.26763842 -0.6356412 -0.30109322 0.8029152 0.16727401 1.6727401
0.33454803 -0.23418361 -1.1709181 -0.6356412 0.83637005 0.1003644 -0.26763842 -0.73600566
1.0705537 0.9701893 0.5687316 1.9403785 -0.8698248 0.90327966 0.4014576 0.066909604
-0.50182205 -0.066909604 2.4422004 0.7025508 0.5687316 0.23418361 1.0036441 0.066909604
-0.50182205 0.76946044 -0.53527683 -0.8029152 -0.16727401 -0.36800283 0.36800283 0.13381921
-0.16727401 1.0036441 -0.8698248 -0.83637005 -1.1709181 0.90327966 -0.1003644 -0.066909604
0.8698248 0.46836722 0.0 0.13381921 0.23418361 -0.73600566 -0.90327966 -0.90327966
-0.9701893 -0.30109322 -0.6356412 -0.23418361 -0.46836722 0.33454803 0.26763842 0.7025508
0.50182205 0.26763842 -0.46836722 4.2487597 0.76946044 -0.066909604 0.4014576 0.30109322
-0.36800283 -0.53527683 -0.033454802 0.4349124 0.50182205 -0.30109322 0.36800283 0.30109322
-0.7025508 0.16727401 -0.1003644 -0.2007288 0.36800283 0.50182205 -0.2007288 -0.16727401
-1.1374632 -0.6356412 1.3381921 2.3418362 0.0 0.50182205 -1.2378277 -0.53527683
0.90327966 -0.26763842 0.60218644 1.9738333 0.1003644 -0.93673444 0.0 0.26763842
0.13381921 -0.36800283 -0.1003644 -0.76946044 0.033454802 -0.53527683 0.7025508 1.6727401
-0.4349124 -1.5723757 -1.3716469 -0.8029152 1.4051017 -0.50182205 0.1003644 0.4014576
-0.066909604 0.33454803 -0.5687316 1.2712824 0.30109322 -0.7025508 -0.53527683 0.9701893
0.66909605 -0.53527683 0.83637005 -0.13381921 0.26763842 -0.46836722 0.26763842 -1.0705537
