MicroController/STM32F746/TACTS_Inference/231014_1836_2kPa_4line_Data_B9_quant_float32_float32_random_1.tflite (tflite, 101912 bytes, 5 tensors)

sequential_7/dense_39/MatMul i1 [4, 32] scale=0.0034029593 zero_point=0
0	0x06	0.020417755
1	0xfb	-0.017014796
2	0xf9	-0.023820715
3	0x06	0.020417755
4	0xfc	-0.013611837
5	0xd7	-0.13952133
6	0xf1	-0.05104439
7	0x11	0.05785031
8	0x15	0.07146215
9	0x16	0.0748651
10	0xf9	-0.023820715
11	0x1e	0.10208878
12	0x00	0.0
13	0x07	0.023820715
14	0xe3	-0.09868582
15	0xf9	-0.023820715
16	0xfb	-0.017014796
17	0xb2	-0.26543084
18	0xe7	-0.085073985
19	0x09	0.030626634
20	0x03	0.010208878
21	0x27	0.13271542
22	0xfa	-0.020417755
23	0x0e	0.04764143
24	0x02	0.0068059186
25	0xf4	-0.04083551
26	0x0a	0.03402959
27	0xfc	-0.013611837
28	0xfb	-0.017014796
29	0x08	0.027223675
30	0xfa	-0.020417755
31	0x2d	0.15313317
32	0x03	0.010208878
33	0x13	0.06465623
34	0x02	0.0068059186
35	0xf5	-0.03743255
36	0xfa	-0.020417755
37	0xe8	-0.08167102
38	0x31	0.166745
39	0x17	0.078268066
40	0xe9	-0.078268066
41	0xfa	-0.020417755
42	0xf8	-0.027223675
43	0xf6	-0.03402959
44	0x08	0.027223675
45	0xc8	-0.19056572
46	0x50	0.27223673
47	0x00	0.0
48	0x23	0.11910357
49	0x0c	0.04083551
50	0xc1	-0.21438643
51	0x94	-0.36751962
52	0x00	0.0
53	0x01	0.0034029593
54	0x01	0.0034029593
55	0xfc	-0.013611837
56	0xe7	-0.085073985
57	0xaa	-0.2926545
58	0xfc	-0.013611837
59	0x22	0.11570062
60	0x06	0.020417755
61	0x4d	0.26202786
62	0x00	0.0
63	0xf3	-0.04423847
64	0x2e	0.15653613
65	0x08	0.027223675
66	0x51	0.2756397
67	0xe0	-0.1088947
68	0x06	0.020417755
69	0x2a	0.1429243
70	0xfe	-0.0068059186
71	0xeb	-0.07146215
72	0x01	0.0034029593
73	0xf4	-0.04083551
74	0xcd	-0.17355092
75	0xe1	-0.10549174
76	0xdc	-0.12250654
77	0xfc	-0.013611837
78	0x0a	0.03402959
79	0xad	-0.2824456
80	0x30	0.16334204
81	0x02	0.0068059186
82	0x08	0.027223675
83	0xf8	-0.027223675
84	0x02	0.0068059186
85	0xf7	-0.030626634
86	0xd0	-0.16334204
87	0x01	0.0034029593
88	0x09	0.030626634
89	0xff	-0.0034029593
90	0x4c	0.2586249
91	0xf7	-0.030626634
92	0x2b	0.14632726
93	0x03	0.010208878
94	0x8d	-0.39134032
95	0xfd	-0.010208878
96	0xb7	-0.24841604
97	0xf2	-0.04764143
98	0x02	0.0068059186
99	0x24	0.12250654
100	0x27	0.13271542
101	0x81	-0.43217584
102	0x05	0.017014796
103	0x08	0.027223675
104	0x0c	0.04083551
105	0x1e	0.10208878
106	0x0f	0.05104439
107	0xe9	-0.078268066
108	0xba	-0.23820715
109	0x03	0.010208878
110	0xfe	-0.0068059186
111	0xff	-0.0034029593
112	0x22	0.11570062
113	0x00	0.0
114	0x00	0.0
115	0xef	-0.05785031
116	0x6b	0.36411664
117	0x04	0.013611837
118	0x40	0.2177894
119	0xcf	-0.166745
120	0x0a	0.03402959
121	0xfd	-0.010208878
122	0x2d	0.15313317
123	0xd7	-0.13952133
124	0x04	0.013611837
125	0x01	0.0034029593
126	0xa9	-0.29605746
127	0xff	-0.0034029593

sequential_7/dense_38/MatMul i1 [32, 32] scale=0.016113527 zero_point=0
0	0x04	0.06445411
1	0x11	0.27392995
2	0xf4	-0.19336233
3	0xea	-0.3544976
4	0x09	0.14502174
5	0xfb	-0.080567636
6	0x05	0.080567636
7	0x00	0.0
8	0xe7	-0.40283817
9	0x13	0.30615702
10	0xfd	-0.04834058
11	0x01	0.016113527
12	0x01	0.016113527
13	0x02	0.032227054
14	0xdd	-0.5639734
15	0x02	0.032227054
16	0xfd	-0.04834058
17	0xf9	-0.11279469
18	0xfd	-0.04834058
19	0x07	0.11279469
20	0x02	0.032227054
21	0x07	0.11279469
22	0x00	0.0
23	0xfe	-0.032227054
24	0xf2	-0.22558938
25	0x04	0.06445411
26	0xfd	-0.04834058
27	0xfc	-0.06445411
28	0xfe	-0.032227054
29	0xfe	-0.032227054
30	0xea	-0.3544976
31	0xe8	-0.38672465
32	0x04	0.06445411
33	0xf1	-0.24170291
34	0xf9	-0.11279469
35	0x0b	0.1772488
36	0xed	-0.30615702
37	0xf2	-0.22558938
38	0xfc	-0.06445411
39	0xe0	-0.51563287
40	0xef	-0.27392995
41	0xfb	-0.080567636
42	0xf0	-0.25781643
43	0xff	-0.016113527
44	0xf5	-0.1772488
45	0xf9	-0.11279469
46	0xf2	-0.22558938
47	0xf3	-0.20947585
48	0x02	0.032227054
49	0xf3	-0.20947585
50	0x05	0.080567636
51	0xff	-0.016113527
52	0xe3	-0.46729228
53	0xf9	-0.11279469
54	0xf5	-0.1772488
55	0xe8	-0.38672465
56	0x17	0.37061113
57	0x01	0.016113527
58	0x10	0.25781643
59	0xff	-0.016113527
60	0xda	-0.61231405
61	0xe6	-0.4189517
62	0x06	0.09668116
63	0xfa	-0.09668116
64	0xfd	-0.04834058
65	0xfd	-0.04834058
66	0x9a	-1.6435797
67	0xf9	-0.11279469
68	0x01	0.016113527
69	0x07	0.11279469
70	0xe8	-0.38672465
71	0x00	0.0
72	0xf7	-0.14502174
73	0xf4	-0.19336233
74	0x0e	0.22558938
75	0x04	0.06445411
76	0xe4	-0.45117876
77	0xdc	-0.58008695
78	0x9b	-1.6274662
79	0x05	0.080567636
80	0xff	-0.016113527
81	0xf7	-0.14502174
82	0x04	0.06445411
83	0xf0	-0.25781643
84	0xfa	-0.09668116
85	0x0a	0.16113527
86	0xf9	-0.11279469
87	0xfc	-0.06445411
88	0xd7	-0.6606546
89	0xf3	-0.20947585
90	0x00	0.0
91	0xf9	-0.11279469
92	0xfe	-0.032227054
93	0x12	0.29004347
94	0xf3	-0.20947585
95	0x0a	0.16113527
96	0xfc	-0.06445411
97	0x11	0.27392995
98	0xd4	-0.7089952
99	0x09	0.14502174
100	0x0c	0.19336233
101	0xfe	-0.032227054
102	0xfc	-0.06445411
103	0xf5	-0.1772488
104	0xd6	-0.6767681
105	0x13	0.30615702
106	0xf2	-0.22558938
107	0xff	-0.016113527
108	0x00	0.0
109	0xf2	-0.22558938
110	0xd3	-0.72510874
111	0x0a	0.16113527
112	0xfa	-0.09668116
113	0xf2	-0.22558938
114	0xf8	-0.12890822
115	0xfd	-0.04834058
116	0xfa	-0.09668116
117	0x15	0.33838406
118	0x00	0.0
119	0xfd	-0.04834058
120	0x11	0.27392995
121	0x14	0.32227054
122	0xff	-0.016113527
123	0xfc	-0.06445411
124	0xfa	-0.09668116
125	0x3a	0.93458456
126	0xb8	-1.1601739
127	0xf4	-0.19336233
128	0x03	0.04834058
129	0x0d	0.20947585
130	0xf3	-0.20947585
131	0xf6	-0.16113527
132	0x0d	0.20947585
133	0x00	0.0
134	0x0c	0.19336233
135	0xfc	-0.06445411
136	0xab	-1.3696498
137	0x13	0.30615702
138	0xfe	-0.032227054
139	0x09	0.14502174
140	0x0c	0.19336233
141	0x12	0.29004347
142	0xde	-0.5478599
143	0xfb	-0.080567636
144	0xd9	-0.62842757
145	0xfd	-0.04834058
146	0x00	0.0
147	0xf7	-0.14502174
148	0xf9	-0.11279469
149	0xfa	-0.09668116
150	0x01	0.016113527
151	0xfc	-0.06445411
152	0xfe	-0.032227054
153	0x08	0.12890822
154	0xe9	-0.37061113
155	0xfe	-0.032227054
156	0xde	-0.5478599
157	0x0a	0.16113527
158	0xc5	-0.9506981
159	0xef	-0.27392995
160	0xfe	-0.032227054
161	0xfe	-0.032227054
162	0xf2	-0.22558938
163	0xf2	-0.22558938
164	0xcb	-0.85401696
165	0xfe	-0.032227054
166	0x05	0.080567636
167	0x05	0.080567636
168	0xb6	-1.192401
169	0xe7	-0.40283817
170	0xf9	-0.11279469
171	0x04	0.06445411
172	0x02	0.032227054
173	0xdb	-0.5962005
174	0xcf	-0.7895628
175	0x06	0.09668116
176	0xde	-0.5478599
177	0xfa	-0.09668116
178	0xf0	-0.25781643
179	0xf0	-0.25781643
180	0xf5	-0.1772488
181	0x0a	0.16113527
182	0x00	0.0
183	0xee	-0.29004347
184	0x00	0.0
185	0xee	-0.29004347
186	0xf0	-0.25781643
187	0x02	0.032227054
188	0xf6	-0.16113527
189	0xe7	-0.40283817
190	0xe0	-0.51563287
191	0xf8	-0.12890822
192	0xf0	-0.25781643
193	0xff	-0.016113527
194	0x01	0.016113527
195	0x09	0.14502174
196	0xe7	-0.40283817
197	0x00	0.0
198	0x0a	0.16113527
199	0xee	-0.29004347
200	0xe9	-0.37061113
201	0x11	0.27392995
202	0xfe	-0.032227054
203	0x10	0.25781643
204	0x05	0.080567636
205	0xf9	-0.11279469
206	0xfb	-0.080567636
207	0x1d	0.46729228
208	0xf7	-0.14502174
209	0x01	0.016113527
210	0xfc	-0.06445411
211	0xee	-0.29004347
212	0xef	-0.27392995
213	0x0d	0.20947585
214	0xfb	-0.080567636
215	0xdf	-0.5317464
216	0x0e	0.22558938
217	0xf3	-0.20947585
218	0xfa	-0.09668116
219	0x00	0.0
220	0x04	0.06445411
221	0xfe	-0.032227054
222	0x0a	0.16113527
223	0xf7	-0.14502174
224	0x0d	0.20947585
225	0x17	0.37061113
226	0xd5	-0.69288164
227	0xef	-0.27392995
228	0xbb	-1.1118333
229	0x04	0.06445411
230	0xfa	-0.09668116
231	0x0b	0.1772488
232	0xe5	-0.43506524
233	0xef	-0.27392995
234	0xf4	-0.19336233
235	0xfa	-0.09668116
236	0x05	0.080567636
237	0xf4	-0.19336233
238	0xfc	-0.06445411
239	0x22	0.5478599
240	0xf7	-0.14502174
241	0xea	-0.3544976
242	0xfd	-0.04834058
243	0x07	0.11279469
244	0xff	-0.016113527
245	0x03	0.04834058
246	0x1a	0.4189517
247	0xd9	-0.62842757
248	0xf1	-0.24170291
249	0x19	0.40283817
250	0xef	-0.27392995
251	0xff	-0.016113527
252	0xec	-0.32227054
253	0xef	-0.27392995
254	0x09	0.14502174
255	0x00	0.0

sequential_7/dense_37/MatMul i1 [32, 128] scale=0.012347235 zero_point=0
0	0xe5	-0.33337536
1	0xf6	-0.123472355
2	0xda	-0.46919495
3	0x01	0.012347235
4	0xe6	-0.3210281
5	0xf6	-0.123472355
6	0x08	0.09877788
7	0xfa	-0.07408341
8	0x10	0.19755577
9	0x15	0.25929195
10	0xe5	-0.33337536
11	0xf1	-0.18520853
12	0x01	0.012347235
13	0xdf	-0.40745875
14	0x08	0.09877788
15	0x21	0.40745875
16	0x19	0.3086809
17	0x01	0.012347235
18	0x00	0.0
19	0xf8	-0.09877788
20	0x01	0.012347235
21	0xf5	-0.13581958
22	0xf2	-0.1728613
23	0x04	0.04938894
24	0xfe	-0.02469447
25	0x1b	0.33337536
26	0xfb	-0.061736178
27	0x0c	0.14816682
28	0x1b	0.33337536
29	0xe0	-0.39511153
30	0xfe	-0.02469447
31	0xfc	-0.04938894
32	0x03	0.037041705
33	0xff	-0.012347235
34	0xf5	-0.13581958
35	0xd8	-0.49388942
36	0x02	0.02469447
37	0xe9	-0.28398642
38	0xdd	-0.43215322
39	0xdc	-0.44450048
40	0xf6	-0.123472355
41	0x04	0.04938894
42	0xee	-0.22225024
43	0x05	0.061736178
44	0x10	0.19755577
45	0xd6	-0.5185839
46	0x0b	0.13581958
47	0xf9	-0.08643065
48	0xe3	-0.35806984
49	0xf2	-0.1728613
50	0xf7	-0.11112512
51	0xee	-0.22225024
52	0xf3	-0.16051406
53	0x0f	0.18520853
54	0xf1	-0.18520853
55	0xe5	-0.33337536
56	0xfb	-0.061736178
57	0x09	0.11112512
58	0x35	0.65440345
59	0xf8	-0.09877788
60	0x35	0.65440345
61	0x08	0.09877788
62	0xfb	-0.061736178
63	0xf7	-0.11112512
64	0x00	0.0
65	0x03	0.037041705
66	0xeb	-0.25929195
67	0xf3	-0.16051406
68	0xf5	-0.13581958
69	0xf1	-0.18520853
70	0xec	-0.24694471
71	0x00	0.0
72	0xe8	-0.29633364
73	0xfc	-0.04938894
74	0xf9	-0.08643065
75	0x0a	0.123472355
76	0x09	0.11112512
77	0x14	0.24694471
78	0x0f	0.18520853
79	0xf8	-0.09877788
80	0xfd	-0.037041705
81	0xf4	-0.14816682
82	0x2c	0.54327834
83	0xdf	-0.40745875
84	0x00	0.0
85	0xe5	-0.33337536
86	0xe0	-0.39511153
87	0x0e	0.1728613
88	0xfa	-0.07408341
89	0xed	-0.23459747
90	0xf0	-0.19755577
91	0x01	0.012347235
92	0x08	0.09877788
93	0x01	0.012347235
94	0x05	0.061736178
95	0xf7	-0.11112512
96	0xfc	-0.04938894
97	0xea	-0.27163917
98	0xf2	-0.1728613
99	0x10	0.19755577
100	0xdc	-0.44450048
101	0xf6	-0.123472355
102	0x12	0.22225024
103	0xf3	-0.16051406
104	0xed	-0.23459747
105	0xf1	-0.18520853
106	0x14	0.24694471
107	0x04	0.04938894
108	0xf0	-0.19755577
109	0x00	0.0
110	0xf4	-0.14816682
111	0x0a	0.123472355
112	0xea	-0.27163917
113	0x18	0.29633364
114	0xfe	-0.02469447
115	0x17	0.28398642
116	0x09	0.11112512
117	0xfd	-0.037041705
118	0x09	0.11112512
119	0xf3	-0.16051406
120	0x08	0.09877788
121	0xfc	-0.04938894
122	0x05	0.061736178
123	0xef	-0.209903
124	0xfb	-0.061736178
125	0x0c	0.14816682
126	0x00	0.0
127	0x02	0.02469447
128	0xc4	-0.7408341
129	0x1d	0.35806984
130	0xf5	-0.13581958
131	0x09	0.11112512
132	0xf6	-0.123472355
133	0xcf	-0.6050145
134	0xf0	-0.19755577
135	0xf6	-0.123472355
136	0xcd	-0.629709
137	0x00	0.0
138	0xe1	-0.3827643
139	0xdf	-0.40745875
140	0x01	0.012347235
141	0xe8	-0.29633364
142	0xfc	-0.04938894
143	0x02	0.02469447
144	0xf1	-0.18520853
145	0xf1	-0.18520853
146	0x07	0.08643065
147	0xf0	-0.19755577
148	0xfc	-0.04938894
149	0x00	0.0
150	0xf3	-0.16051406
151	0xfc	-0.04938894
152	0xea	-0.27163917
153	0xf2	-0.1728613
154	0xeb	-0.25929195
155	0xf3	-0.16051406
156	0x04	0.04938894
157	0xff	-0.012347235
158	0xf2	-0.1728613
159	0xfb	-0.061736178
160	0xfd	-0.037041705
161	0xf1	-0.18520853
162	0xfc	-0.04938894
163	0xfc	-0.04938894
164	0x09	0.11112512
165	0xf0	-0.19755577
166	0xfa	-0.07408341
167	0xf9	-0.08643065
168	0xee	-0.22225024
169	0x08	0.09877788
170	0xfa	-0.07408341
171	0xea	-0.27163917
172	0x09	0.11112512
173	0xf8	-0.09877788
174	0xe5	-0.33337536
175	0x05	0.061736178
176	0xfd	-0.037041705
177	0xe3	-0.35806984
178	0xf8	-0.09877788
179	0xf8	-0.09877788
180	0xed	-0.23459747
181	0xf9	-0.08643065
182	0xdf	-0.40745875
183	0xea	-0.27163917
184	0xe4	-0.3457226
185	0x05	0.061736178
186	0x01	0.012347235
187	0xf8	-0.09877788
188	0xf8	-0.09877788
189	0x00	0.0
190	0xf3	-0.16051406
191	0xe5	-0.33337536
192	0xe7	-0.3086809
193	0xf6	-0.123472355
194	0xfd	-0.037041705
195	0x03	0.037041705
196	0xf4	-0.14816682
197	0xfa	-0.07408341
198	0xf8	-0.09877788
199	0x09	0.11112512
200	0xff	-0.012347235
201	0xf2	-0.1728613
202	0xf7	-0.11112512
203	0x0e	0.1728613
204	0xfd	-0.037041705
205	0xef	-0.209903
206	0xfa	-0.07408341
207	0xe9	-0.28398642
208	0xed	-0.23459747
209	0xfd	-0.037041705
210	0xf4	-0.14816682
211	0xec	-0.24694471
212	0x01	0.012347235
213	0xfb	-0.061736178
214	0xeb	-0.25929195
215	0xfe	-0.02469447
216	0xef	-0.209903
217	0xe8	-0.29633364
218	0xf2	-0.1728613
219	0xf5	-0.13581958
220	0xf9	-0.08643065
221	0xff	-0.012347235
222	0xfa	-0.07408341
223	0xf1	-0.18520853
224	0x05	0.061736178
225	0xc6	-0.7161397
226	0xf9	-0.08643065
227	0xf6	-0.123472355
228	0xf3	-0.16051406
229	0x0b	0.13581958
230	0x00	0.0
231	0xeb	-0.25929195
232	0xcf	-0.6050145
233	0xf9	-0.08643065
234	0x09	0.11112512
235	0x06	0.07408341
236	0x08	0.09877788
237	0xf7	-0.11112512
238	0xeb	-0.25929195
239	0xfb	-0.061736178
240	0xfa	-0.07408341
241	0xe7	-0.3086809
242	0xf6	-0.123472355
243	0xef	-0.209903
244	0xf3	-0.16051406
245	0x03	0.037041705
246	0xfc	-0.04938894
247	0x06	0.07408341
248	0xf7	-0.11112512
249	0xfb	-0.061736178
250	0xd4	-0.54327834
251	0xeb	-0.25929195
252	0xf5	-0.13581958
253	0xfb	-0.061736178
254	0x03	0.037041705
255	0xf1	-0.18520853

sequential_7/dense_36/MatMul i1 [128, 512] scale=0.016311666 zero_point=0
0	0xe9	-0.37516832
1	0xd3	-0.73402494
2	0xe0	-0.5219733
3	0x0f	0.244675
4	0x05	0.08155833
5	0xd9	-0.63615495
6	0x04	0.065246664
7	0xf6	-0.16311666
8	0xfc	-0.065246664
9	0x1e	0.48935
10	0x20	0.5219733
11	0xe8	-0.39147997
12	0x0b	0.17942832
13	0x0a	0.16311666
14	0xd3	-0.73402494
15	0x0c	0.19573998
16	0x0d	0.21205166
17	0x02	0.032623332
18	0xfe	-0.032623332
19	0xfb	-0.08155833
20	0x1c	0.45672664
21	0x11	0.27729833
22	0x10	0.26098666
23	0x01	0.016311666
24	0xf3	-0.21205166
25	0x1a	0.42410332
26	0xf8	-0.13049333
27	0x0f	0.244675
28	0x01	0.016311666
29	0x0c	0.19573998
30	0xd9	-0.63615495
31	0x0f	0.244675
32	0xfd	-0.048934996
33	0x12	0.29360998
34	0x25	0.60353166
35	0x18	0.39147997
36	0xf0	-0.26098666
37	0xdc	-0.58721995
38	0xe7	-0.40779164
39	0x04	0.065246664
40	0x20	0.5219733
41	0x03	0.048934996
42	0x0b	0.17942832
43	0x11	0.27729833
44	0xfd	-0.048934996
45	0x03	0.048934996
46	0xf4	-0.19573998
47	0x01	0.016311666
48	0xdf	-0.53828496
49	0x13	0.30992165
50	0x0b	0.17942832
51	0xec	-0.32623333
52	0xe2	-0.48935
53	0x13	0.30992165
54	0x14	0.32623333
55	0xfd	-0.048934996
56	0x07	0.11418166
57	0x14	0.32623333
58	0xd8	-0.65246665
59	0x17	0.37516832
60	0x11	0.27729833
61	0x08	0.13049333
62	0x03	0.048934996
63	0x02	0.032623332
64	0x0b	0.17942832
65	0xf6	-0.16311666
66	0x19	0.40779164
67	0x14	0.32623333
68	0x01	0.016311666
69	0xdf	-0.53828496
70	0xf9	-0.11418166
71	0x14	0.32623333
72	0xf3	-0.21205166
73	0x01	0.016311666
74	0xf4	-0.19573998
75	0xf9	-0.11418166
76	0x03	0.048934996
77	0x15	0.34254497
78	0x21	0.53828496
79	0xf0	-0.26098666
80	0xf8	-0.13049333
81	0xed	-0.30992165
82	0x1b	0.440415
83	0x01	0.016311666
84	0xf2	-0.22836332
85	0x0d	0.21205166
86	0x06	0.09786999
87	0xe1	-0.50566167
88	0x09	0.14680499
89	0xf3	-0.21205166
90	0xf6	-0.16311666
91	0x12	0.29360998
92	0x0a	0.16311666
93	0x08	0.13049333
94	0xe9	-0.37516832
95	0xdb	-0.60353166
96	0xee	-0.29360998
97	0x0a	0.16311666
98	0xfe	-0.032623332
99	0x03	0.048934996
100	0x0b	0.17942832
101	0xff	-0.016311666
102	0xfb	-0.08155833
103	0x1c	0.45672664
104	0x18	0.39147997
105	0xd9	-0.63615495
106	0x06	0.09786999
107	0x00	0.0
108	0x0e	0.22836332
109	0x0c	0.19573998
110	0x13	0.30992165
111	0xe7	-0.40779164
112	0xeb	-0.34254497
113	0xeb	-0.34254497
114	0x01	0.016311666
115	0xe5	-0.440415
116	0x20	0.5219733
117	0xf9	-0.11418166
118	0xfc	-0.065246664
119	0xfc	-0.065246664
120	0x09	0.14680499
121	0x0d	0.21205166
122	0xf5	-0.17942832
123	0xfd	-0.048934996
124	0xf8	-0.13049333
125	0x08	0.13049333
126	0xf8	-0.13049333
127	0xfe	-0.032623332
128	0xfc	-0.065246664
129	0x14	0.32623333
130	0x09	0.14680499
131	0x04	0.065246664
132	0xf6	-0.16311666
133	0xfe	-0.032623332
134	0x10	0.26098666
135	0xff	-0.016311666
136	0x16	0.35885665
137	0x05	0.08155833
138	0xfa	-0.09786999
139	0xf7	-0.14680499
140	0x06	0.09786999
141	0xd4	-0.7177133
142	0x13	0.30992165
143	0xe4	-0.45672664
144	0xc1	-1.027635
145	0xef	-0.27729833
146	0xfb	-0.08155833
147	0xcf	-0.79927164
148	0xf9	-0.11418166
149	0xf3	-0.21205166
150	0xfd	-0.048934996
151	0xed	-0.30992165
152	0xf0	-0.26098666
153	0xe4	-0.45672664
154	0x12	0.29360998
155	0xfb	-0.08155833
156	0x01	0.016311666
157	0xf5	-0.17942832
158	0x1d	0.47303832
159	0xd1	-0.7666483
160	0x11	0.27729833
161	0x1d	0.47303832
162	0xeb	-0.34254497
163	0x11	0.27729833
164	0xf1	-0.244675
165	0xfb	-0.08155833
166	0xf3	-0.21205166
167	0x0d	0.21205166
168	0x09	0.14680499
169	0xfd	-0.048934996
170	0xfb	-0.08155833
171	0x07	0.11418166
172	0x15	0.34254497
173	0xdb	-0.60353166
174	0x17	0.37516832
175	0xde	-0.55459666
176	0xf3	-0.21205166
177	0xeb	-0.34254497
178	0xfe	-0.032623332
179	0x00	0.0
180	0xff	-0.016311666
181	0xdf	-0.53828496
182	0xe5	-0.440415
183	0xf4	-0.19573998
184	0xe7	-0.40779164
185	0x05	0.08155833
186	0xf3	-0.21205166
187	0xd5	-0.70140165
188	0xf8	-0.13049333
189	0xe6	-0.42410332
190	0x26	0.6198433
191	0x02	0.032623332
192	0x03	0.048934996
193	0x0f	0.244675
194	0xe2	-0.48935
195	0x18	0.39147997
196	0xd7	-0.6687783
197	0xe6	-0.42410332
198	0x08	0.13049333
199	0xfd	-0.048934996
200	0xff	-0.016311666
201	0x0e	0.22836332
202	0xf7	-0.14680499
203	0xff	-0.016311666
204	0xf6	-0.16311666
205	0x05	0.08155833
206	0x05	0.08155833
207	0xe0	-0.5219733
208	0xfc	-0.065246664
209	0xfe	-0.032623332
210	0xfe	-0.032623332
211	0xe7	-0.40779164
212	0x03	0.048934996
213	0xfd	-0.048934996
214	0xfa	-0.09786999
215	0x08	0.13049333
216	0xfc	-0.065246664
217	0x05	0.08155833
218	0xe2	-0.48935
219	0x06	0.09786999
220	0xe5	-0.440415
221	0x0c	0.19573998
222	0xf0	-0.26098666
223	0xe5	-0.440415
224	0x2b	0.70140165
225	0xea	-0.35885665
226	0x02	0.032623332
227	0x07	0.11418166
228	0x17	0.37516832
229	0xed	-0.30992165
230	0xfe	-0.032623332
231	0x07	0.11418166
232	0xd4	-0.7177133
233	0xe4	-0.45672664
234	0x07	0.11418166
235	0xde	-0.55459666
236	0x07	0.11418166
237	0x18	0.39147997
238	0x0a	0.16311666
239	0xde	-0.55459666
240	0xf8	-0.13049333
241	0xe4	-0.45672664
242	0x05	0.08155833
243	0xfa	-0.09786999
244	0x16	0.35885665
245	0xf0	-0.26098666
246	0xfe	-0.032623332
247	0xea	-0.35885665
248	0xfa	-0.09786999
249	0xde	-0.55459666
250	0xe6	-0.42410332
251	0x24	0.58721995
252	0x11	0.27729833
253	0xd5	-0.70140165
254	0x15	0.34254497
255	0x1f	0.50566167

sequential_7/dense_35/MatMul i1 [512, 48] scale=0.016518611 zero_point=0
0	0x26	0.62770724
1	0xdb	-0.61118865
2	0x04	0.066074446
3	0x0d	0.21474195
4	0xd8	-0.6607444
5	0x1c	0.46252114
6	0xff	-0.016518611
7	0xea	-0.36340946
8	0xfe	-0.033037223
9	0xf4	-0.19822334
10	0x2a	0.6937817
11	0x02	0.033037223
12	0xdb	-0.61118865
13	0x04	0.066074446
14	0x04	0.066074446
15	0xe8	-0.39644668
16	0x2a	0.6937817
17	0xea	-0.36340946
18	0xe8	-0.39644668
19	0xe8	-0.39644668
20	0x03	0.049555834
21	0xe6	-0.4294839
22	0xf3	-0.21474195
23	0x1a	0.4294839
24	0xf2	-0.23126057
25	0xea	-0.36340946
26	0x14	0.3303722
27	0x1d	0.47903973
28	0x2b	0.71030027
29	0x42	1.0902283
30	0x1f	0.512077
31	0xcc	-0.8589678
32	0xf8	-0.13214889
33	0xf0	-0.26429778
34	0x00	0.0
35	0x19	0.4129653
36	0xfc	-0.066074446
37	0x28	0.6607444
38	0x1a	0.4294839
39	0xfd	-0.049555834
40	0xe6	-0.4294839
41	0x03	0.049555834
42	0x12	0.297335
43	0xed	-0.31385362
44	0x19	0.4129653
45	0xf1	-0.24777918
46	0x13	0.31385362
47	0x06	0.09911167
48	0xfe	-0.033037223
49	0x1c	0.46252114
50	0xda	-0.62770724
51	0xe5	-0.4460025
52	0xf9	-0.115630284
53	0x11	0.2808164
54	0x0e	0.23126057
55	0xf1	-0.24777918
56	0x05	0.08259305
57	0x18	0.39644668
58	0x0d	0.21474195
59	0x0c	0.19822334
60	0xdc	-0.59467
61	0x14	0.3303722
62	0xe8	-0.39644668
63	0x18	0.39644668
64	0x03	0.049555834
65	0x02	0.033037223
66	0x02	0.033037223
67	0xfc	-0.066074446
68	0x2a	0.6937817
69	0x2e	0.7598561
70	0x01	0.016518611
71	0x01	0.016518611
72	0xe6	-0.4294839
73	0x02	0.033037223
74	0xe5	-0.4460025
75	0xd2	-0.7598561
76	0x16	0.36340946
77	0xf3	-0.21474195
78	0xd7	-0.6772631
79	0x0d	0.21474195
80	0x0c	0.19822334
81	0x39	0.94156086
82	0x05	0.08259305
83	0xf5	-0.18170473
84	0xde	-0.5616328
85	0x1a	0.4294839
86	0xf9	-0.115630284
87	0xf9	-0.115630284
88	0xfc	-0.066074446
89	0xfc	-0.066074446
90	0xfc	-0.066074446
91	0xfe	-0.033037223
92	0xeb	-0.34689084
93	0x0d	0.21474195
94	0xfc	-0.066074446
95	0x0d	0.21474195
96	0xd0	-0.79289335
97	0xf8	-0.13214889
98	0x0b	0.18170473
99	0xe7	-0.4129653
100	0x21	0.54511416
101	0x13	0.31385362
102	0xe8	-0.39644668
103	0x01	0.016518611
104	0xf9	-0.115630284
105	0x16	0.36340946
106	0xfb	-0.08259305
107	0x0d	0.21474195
108	0x21	0.54511416
109	0x07	0.115630284
110	0xf5	-0.18170473
111	0x11	0.2808164
112	0x01	0.016518611
113	0xf4	-0.19822334
114	0xe2	-0.49555835
115	0x1a	0.4294839
116	0x1c	0.46252114
117	0xef	-0.2808164
118	0xfe	-0.033037223
119	0x40	1.0571911
120	0x19	0.4129653
121	0x0e	0.23126057
122	0x0c	0.19822334
123	0x16	0.36340946
124	0xfd	-0.049555834
125	0xe5	-0.4460025
126	0x1b	0.4460025
127	0xe4	-0.46252114
128	0xe7	-0.4129653
129	0x01	0.016518611
130	0x18	0.39644668
131	0x32	0.8259306
132	0xb5	-1.2388959
133	0x0d	0.21474195
134	0xfc	-0.066074446
135	0x1c	0.46252114
136	0xd7	-0.6772631
137	0x17	0.37992805
138	0xfa	-0.09911167
139	0xf1	-0.24777918
140	0xfe	-0.033037223
141	0xf1	-0.24777918
142	0xfc	-0.066074446
143	0xfa	-0.09911167
144	0xfb	-0.08259305
145	0x26	0.62770724
146	0xe7	-0.4129653
147	0x0a	0.1651861
148	0x24	0.59467
149	0x0c	0.19822334
150	0x07	0.115630284
151	0x16	0.36340946
152	0x3b	0.97459805
153	0x05	0.08259305
154	0x0a	0.1651861
155	0xe5	-0.4460025
156	0x17	0.37992805
157	0x1a	0.4294839
158	0xfc	-0.066074446
159	0xe4	-0.46252114
160	0xf4	-0.19822334
161	0xf1	-0.24777918
162	0x3d	1.0076354
163	0x26	0.62770724
164	0xe0	-0.52859557
165	0x05	0.08259305
166	0x3c	0.9911167
167	0x0e	0.23126057
168	0x09	0.1486675
169	0xec	-0.3303722
170	0x14	0.3303722
171	0xf2	-0.23126057
172	0x09	0.1486675
173	0xed	-0.31385362
174	0x2e	0.7598561
175	0x0f	0.24777918
176	0x17	0.37992805
177	0x24	0.59467
178	0xfe	-0.033037223
179	0x05	0.08259305
180	0x08	0.13214889
181	0xd6	-0.6937817
182	0xfb	-0.08259305
183	0x11	0.2808164
184	0x1e	0.49555835
185	0x13	0.31385362
186	0x12	0.297335
187	0x15	0.34689084
188	0xf3	-0.21474195
189	0x02	0.033037223
190	0x06	0.09911167
191	0xff	-0.016518611
192	0x32	0.8259306
193	0xc8	-0.9250423
194	0x39	0.94156086
195	0xf0	-0.26429778
196	0xeb	-0.34689084
197	0xf5	-0.18170473
198	0xd3	-0.7433375
199	0x21	0.54511416
200	0x1c	0.46252114
201	0x03	0.049555834
202	0x0c	0.19822334
203	0xec	-0.3303722
204	0x30	0.79289335
205	0x03	0.049555834
206	0xf0	-0.26429778
207	0xf7	-0.1486675
208	0x08	0.13214889
209	0xe3	-0.47903973
210	0xea	-0.36340946
211	0xe3	-0.47903973
212	0x11	0.2808164
213	0xff	-0.016518611
214	0x06	0.09911167
215	0xf5	-0.18170473
216	0x01	0.016518611
217	0xe3	-0.47903973
218	0xff	-0.016518611
219	0x11	0.2808164
220	0x1f	0.512077
221	0x01	0.016518611
222	0xf4	-0.19822334
223	0x24	0.59467
224	0x00	0.0
225	0xff	-0.016518611
226	0xeb	-0.34689084
227	0xf6	-0.1651861
228	0x1e	0.49555835
229	0x05	0.08259305
230	0xea	-0.36340946
231	0x0f	0.24777918
232	0xf3	-0.21474195
233	0x27	0.64422584
234	0x41	1.0737097
235	0x09	0.1486675
236	0xf3	-0.21474195
237	0x0c	0.19822334
238	0x1b	0.4460025
239	0x18	0.39644668
240	0x20	0.52859557
241	0x24	0.59467
242	0xed	-0.31385362
243	0x0b	0.18170473
244	0x00	0.0
245	0x14	0.3303722
246	0x12	0.297335
247	0xf9	-0.115630284
248	0x04	0.066074446
249	0x04	0.066074446
250	0x01	0.016518611
251	0xeb	-0.34689084
252	0x17	0.37992805
253	0x0f	0.24777918
254	0x02	0.033037223
255	0xf8	-0.13214889
