MicroController/STM32F746/TACTS_Inference/231114_0033_4kPa_5V_2line_Data_B9_quant_float32_float32_random_1.tflite (tflite, 89528 bytes, 5 tensors)

sequential/dense_4/MatMul i1 [4, 32] scale=0.0028823556 zero_point=0
-0.028823556 -0.07494125 0.10952951 0.011529422 -0.0028823556 0.06917653 0.011529422 -0.008647067
-0.040352978 -0.014411778 0.031705912 0.043235335 -0.034588266 -0.028823556 -0.080705956 0.011529422
-0.089353025 0.15276484 -0.0518824 -0.031705912 -0.08358831 0.129706 -0.09511773 0.005764711
0.14700013 0.11817658 0.0 0.023058845 -0.18447076 0.014411778 0.040352978 0.008647067
-0.011529422 -0.017294133 0.12105893 -0.014411778 0.18447076 -0.011529422 -0.014411778 0.17294134
-0.23635316 0.031705912 -0.031705912 0.0028823556 -0.043235335 -0.11241187 -0.057647113 0.11817658
0.037470624 0.0028823556 0.0259412 0.12394129 -0.11817658 -0.014411778 -0.005764711 -0.017294133
-0.0028823556 0.09223538 0.063411824 -0.037470624 -0.0028823556 0.24211787 0.040352978 -0.014411778
0.16429427 0.10088245 0.15852956 -0.1815884 -0.36605915 -0.09800009 0.09511773 0.06629418
0.005764711 -0.106647156 0.11817658 -0.25076494 -0.023058845 0.020176489 0.014411778 0.005764711
-0.10952951 -0.0259412 -0.20464724 -0.020176489 -0.08358831 0.09800009 -0.040352978 0.17005898
0.0028823556 -0.115294226 -0.09511773 -0.06917653 -0.028823556 -0.023058845 -0.09223538 -0.12394129
0.0518824 0.16429427 -0.09800009 -0.1815884 0.09511773 -0.005764711 0.14123543 -0.017294133
-0.031705912 -0.034588266 -0.10088245 0.17294134 0.06917653 0.011529422 -0.12682365 -0.028823556
0.2017649 -0.0259412 -0.11817658 0.10088245 0.10952951 0.14700013 -0.06917653 -0.14411777
-0.034588266 0.057647113 -0.115294226 0.0518824 0.0 -0.043235335 0.10952951 -0.060529467
00000000: f6e6 2604 ff18 04fd f2fb 0b0f f4f6 e404
00000010: e135 eef5 e32d df02 3329 0008 c005 0e03
00000020: fcfa 2afb 40fc fb3c ae0b f501 f1d9 ec29
00000030: 0d01 092b d7fb fefa ff20 16f3 ff54 0efb
00000040: 3923 37c1 81de 2117 02db 29a9 f807 0502
00000050: daf7 b9f9 e322 f23b 01d8 dfe8 f6f8 e0d5
00000060: 1239 dec1 21fe 31fa f5f4 dd3c 1804 d4f6
00000070: 46f7 d723 2633 e8ce f414 d812 00f1 26eb

sequential/dense_3/MatMul i1 [32, 32] scale=0.014683307 zero_point=0
-0.07341654 -0.91036505 -0.763532 -0.32303277 -0.2055663 -1.0425148 -0.44049922 -0.6166989
-0.71948206 -0.4258159 0.0 -0.10278315 -0.13214977 -0.014683307 -0.23493291 -0.10278315
-0.044049922 -0.044049922 0.0 -0.044049922 -0.33771607 -0.07341654 -0.27898285 0.044049922
0.014683307 -0.5579657 -0.14683308 -0.07341654 -0.4111326 -1.8354133 -0.2055663 0.0
-0.088099845 -0.44049922 -0.23493291 -0.088099845 0.029366614 -0.70479876 -0.044049922 -0.088099845
-0.23493291 -0.3964493 0.14683308 0.16151638 -0.16151638 0.0 0.044049922 0.29366615
0.14683308 0.14683308 0.014683307 0.0 -0.13214977 0.014683307 -0.13214977 -0.2055663
0.029366614 -1.0131482 -0.14683308 0.044049922 -0.11746646 -1.1599813 0.24961622 -0.2055663
-0.029366614 0.029366614 0.2055663 -0.4258159 -0.3670827 0.16151638 -0.10278315 0.29366615
-0.24961622 0.014683307 -0.22024961 0.07341654 0.16151638 0.29366615 0.381766 -0.10278315
-0.24961622 -0.30834946 -0.13214977 -0.33771607 0.10278315 -0.381766 -0.45518252 -0.05873323
-0.6313822 -0.4111326 -0.17619969 -0.89568174 -0.30834946 -0.91036505 -0.029366614 -0.10278315
-0.5139158 0.014683307 0.29366615 0.0 -0.23493291 0.11746646 0.11746646 -0.088099845
-0.05873323 -0.11746646 -1.1746646 -0.5139158 -0.17619969 0.26429954 0.088099845 -0.35239938
-0.4258159 -0.7782153 -0.381766 -0.11746646 -0.014683307 -0.190883 -0.13214977 -0.572649
-0.014683307 0.11746646 0.088099845 -0.029366614 -0.11746646 0.07341654 -0.64606553 0.029366614
-0.7488487 -0.190883 -0.11746646 -0.5873323 -0.17619969 -0.26429954 -0.088099845 -0.13214977
-0.14683308 0.0 -0.7341654 -0.05873323 -0.24961622 0.07341654 -0.044049922 -0.088099845
-0.29366615 -0.48454913 -0.17619969 0.29366615 -0.14683308 -0.381766 -0.35239938 -0.23493291
-0.29366615 -0.22024961 -0.49923244 -0.044049922 -0.23493291 -0.5139158 -0.5579657 -0.088099845
-0.67543215 -0.07341654 -0.381766 -0.10278315 -0.30834946 0.17619969 -0.029366614 -0.22024961
0.23493291 -0.044049922 -0.24961622 -0.17619969 0.029366614 -0.16151638 0.2055663 0.05873323
-0.05873323 -0.26429954 0.23493291 0.11746646 -0.088099845 -0.14683308 -0.27898285 -0.14683308
-0.26429954 0.23493291 -0.17619969 -0.5432824 -0.763532 -0.6313822 0.4111326 0.22024961
-0.763532 0.10278315 0.5139158 -0.029366614 -0.24961622 0.14683308 0.27898285 0.11746646
-0.014683307 -0.088099845 -0.64606553 -0.29366615 -0.49923244 0.4111326 0.088099845 -0.5139158
-0.22024961 -0.71948206 -0.29366615 0.029366614 -0.10278315 -0.14683308 -0.17619969 -0.381766
-0.044049922 0.16151638 0.10278315 -0.044049922 -0.044049922 0.11746646 -0.5432824 0.029366614
0.044049922 -0.27898285 -0.190883 0.11746646 -0.05873323 -0.044049922 0.029366614 -0.05873323
-0.05873323 -0.3670827 0.13214977 0.05873323 0.014683307 -0.014683307 -0.044049922 -0.07341654
0.16151638 -0.11746646 0.014683307 -0.11746646 -0.088099845 -0.05873323 -0.05873323 0.22024961
-0.66074884 -0.6313822 -0.16151638 -0.044049922 -0.2055663 -0.190883 0.10278315 -0.3670827
00000000: fbc2 ccea f2b9 e2d6 cfe3 00f9 f7ff f0f9
00000010: fdfd 00fd e9fb ed03 01da f6fb e483 f200
00000020: fae2 f0fa 02d0 fdfa f0e5 0a0b f500 0314
00000030: 0a0a 0100 f701 f7f2 02bb f603 f8b1 11f2
00000040: fe02 0ee3 e70b f914 ef01 f105 0b14 1af9
00000050: efeb f7e9 07e6 e1fc d5e4 f4c3 ebc2 fef9
00000060: dd01 1400 f008 08fa fcf8 b0dd f412 06e8
00000070: e3cb e6f8 fff3 f7d9 ff08 06fe f805 d402
00000080: cdf3 f8d8 f4ee faf7 f600 cefc ef05 fdfa
00000090: ecdf f414 f6e6 e8f0 ecf1 defd f0dd dafa
000000a0: d2fb e6f9 eb0c fef1 10fd eff4 02f5 0e04
000000b0: fcee 1008 faf6 edf6 ee10 f4db ccd5 1c0f
000000c0: cc07 23fe ef0a 1308 fffa d4ec de1c 06dd
000000d0: f1cf ec02 f9f6 f4e6 fd0b 07fd fd08 db02
000000e0: 03ed f308 fcfd 02fc fce7 0904 01ff fdfb
000000f0: 0bf8 01f8 fafc fc0f d3d5 f5fd f2f3 07e7

sequential/dense_2/MatMul i1 [32, 128] scale=0.013049188 zero_point=0
-0.24793458 0.07829513 -0.052196752 0.28708214 -0.18268864 -0.37842646 0.14354107 -0.4436724
-0.40452483 -0.23488538 -0.013049188 0.104393505 -0.3262297 0.16963944 -0.13049188 -0.14354107
0.104393505 -0.30013132 0.13049188 -0.37842646 -0.33927888 0.2218362 0.27403295 0.14354107
0.626361 0.3262297 -0.09134432 -0.15659025 -0.13049188 -0.052196752 -0.46977076 -0.28708214
0.19573782 -0.5611151 -0.14354107 -0.039147563 0.16963944 -0.26098377 0.013049188 -0.026098376
-0.039147563 -0.07829513 -0.28708214 0.24793458 0.14354107 -0.18268864 0.41757402 0.013049188
0.3523281 0.06524594 -0.16963944 0.19573782 0.11744269 0.18268864 -0.14354107 0.3262297
-0.40452483 -0.626361 0.039147563 -0.19573782 0.13049188 0.18268864 0.23488538 0.14354107
-0.09134432 -0.27403295 -0.19573782 0.27403295 -0.026098376 -0.07829513 0.06524594 0.013049188
0.49586916 -0.026098376 -0.104393505 -0.19573782 -0.013049188 0.60026264 0.7568529 -0.09134432
-0.23488538 -0.39147565 0.2218362 0.23488538 0.07829513 -0.104393505 0.2218362 -0.30013132
0.60026264 -0.41757402 -0.40452483 -0.13049188 0.14354107 -0.09134432 0.66550857 -0.19573782
0.5741643 0.16963944 0.11744269 -0.24793458 -0.026098376 -0.11744269 -0.7699021 -0.48281994
-0.06524594 -0.039147563 -0.69160694 0.06524594 -0.16963944 -0.09134432 -0.5350167 -0.06524594
-0.14354107 -0.37842646 0.013049188 0.052196752 -0.49586916 0.20878701 -0.74380374 0.48281994
0.052196752 0.24793458 0.5611151 0.27403295 -0.5611151 0.0 -0.27403295 -0.3131805
-0.09134432 0.039147563 -0.27403295 -0.013049188 -0.36537728 -0.19573782 -0.41757402 -0.11744269
-0.013049188 -0.50891834 -0.26098377 -0.039147563 0.4436724 -0.33927888 -0.3262297 -0.07829513
-0.23488538 -0.11744269 -0.15659025 -0.74380374 -0.40452483 -0.104393505 -0.104393505 -0.8481972
-0.052196752 -0.49586916 0.026098376 -0.20878701 -0.15659025 -0.3523281 -0.20878701 0.052196752
-0.3523281 0.23488538 -0.24793458 -0.15659025 -0.58721346 -0.14354107 0.11744269 0.0
-0.48281994 -0.67855775 -0.15659025 -0.49586916 -0.11744269 -0.27403295 0.3262297 -0.06524594
0.20878701 0.0 -0.5350167 -0.49586916 -0.36537728 -0.50891834 -0.26098377 -0.20878701
0.45672157 0.07829513 -0.09134432 -0.15659025 -0.36537728 -0.80904967 -0.3523281 -0.27403295
-1.1091809 -0.3131805 0.13049188 -0.4306232 0.4306232 0.14354107 -0.09134432 0.18268864
-0.07829513 0.28708214 0.013049188 -0.23488538 -0.013049188 -0.40452483 -0.104393505 -0.7829513
-0.33927888 -0.626361 -0.11744269 -0.104393505 -0.104393505 -0.026098376 -0.49586916 0.039147563
-0.24793458 0.013049188 -0.626361 0.052196752 0.14354107 -0.28708214 -0.73075455 -0.30013132
-0.5480659 0.48281994 -0.26098377 -0.19573782 -0.039147563 -0.39147565 -0.23488538 0.3523281
-0.09134432 -0.06524594 -0.27403295 -0.50891834 -0.6524594 -0.37842646 0.039147563 -0.5741643
-0.23488538 -0.30013132 -0.5611151 -0.2218362 -0.5611151 -0.6524594 -0.45672157 -0.013049188
-0.46977076 -0.24793458 -0.06524594 -0.16963944 -0.39147565 -0.18268864 0.039147563 -0.2218362
00000000: ed06 fc16 f2e3 0bde e1ee ff08 e70d f6f5
00000010: 08e9 0ae3 e611 150b 3019 f9f4 f6fc dcea
00000020: 0fd5 f5fd 0dec 01fe fdfa ea13 0bf2 2001
00000030: 1b05 f30f 090e f519 e1d0 03f1 0a0e 120b
00000040: f9eb f115 fefa 0501 26fe f8f1 ff2e 3af9
00000050: eee2 1112 06f8 11e9 2ee0 e1f6 0bf9 33f1
00000060: 2c0d 09ed fef7 c5db fbfd cb05 f3f9 d7fb
00000070: f5e3 0104 da10 c725 0413 2b15 d500 ebe8
00000080: f903 ebff e4f1 e0f7 ffd9 ecfd 22e6 e7fa
00000090: eef7 f4c7 e1f8 f8bf fcda 02f0 f4e5 f004
000000a0: e512 edf4 d3f5 0900 dbcc f4da f7eb 19fb
000000b0: 1000 d7da e4d9 ecf0 2306 f9f4 e4c2 e5eb
000000c0: abe8 0adf 210b f90e fa16 01ee ffe1 f8c4
000000d0: e6d0 f7f8 f8fe da03 ed01 d004 0bea c8e9
000000e0: d625 ecf1 fde2 ee1b f9fb ebd9 cee3 03d4
000000f0: eee9 d5ef d5ce ddff dced fbf3 e2f2 03ef

sequential/dense_1/MatMul i1 [128, 512] scale=0.019442419 zero_point=0
0.2916363 0.3305211 -0.3110787 0.019442419 0.0 -0.75825435 0.0 -0.038884837
-0.64159983 0.2916363 -0.15553935 -0.038884837 0.2916363 -0.23330903 -0.19442418 -0.36940596
-0.38884836 0.077769674 0.077769674 0.0 -0.2916363 -0.3110787 -0.27219385 -0.19442418
0.0 0.038884837 -0.7193695 -0.4277332 0.3110787 -0.27219385 -0.4082908 -0.27219385
-0.56383014 0.19442418 -0.5443877 -0.56383014 -0.5249453 -0.116654515 -0.058327258 0.44717562
0.3110787 0.4082908 -0.2138666 0.2916363 -0.23330903 -1.1665452 -0.2916363 -0.7193695
-0.68048465 -0.058327258 0.38884836 0.79713917 -0.6221574 -0.68048465 -0.25275144 0.19442418
0.13609692 0.13609692 -0.48606047 0.5055029 -0.17498177 -0.2916363 -0.5832726 0.0
-0.5249453 -0.116654515 -0.64159983 -0.27219385 -0.019442419 0.36940596 -0.13609692 -0.5832726
-0.019442419 0.17498177 -0.09721209 -0.15553935 0.0 0.15553935 0.09721209 0.27219385
-0.2138666 0.058327258 -0.836024 -0.019442419 0.3305211 0.5249453 -0.5443877 -0.89435124
-0.3110787 0.7388119 0.5055029 -0.19442418 0.058327258 -0.23330903 -0.46661806 -0.5443877
0.17498177 -0.23330903 -0.09721209 0.5832726 -0.4082908 -0.6999271 -0.13609692 0.038884837
-0.3305211 -0.2916363 -0.2138666 -0.6999271 -0.19442418 -0.3305211 -0.6999271 0.46661806
0.038884837 -0.27219385 -0.019442419 -0.2916363 -0.38884836 -0.2138666 0.7388119 -0.15553935
-0.89435124 0.4277332 -0.46661806 -0.38884836 0.17498177 0.077769674 -0.15553935 -0.60271496
0.60271496 0.25275144 0.09721209 -0.19442418 -0.7776967 -0.2916363 -0.038884837 -0.46661806
0.13609692 -0.077769674 -0.09721209 -0.6610422 0.09721209 -0.019442419 0.038884837 0.6610422
0.3110787 -0.5832726 -0.2138666 0.6221574 0.25275144 0.2138666 0.7776967 -0.019442419
-0.038884837 -0.56383014 0.077769674 0.2916363 -0.3305211 0.0 -0.36940596 -1.302642
0.36940596 0.15553935 0.2138666 -0.23330903 -0.56383014 0.5055029 -0.5832726 -0.17498177
-0.15553935 -0.5055029 0.46661806 -0.19442418 0.116654515 -0.09721209 0.15553935 0.077769674
-0.6610422 -0.8554664 0.46661806 0.5249453 -0.25275144 0.058327258 -0.2138666 0.27219385
0.4277332 0.038884837 -0.7388119 0.038884837 0.116654515 0.9332361 -0.36940596 -0.019442419
-0.4277332 -0.4082908 -0.34996355 -0.25275144 -0.09721209 -0.2916363 -0.077769674 -0.5055029
-0.116654515 -0.5055029 -1.1082178 0.17498177 -0.48606047 -0.68048465 -0.56383014 -0.2916363
-0.5443877 -0.15553935 -0.44717562 -0.058327258 -0.34996355 -0.5249453 -0.038884837 -0.2916363
-0.2916363 -0.27219385 0.64159983 0.2138666 -0.15553935 0.038884837 0.2138666 -0.38884836
-0.8165816 -0.34996355 -0.15553935 -0.019442419 -0.7776967 -0.75825435 0.09721209 -0.13609692
-0.116654515 -0.89435124 -0.8554664 0.34996355 -0.13609692 -0.2138666 -0.23330903 0.3110787
0.17498177 0.058327258 0.4082908 -0.17498177 0.116654515 -0.15553935 -0.19442418 0.2916363
-0.36940596 -0.44717562 0.48606047 -0.6999271 0.058327258 -0.23330903 -0.4277332 -0.5055029
00000000: 0f11 f001 00d9 00fe df0f f8fe 0ff4 f6ed
00000010: ec04 0400 f1f0 f2f6 0002 dbea 10f2 ebf2
00000020: e30a e4e3 e5fa fd17 1015 f50f f4c4 f1db
00000030: ddfd 1429 e0dd f30a 0707 e71a f7f1 e200
00000040: e5fa dff2 ff13 f9e2 ff09 fbf8 0008 050e
00000050: f503 d5ff 111b e4d2 f026 1af6 03f4 e8e4
00000060: 09f4 fb1e ebdc f902 eff1 f5dc f6ef dc18
00000070: 02f2 fff1 ecf5 26f8 d216 e8ec 0904 f8e1
00000080: 1f0d 05f6 d8f1 fee8 07fc fbde 05ff 0222
00000090: 10e2 f520 0d0b 28ff fee3 040f ef00 edbd
000000a0: 1308 0bf4 e31a e2f7 f8e6 18f6 06fb 0804
000000b0: ded4 181b f303 f50e 1602 da02 0630 edff
000000c0: eaeb eef3 fbf1 fce6 fae6 c709 e7dd e3f1
000000d0: e4f8 e9fd eee5 fef1 f1f2 210b f802 0bec
000000e0: d6ee f8ff d8d9 05f9 fad2 d412 f9f5 f410
000000f0: 0903 15f7 06f8 f60f ede9 19dc 03f4 eae6

sequential/dense/MatMul i1 [512, 24] scale=0.027628254 zero_point=0
0.13814127 -0.24865429 0.19339778 0.4696803 -0.7735911 -0.13814127 0.49730858 -0.05525651
1.4642974 0.38679555 0.16576952 0.38679555 0.16576952 -0.3039108 0.74596286 0.6354498
-0.5525651 1.3261561 -1.2708997 1.5471822 -0.16576952 0.24865429 1.6853235 -0.58019334
0.13814127 -0.82884765 1.8234648 0.24865429 1.0222454 -0.38679555 -0.4696803 -0.6078216
-0.66307807 -0.41442382 -1.6576953 0.52493685 0.6907064 -1.0498737 0.7735911 0.0
0.3591673 0.24865429 -0.9393606 0.52493685 0.4696803 0.38679555 -0.08288476 -0.49730858
-0.4696803 -0.5525651 -0.52493685 -0.99461716 -0.33153903 0.27628255 -1.1327584 -0.24865429
1.0775019 0.16576952 0.5525651 0.80121934 -0.38679555 -0.027628254 -1.1051302 -0.49730858
-0.8564759 1.4366692 -1.1603867 -0.41442382 -0.24865429 -0.66307807 0.9117324 -0.6078216
0.027628254 0.41442382 -0.33153903 -0.9117324 0.027628254 -1.188015 -0.5525651 -0.05525651
1.2156432 -0.8564759 -0.82884765 -0.66307807 1.3814127 -0.08288476 1.4090409 -0.3591673
0.9117324 0.4696803 -0.3591673 -0.11051302 -0.08288476 0.19339778 -1.298528 0.19339778
0.49730858 0.16576952 -0.66307807 0.3591673 -0.4696803 -0.6078216 0.58019334 0.027628254
-0.58019334 0.9393606 -1.0222454 -0.11051302 -0.22102603 -0.44205207 1.4090409 0.6907064
0.74596286 -0.5525651 -0.58019334 0.6907064 0.16576952 0.0 -0.027628254 1.0498737
0.41442382 -1.519554 0.05525651 -0.13814127 0.58019334 -1.74058 -1.0498737 -0.19339778
0.41442382 0.11051302 0.13814127 1.630067 1.4642974 0.7735911 0.6354498 0.38679555
0.49730858 -0.6078216 0.05525651 -1.6024387 1.5748105 -0.5525651 0.11051302 -0.52493685
0.24865429 -1.0775019 -0.74596286 -0.4696803 -0.38679555 -0.11051302 0.22102603 -0.24865429
0.9117324 -0.41442382 -0.6907064 -0.13814127 0.19339778 0.8564759 2.3484015 -0.05525651
0.49730858 -0.027628254 1.0222454 0.11051302 0.49730858 1.0498737 0.4696803 -0.27628255
-0.3039108 0.11051302 -0.027628254 1.3814127 -0.13814127 -0.9117324 0.05525651 -0.05525651
-0.16576952 0.3039108 0.05525651 -0.6354498 -0.24865429 -0.027628254 -1.6853235 0.6078216
-0.4696803 0.3591673 0.66307807 -1.1051302 1.3261561 0.3591673 0.08288476 -0.99461716
-0.27628255 1.4642974 0.49730858 0.22102603 -0.19339778 0.16576952 0.52493685 -0.05525651
0.4696803 -0.6907064 0.80121934 -0.9117324 -0.3039108 -0.05525651 -0.4696803 1.1327584
-0.58019334 -0.66307807 -0.41442382 -0.9393606 0.13814127 0.6078216 -0.11051302 -0.19339778
0.38679555 -0.38679555 -0.11051302 0.13814127 0.74596286 0.74596286 -1.2156432 0.52493685
0.5525651 -0.22102603 -0.4696803 -0.16576952 -0.7735911 -0.44205207 0.74596286 0.58019334
-0.58019334 1.4642974 -0.7735911 0.74596286 0.08288476 0.9393606 -0.7183346 -0.22102603
-0.27628255 -0.11051302 -0.22102603 -0.52493685 0.16576952 -0.3591673 0.5525651 -0.24865429
-0.88410413 0.24865429 0.6907064 -0.41442382 2.37603 -1.7958366 0.49730858 -0.41442382
00000000: 05f7 0711 e4fb 12fe 350e 060e 06f5 1b17
00000010: ec30 d238 fa09 3deb 05e2 4209 25f2 efea
00000020: e8f1 c413 19da 1c00 0d09 de13 110e fdee
00000030: efec eddc f40a d7f7 2706 141d f2ff d8ee
00000040: e134 d6f1 f7e8 21ea 010f f4df 01d5 ecfe
00000050: 2ce1 e2e8 32fd 33f3 2111 f3fc fd07 d107
00000060: 1206 e80d efea 1501 eb22 dbfc f8f0 3319
00000070: 1bec eb19 0600 ff26 0fc9 02fb 15c1 daf9
00000080: 0f04 053b 351c 170e 12ea 02c6 39ec 04ed
00000090: 09d9 e5ef f2fc 08f7 21f1 e7fb 071f 55fe
000000a0: 12ff 2504 1226 11f6 f504 ff32 fbdf 02fe
000000b0: fa0b 02e9 f7ff c316 ef0d 18d8 300d 03dc
000000c0: f635 1208 f906 13fe 11e7 1ddf f5fe ef29
000000d0: ebe8 f1de 0516 fcf9 0ef2 fc05 1b1b d413
000000e0: 14f8 effa e4f0 1b15 eb35 e41b 0322 e6f8
000000f0: f6fc f8ed 06f3 14f7 e009 19f1 56bf 12f1
