MicroController/STM32F746/TACTS_Inference/3lineData_B9_2kPa_9V_.tflite (tflite, 95672 bytes, 5 tensors)

sequential/dense_4/MatMul i1 [4, 32] scale=0.0021587922 zero_point=0
00000000: c4e3 262b 17dc 1a0a e5c4 0bdf 183e f631
00000010: e90d e035 1d13 090d 110b 29c5 2508 db04
00000020: e58c 26fa fef7 fcc2 5c0d 0afe f206 f9d3
00000030: 0c15 fcfa d605 4d13 2906 fced 02a1 080b
00000040: 6ef3 df0d 150b effb 0048 389b 0659 f64d
00000050: c017 33d2 c1bf ff14 20dc c7f1 eb19 b038
00000060: b606 d130 5d00 7ffc 0607 0c25 fd02 3cfb
00000070: 12cc b203 17fb f903 db56 cbd7 aef9 9fec
-0.12952754 -0.06260497 0.0820341 0.092828065 0.049652223 -0.07771652 0.0561286 0.021587923
-0.05828739 -0.12952754 0.023746714 -0.07124014 0.051811013 0.13384512 -0.021587923 0.10578082
-0.049652223 0.0280643 -0.06908135 0.11441599 0.06260497 0.04101705 0.01942913 0.0280643
0.036699466 0.023746714 0.08851048 -0.12736875 0.07987531 0.017270338 -0.07987531 0.008635169
-0.05828739 -0.25041988 0.0820341 -0.012952753 -0.0043175844 -0.01942913 -0.008635169 -0.13384512
0.19860889 0.0280643 0.021587923 -0.0043175844 -0.03022309 0.012952753 -0.015111545 -0.09714565
0.025905507 0.045334637 -0.008635169 -0.012952753 -0.090669274 0.010793962 0.166227 0.04101705
0.08851048 0.012952753 -0.008635169 -0.04101705 0.0043175844 -0.20508526 0.017270338 0.023746714
0.23746714 -0.0280643 -0.07124014 0.0280643 0.045334637 0.023746714 -0.036699466 -0.010793962
0.0 0.15543304 0.12089236 -0.21803801 0.012952753 0.1921325 -0.021587923 0.166227
-0.1381627 0.049652223 0.11009841 -0.099304445 -0.13600391 -0.1403215 -0.0021587922 0.043175846
0.06908135 -0.07771652 -0.12305116 -0.032381885 -0.045334637 0.053969804 -0.17270339 0.12089236
-0.15975063 0.012952753 -0.101463236 0.10362203 0.20076768 0.0 0.2741666 -0.008635169
0.012952753 0.015111545 0.025905507 0.07987531 -0.0064763767 0.0043175844 0.12952754 -0.010793962
0.03885826 -0.1122572 -0.16838579 0.0064763767 0.049652223 -0.010793962 -0.015111545 0.0064763767
-0.07987531 0.18565613 -0.11441599 -0.08851048 -0.17702097 -0.015111545 -0.20940284 -0.043175846

sequential/dense_3/MatMul i1 [32, 32] scale=0.017126977 zero_point=0
00000000: fa11 e505 f504 f0f3 f4dc faf4 f5fa fc0a
00000010: 0604 fb0a d7ea f7e7 f0fb f4ff e8d8 e7ff
00000020: ae02 ffc2 ff0f f400 05fa f4c7 0502 00fc
00000030: 0703 e3fc fdf3 0efe faf4 fdc8 ff05 0705
00000040: faff e1f5 09f1 f2db f1dc f2f7 f5fa 03fb
00000050: f303 00dd 07f0 fa0d e5f5 ecfc d8e2 f7e2
00000060: ffe9 fef3 06fc e8d2 02fb fdeb f500 0cf4
00000070: fa03 00ed d3f9 f40c e507 01f8 0deb e8ec
00000080: 00f6 e9ee f901 bf08 f1db e8fd 08f9 f503
00000090: f2f9 ff04 0001 0b0e 00fe 0309 a9fc ef03
000000a0: feef eff3 ff04 faff 06ef 01ff 0b05 03ed
000000b0: eff3 fff8 f706 f3ec f9f1 04f3 fbf6 fa08
000000c0: ffd8 d7f1 fd04 ede7 dcc1 f903 05fa 0609
000000d0: f7f5 fbfd f205 f102 fc04 fd00 affd d3eb
000000e0: 17f9 fb0f 00c8 f7f4 02fa 0321 06f8 1df5
000000f0: 10ee fd07 fa04 110f fd28 fbfe fbf1 fefa
-0.102761865 0.29115862 -0.4624284 0.08563489 -0.18839675 0.06850791 -0.27403164 -0.2226507
-0.20552373 -0.6165712 -0.102761865 -0.20552373 -0.18839675 -0.102761865 -0.06850791 0.17126977
0.102761865 0.06850791 -0.08563489 0.17126977 -0.7022061 -0.3767935 -0.1541428 -0.42817444
-0.27403164 -0.08563489 -0.20552373 -0.017126977 -0.41104746 -0.6850791 -0.42817444 -0.017126977
-1.4044122 0.034253955 -0.017126977 -1.0618726 -0.017126977 0.25690466 -0.20552373 0.0
0.08563489 -0.102761865 -0.20552373 -0.9762377 0.08563489 0.034253955 0.0 -0.06850791
0.11988884 0.051380932 -0.49668235 -0.06850791 -0.051380932 -0.2226507 0.23977768 -0.034253955
-0.102761865 -0.20552373 -0.051380932 -0.95911074 -0.017126977 0.08563489 0.11988884 0.08563489
-0.102761865 -0.017126977 -0.5309363 -0.18839675 0.1541428 -0.25690466 -0.23977768 -0.63369817
-0.25690466 -0.6165712 -0.23977768 -0.1541428 -0.18839675 -0.102761865 0.051380932 -0.08563489
-0.2226507 0.051380932 0.0 -0.5994442 0.11988884 -0.27403164 -0.102761865 0.2226507
-0.4624284 -0.18839675 -0.34253955 -0.06850791 -0.6850791 -0.5138093 -0.1541428 -0.5138093
-0.017126977 -0.39392048 -0.034253955 -0.2226507 0.102761865 -0.06850791 -0.41104746 -0.78784096
0.034253955 -0.08563489 -0.051380932 -0.35966653 -0.18839675 0.0 0.20552373 -0.20552373
-0.102761865 0.051380932 0.0 -0.32541257 -0.770714 -0.11988884 -0.20552373 0.20552373
-0.4624284 0.11988884 0.017126977 -0.13701582 0.2226507 -0.35966653 -0.41104746 -0.34253955
0.0 -0.17126977 -0.39392048 -0.3082856 -0.11988884 0.017126977 -1.1132536 0.13701582
-0.25690466 -0.63369817 -0.41104746 -0.051380932 0.13701582 -0.11988884 -0.18839675 0.051380932
-0.23977768 -0.11988884 -0.017126977 0.06850791 0.0 0.017126977 0.18839675 0.23977768
0.0 -0.034253955 0.051380932 0.1541428 -1.490047 -0.06850791 -0.29115862 0.051380932
-0.034253955 -0.29115862 -0.29115862 -0.2226507 -0.017126977 0.06850791 -0.102761865 -0.017126977
0.102761865 -0.29115862 0.017126977 -0.017126977 0.18839675 0.08563489 0.051380932 -0.32541257
-0.29115862 -0.2226507 -0.017126977 -0.13701582 -0.1541428 0.102761865 -0.2226507 -0.34253955
-0.11988884 -0.25690466 0.06850791 -0.2226507 -0.08563489 -0.17126977 -0.102761865 0.13701582
-0.017126977 -0.6850791 -0.7022061 -0.25690466 -0.051380932 0.06850791 -0.32541257 -0.42817444
-0.6165712 -1.0789995 -0.11988884 0.051380932 0.08563489 -0.102761865 0.102761865 0.1541428
-0.1541428 -0.18839675 -0.08563489 -0.051380932 -0.23977768 0.08563489 -0.25690466 0.034253955
-0.06850791 0.06850791 -0.051380932 0.0 -1.3872852 -0.051380932 -0.770714 -0.35966653
0.39392048 -0.11988884 -0.08563489 0.25690466 0.0 -0.95911074 -0.1541428 -0.20552373
0.034253955 -0.102761865 0.051380932 0.56519026 0.102761865 -0.13701582 0.49668235 -0.18839675
0.27403164 -0.3082856 -0.051380932 0.11988884 -0.102761865 0.06850791 0.29115862 0.25690466
-0.051380932 0.6850791 -0.08563489 -0.034253955 -0.08563489 -0.25690466 -0.034253955 -0.102761865

sequential/dense_2/MatMul i1 [32, 128] scale=0.010638487 zero_point=0
00000000: ffea fcdd 18de f8f6 04f5 f2e5 e9f6 16fa
00000010: f0f6 d3d6 fbe8 0921 d3f5 06f3 d9ee ffec
00000020: fffe 21f9 13e3 12de 1505 03eb f60b e5f7
00000030: ec0b 0c10 f3ea 02fb edfc 03e7 16ee f3fc
00000040: 07e5 d80f ea02 0cf1 eeec fef7 0a10 f106
00000050: f6e8 dfe9 15f7 0f07 f2f6 310a feed f3f1
00000060: 00ef 24f2 efe7 fcf1 f4f7 f4f8 e523 fbea
00000070: e9f3 f4e9 eefd 0c06 0ef8 ebff f2e1 f7fe
00000080: ea10 fafd 05f6 f4f2 fa16 f7e9 fbcc 04ec
00000090: 22fe f4f0 29eb f4db 18d9 03f3 f611 f0ff
000000a0: 1600 db08 f5f1 f0f0 f1da c6f5 02d4 e100
000000b0: 0606 07f1 10f8 f304 1500 f9d6 ee07 0c15
000000c0: f118 fada fafb e008 f8f7 f7d4 ede5 f9f2
000000d0: f602 f701 fb10 16f8 eaed 1bec d800 0ef3
000000e0: f1dc 3121 dddf ec0e 07f4 fcf8 dc15 04f1
000000f0: 13ef 130b f3fe f911 d5fd dfec 0cf6 2f00
-0.010638487 -0.2340467 -0.042553946 -0.37234703 0.25532368 -0.36170855 -0.08510789 -0.106384866
0.042553946 -0.11702335 -0.1489388 -0.28723913 -0.24468519 -0.106384866 0.2340467 -0.06383092
-0.17021579 -0.106384866 -0.4787319 -0.44681644 -0.053192433 -0.25532368 0.09574638 0.35107005
-0.4787319 -0.11702335 0.06383092 -0.13830033 -0.414901 -0.19149277 -0.010638487 -0.21276973
-0.010638487 -0.021276973 0.35107005 -0.0744694 0.20213124 -0.30851611 0.19149277 -0.36170855
0.22340822 0.053192433 0.03191546 -0.22340822 -0.106384866 0.11702335 -0.28723913 -0.09574638
-0.21276973 0.11702335 0.12766184 0.17021579 -0.13830033 -0.2340467 0.021276973 -0.053192433
-0.20213124 -0.042553946 0.03191546 -0.26596215 0.2340467 -0.19149277 -0.13830033 -0.042553946
0.0744694 -0.28723913 -0.42553946 0.1595773 -0.2340467 0.021276973 0.12766184 -0.1595773
-0.19149277 -0.21276973 -0.021276973 -0.09574638 0.106384866 0.17021579 -0.1595773 0.06383092
-0.106384866 -0.25532368 -0.35107005 -0.24468519 0.22340822 -0.09574638 0.1595773 0.0744694
-0.1489388 -0.106384866 0.52128583 0.106384866 -0.021276973 -0.20213124 -0.13830033 -0.1595773
0.0 -0.18085428 0.38298553 -0.1489388 -0.18085428 -0.26596215 -0.042553946 -0.1595773
-0.12766184 -0.09574638 -0.12766184 -0.08510789 -0.28723913 0.37234703 -0.053192433 -0.2340467
-0.24468519 -0.13830033 -0.12766184 -0.24468519 -0.19149277 -0.03191546 0.12766184 0.06383092
0.1489388 -0.08510789 -0.22340822 -0.010638487 -0.1489388 -0.3297931 -0.09574638 -0.021276973
-0.2340467 0.17021579 -0.06383092 -0.03191546 0.053192433 -0.106384866 -0.12766184 -0.1489388
-0.06383092 0.2340467 -0.09574638 -0.24468519 -0.053192433 -0.5532013 0.042553946 -0.21276973
0.36170855 -0.021276973 -0.12766184 -0.17021579 0.43617794 -0.22340822 -0.12766184 -0.393624
0.25532368 -0.414901 0.03191546 -0.13830033 -0.106384866 0.18085428 -0.17021579 -0.010638487
0.2340467 0.0 -0.393624 0.08510789 -0.11702335 -0.1595773 -0.17021579 -0.17021579
-0.1595773 -0.40426248 -0.61703223 -0.11702335 0.021276973 -0.4680934 -0.3297931 0.0
0.06383092 0.06383092 0.0744694 -0.1595773 0.17021579 -0.08510789 -0.13830033 0.042553946
0.22340822 0.0 -0.0744694 -0.44681644 -0.19149277 0.0744694 0.12766184 0.22340822
-0.1595773 0.25532368 -0.06383092 -0.40426248 -0.06383092 -0.053192433 -0.34043157 0.08510789
-0.08510789 -0.09574638 -0.09574638 -0.4680934 -0.20213124 -0.28723913 -0.0744694 -0.1489388
-0.106384866 0.021276973 -0.09574638 0.010638487 -0.053192433 0.17021579 0.2340467 -0.08510789
-0.2340467 -0.20213124 0.28723913 -0.21276973 -0.42553946 0.0 0.1489388 -0.13830033
-0.1595773 -0.38298553 0.52128583 0.35107005 -0.37234703 -0.35107005 -0.21276973 0.1489388
0.0744694 -0.12766184 -0.042553946 -0.08510789 -0.38298553 0.22340822 0.042553946 -0.1595773
0.20213124 -0.18085428 0.20213124 0.11702335 -0.13830033 -0.021276973 -0.0744694 0.18085428
-0.45745492 -0.03191546 -0.35107005 -0.21276973 0.12766184 -0.106384866 0.5000089 0.0

sequential/dense_1/MatMul i1 [128, 512] scale=0.017159658 zero_point=0
00000000: fa1f cdf6 32b2 de1a 1fe3 04ed d012 edfd
00000010: 0526 0edb 39d6 e2d9 0cf1 10ea 1bc6 e3d6
00000020: 1ef4 f3e1 f3b7 f000 e5f6 281e 9e18 150f
00000030: e5e7 d406 21ed 05fa 0918 0120 e814 f62f
00000040: 0a06 0ff9 df2d cac6 2031 1fec c3fe 0af3
00000050: 0cde 07e2 0c0a dbff d9c8 1e19 dcea e522
00000060: 1c13 2711 462c 0824 2ba3 cebf dfc8 22f7
00000070: 1e15 3df5 220c 06d4 e1f0 030c e822 ddf2
00000080: 04f2 f2ed e6e9 f113 d8ea 0fe8 cce9 dde8
00000090: e4cc 131b df12 faff 1c1a e7ca 23e5 0302
000000a0: 00f8 f71d cd09 2103 ded7 f5f9 fbd6 160c
000000b0: 1626 07d5 daf9 2602 010a fa1c ccec 10da
000000c0: 1cf1 0008 e0bc e9e8 eb41 fd06 e8e5 1ff2
000000d0: e5f1 fdc4 1829 f1f2 f2ed f8f6 fccb f6ff
000000e0: a907 fd49 c21e e50d c9f4 f8fb c811 0633
000000f0: 14be 09d3 12fd ed0e ed06 2bf6 220b dffa
-0.10295795 0.5319494 -0.8751425 -0.17159657 0.8579829 -1.3384533 -0.5834284 0.4461511
0.5319494 -0.49763006 0.06863863 -0.3260335 -0.8236636 0.30887383 -0.3260335 -0.051478975
0.085798286 0.652067 0.24023521 -0.6349073 0.9781005 -0.7207056 -0.5147897 -0.66922665
0.2059159 -0.25739485 0.27455452 -0.37751245 0.46331075 -0.9952601 -0.49763006 -0.7207056
0.5147897 -0.2059159 -0.22307555 -0.5319494 -0.22307555 -1.252655 -0.27455452 0.0
-0.46331075 -0.17159657 0.6863863 0.5147897 -1.6816465 0.4118318 0.3603528 0.25739485
-0.46331075 -0.42899144 -0.7550249 0.10295795 0.5662687 -0.3260335 0.085798286 -0.10295795
0.15443692 0.4118318 0.017159658 0.54910904 -0.4118318 0.34319314 -0.17159657 0.8065039
0.17159657 0.10295795 0.25739485 -0.120117605 -0.5662687 0.7721846 -0.9266215 -0.9952601
0.54910904 0.84082323 0.5319494 -0.34319314 -1.0467391 -0.034319315 0.17159657 -0.22307555
0.2059159 -0.5834284 0.120117605 -0.5147897 0.2059159 0.17159657 -0.6349073 -0.017159658
-0.66922665 -0.96094084 0.5147897 0.42899144 -0.61774766 -0.37751245 -0.46331075 0.5834284
0.48047042 0.3260335 0.66922665 0.2917142 1.201176 0.7550249 0.13727726 0.61774766
0.73786527 -1.5958482 -0.8579829 -1.1153778 -0.5662687 -0.96094084 0.5834284 -0.15443692
0.5147897 0.3603528 1.0467391 -0.18875623 0.5834284 0.2059159 0.10295795 -0.7550249
-0.5319494 -0.27455452 0.051478975 0.2059159 -0.4118318 0.5834284 -0.600588 -0.24023521
0.06863863 -0.24023521 -0.24023521 -0.3260335 -0.4461511 -0.39467213 -0.25739485 0.3260335
-0.6863863 -0.37751245 0.25739485 -0.4118318 -0.8923022 -0.39467213 -0.600588 -0.4118318
-0.48047042 -0.8923022 0.3260335 0.46331075 -0.5662687 0.30887383 -0.10295795 -0.017159658
0.48047042 0.4461511 -0.42899144 -0.9266215 0.600588 -0.46331075 0.051478975 0.034319315
0.0 -0.13727726 -0.15443692 0.49763006 -0.8751425 0.15443692 0.5662687 0.051478975
-0.5834284 -0.703546 -0.18875623 -0.120117605 -0.085798286 -0.7207056 0.37751245 0.2059159
0.37751245 0.652067 0.120117605 -0.73786527 -0.652067 -0.120117605 0.652067 0.034319315
0.017159658 0.17159657 -0.10295795 0.48047042 -0.8923022 -0.34319314 0.27455452 -0.652067
0.48047042 -0.25739485 0.0 0.13727726 -0.54910904 -1.1668568 -0.39467213 -0.4118318
-0.3603528 1.1153778 -0.051478975 0.10295795 -0.4118318 -0.46331075 0.5319494 -0.24023521
-0.46331075 -0.25739485 -0.051478975 -1.0295794 0.4118318 0.703546 -0.25739485 -0.24023521
-0.24023521 -0.3260335 -0.13727726 -0.17159657 -0.06863863 -0.90946186 -0.17159657 -0.017159658
-1.4928902 0.120117605 -0.051478975 1.252655 -1.0638988 0.5147897 -0.46331075 0.22307555
-0.94378114 -0.2059159 -0.13727726 -0.085798286 -0.96094084 0.2917142 0.10295795 0.8751425
0.34319314 -1.1325374 0.15443692 -0.7721846 0.30887383 -0.051478975 -0.3260335 0.24023521
-0.3260335 0.10295795 0.73786527 -0.17159657 0.5834284 0.18875623 -0.5662687 -0.10295795

sequential/dense/MatMul i1 [512, 36] scale=0.02534021 zero_point=0
00000000: e520 bd12 edde fe07 dc0d d52f 0123 0aff
00000010: 04ff e80c fa07 0e23 e008 fcdc ed12 feed
00000020: 211e 0fe9 19dd 0fe7 f4fc 1209 15ec f20f
00000030: 07ef 1808 0a02 fc05 1d5b 2402 12d8 d7f7
00000040: 1403 0be3 fae0 c222 fa08 f105 fcde 0f0e
00000050: 0503 d202 0218 08ef 1212 fa23 070d c929
00000060: 0719 fd02 e2dc 0306 f5e3 efee 022b ede2
00000070: 0bf4 db1a f4ef 0d22 32e0 eb00 edfa 101d
00000080: de13 0112 f6ee 0f1f 00fb fe20 e8f7 0d0b
00000090: ea26 001e f731 f0e9 1212 00ec e2e9 1513
000000a0: f407 ed33 0f0f ecee f4e3 fc05 e006 f2c6
000000b0: efd2 1afd 0b08 f3b6 eaf9 f5e8 0334 151a
000000c0: f0f9 0209 f403 ee06 f307 fed7 11ef f021
000000d0: e4fe 1eec cd0e ebea f411 f8f1 e6f5 1516
000000e0: 0b0a fe0e 000f 21d2 0b02 0fee 021d fb02
000000f0: e617 01dc dee7 06fb fc24 22f7 fc2c f3fe
-0.6841857 0.81088674 -1.6977941 0.4561238 -0.481464 -0.86156714 -0.05068042 0.17738147
-0.9122476 0.32942274 -1.089629 1.1909899 0.02534021 0.8869074 0.2534021 -0.02534021
0.10136084 -0.02534021 -0.608165 0.3040825 -0.15204126 0.17738147 0.35476294 0.8869074
-0.81088674 0.20272169 -0.10136084 -0.9122476 -0.481464 0.4561238 -0.05068042 -0.481464
0.83622694 0.76020634 0.38010317 -0.5828248 0.6335053 -0.8869074 0.38010317 -0.6335053
-0.3040825 -0.10136084 0.4561238 0.2280619 0.5321444 -0.5068042 -0.35476294 0.38010317
0.17738147 -0.43078357 0.608165 0.20272169 0.2534021 0.05068042 -0.10136084 0.12670106
0.7348661 2.3059592 0.9122476 0.05068042 0.4561238 -1.0136085 -1.0389487 -0.2280619
0.5068042 0.07602063 0.2787423 -0.7348661 -0.15204126 -0.81088674 -1.5710931 0.86156714
-0.15204126 0.20272169 -0.38010317 0.12670106 -0.10136084 -0.86156714 0.38010317 0.35476294
0.12670106 0.07602063 -1.1656497 0.05068042 0.05068042 0.608165 0.20272169 -0.43078357
0.4561238 0.4561238 -0.15204126 0.8869074 0.17738147 0.32942274 -1.3937116 1.0389487
0.17738147 0.6335053 -0.07602063 0.05068042 -0.76020634 -0.9122476 0.07602063 0.15204126
-0.2787423 -0.7348661 -0.43078357 -0.4561238 0.05068042 1.089629 -0.481464 -0.76020634
0.2787423 -0.3040825 -0.9375878 0.6588455 -0.3040825 -0.43078357 0.32942274 0.86156714
1.2670106 -0.81088674 -0.5321444 0.0 -0.481464 -0.15204126 0.40544337 0.7348661
-0.86156714 0.481464 0.02534021 0.4561238 -0.2534021 -0.4561238 0.38010317 0.78554654
0.0 -0.12670106 -0.05068042 0.81088674 -0.608165 -0.2280619 0.32942274 0.2787423
-0.5574846 0.962928 0.0 0.76020634 -0.2280619 1.2416704 -0.40544337 -0.5828248
0.4561238 0.4561238 0.0 -0.5068042 -0.76020634 -0.5828248 0.5321444 0.481464
-0.3040825 0.17738147 -0.481464 1.2923508 0.38010317 0.38010317 -0.5068042 -0.4561238
-0.3040825 -0.7348661 -0.10136084 0.12670106 -0.81088674 0.15204126 -0.35476294 -1.4697322
-0.43078357 -1.1656497 0.6588455 -0.07602063 0.2787423 0.20272169 -0.32942274 -1.8751756
-0.5574846 -0.17738147 -0.2787423 -0.608165 0.07602063 1.317691 0.5321444 0.6588455
-0.40544337 -0.17738147 0.05068042 0.2280619 -0.3040825 0.07602063 -0.4561238 0.15204126
-0.32942274 0.17738147 -0.05068042 -1.0389487 0.43078357 -0.43078357 -0.40544337 0.83622694
-0.7095259 -0.05068042 0.76020634 -0.5068042 -1.2923508 0.35476294 -0.5321444 -0.5574846
-0.3040825 0.43078357 -0.20272169 -0.38010317 -0.6588455 -0.2787423 0.5321444 0.5574846
0.2787423 0.2534021 -0.05068042 0.35476294 0.0 0.38010317 0.83622694 -1.1656497
0.2787423 0.05068042 0.38010317 -0.4561238 0.05068042 0.7348661 -0.12670106 0.05068042
-0.6588455 0.5828248 0.02534021 -0.9122476 -0.86156714 -0.6335053 0.15204126 -0.12670106
-0.10136084 0.9122476 0.86156714 -0.2280619 -0.10136084 1.1149693 -0.32942274 -0.05068042
